reports/day3/GRU.pt (torch, 154949 bytes, 9 tensors)

gru.weight_ih_l0 f4 [192, 1]
0	0x3c188a49	0.0093103135
1	0xbd1ecc44	-0.03876902
2	0x3c66b94b	0.014082263
3	0x3cd572e3	0.026055759
4	0x3d8e2cb3	0.069421194
5	0x3d388c75	0.045055825
6	0xbce27ab0	-0.027646393
7	0xbdcc8566	-0.09986381
8	0xbdc6d5b3	-0.09708729
9	0x3dbcda31	0.09221304
10	0x3dfd9ccb	0.123834215
11	0xbd9bac0f	-0.07601177
12	0xbdc9f553	-0.09861245
13	0xbc419d96	-0.011817357
14	0xbda8384d	-0.082138635
15	0x3db4f762	0.08836247
16	0x3e08f254	0.13373691
17	0x3c482eae	0.012218161
18	0xbddc6bd6	-0.107627556
19	0xbd77ed70	-0.060529172
20	0xbd19c2ac	-0.03753917
21	0x3da08efc	0.07839772
22	0xbda3c490	-0.07996476
23	0x3db8f7d3	0.09031644
24	0xbd90156d	-0.07035337
25	0xbc9ebc05	-0.019376764
26	0xbd2b8895	-0.0418783
27	0x3b9a7c9f	0.004714563
28	0x3dcc0cb8	0.099633634
29	0xbdaa4522	-0.08313967
30	0xbc4357ff	-0.011922835
31	0xbdb849fc	-0.089984864
32	0xbdc252a3	-0.09488418
33	0x3d43890a	0.047738113
34	0xbdcbcf1b	-0.099516116
35	0xbd10faaa	-0.035395302
36	0x3d3110fc	0.04322909
37	0x3a16c0d4	0.00057507795
38	0x3e010db7	0.12602888
39	0x3ce23f4d	0.027618075
40	0x3dbefd5c	0.09325668
41	0x3aafe378	0.0013419231
42	0x3dca7cbb	0.09887072
43	0xbc8783bd	-0.01654231
44	0x3dd9a67f	0.1062746
45	0x3dd79bbc	0.10527751
46	0x3d8e5813	0.069503926
47	0x3d3534b2	0.044239707
48	0x3df516c6	0.11967234
49	0xbd072243	-0.03299166
50	0xbd157b94	-0.036494806
51	0xbdba4e98	-0.09097022
52	0x3daa02aa	0.083012894
53	0x3dc2c422	0.095100656
54	0x3d79fc31	0.061031524
55	0x3cd6854a	0.026186604
56	0x3dce73d4	0.10080686
57	0x3d0bdbc9	0.03414515
58	0x3b24b256	0.002513071
59	0x3d66252c	0.056187794
60	0x3db43a80	0.088002205
61	0xbdce9404	-0.100868255
62	0x3de96bc4	0.11397508
63	0xbdda6814	-0.106643826
64	0x3b9899c5	0.0046570026
65	0xbbd35c97	-0.0064502466
66	0xbc51e81b	-0.012811686
67	0x3dfe12a0	0.12405896
68	0x3cbd4c5a	0.023107696
69	0xbd21eb73	-0.039531182
70	0x3ce53a39	0.027981864
71	0xbdcd81b7	-0.10034507
72	0x3cfba654	0.03071896
73	0xbd9b7125	-0.0758994
74	0xbd0fa3d9	-0.035068367
75	0x3d32d4a3	0.043659817
76	0x3d953b71	0.07286728
77	0x3c87daa1	0.016583743
78	0xbbb29165	-0.0054494613
79	0x3d9a6d46	0.075403735
80	0xbdb661e1	-0.08905388
81	0x3db3cce8	0.08779317
82	0x3d0f1bab	0.034938496
83	0xbde7a055	-0.11309878
84	0x3d8fad04	0.07015422
85	0xbccad79a	-0.02476101
86	0x3df2df70	0.118590236
87	0xbda2ac28	-0.079429924
88	0xbcf02484	-0.029314287
89	0x3d8e73a2	0.06955649
90	0x3d9bd9c1	0.07609893
91	0x3ddd4df9	0.10805888
92	0xbde4be1f	-0.11169075
93	0xbc6ba59f	-0.014382749
94	0xbddaf97d	-0.10692117
95	0x3c928e73	0.01789019
96	0x3c6eb70b	0.014570008
97	0x3c0f6a8f	0.008753433
98	0xbd0765de	-0.033056132
99	0xbbb25fa2	-0.005443529
100	0xbbe357cd	-0.006937957
101	0x3d6ba6c7	0.0575321
102	0xbda1ee41	-0.079067715
103	0x3df3248c	0.11872205
104	0x3decd099	0.11563224
105	0x3d5a594f	0.053307828
106	0x3c9ec53f	0.019381164
107	0x3d8f6ff5	0.07003776
108	0x3c819c91	0.015821727
109	0xbd3b3c8d	-0.045712043
110	0x3d3299eb	0.04360382
111	0xb9195b8e	-0.00014625324
112	0x3d202b81	0.03910399
113	0x3dd4c583	0.10389235
114	0x3d7aa994	0.06119688
115	0xbdcb299d	-0.099200465
116	0x3dde86f5	0.10865585
117	0xbd3f2669	-0.04666749
118	0x3d49c2fb	0.049258213
119	0x3d871d2e	0.065973625
120	0xbde14ea0	-0.11001325
121	0xbda74db4	-0.081691176
122	0x3dec7a23	0.11546733
123	0x3dbb8d2e	0.09157787
124	0xbd38fff1	-0.04516596
125	0x3cf8e118	0.03038077
126	0x3e04de03	0.12975316
127	0x3ca1b8ef	0.019741504
128	0x3cd04815	0.025424996
129	0x3c2970eb	0.010341863
130	0xbc809a4c	-0.015698574
131	0x3cddb674	0.02706454
132	0xbd66c28e	-0.056337886
133	0xbd6f6a1f	-0.058450814
134	0xbdab77fb	-0.08372494
135	0xbd6e9283	-0.058245193
136	0x3c62080a	0.013795862
137	0x3d773bf1	0.0603599
138	0x3e024f0f	0.12725471
139	0xbd8df54a	-0.06931551
140	0xbd6f90b9	-0.058487628
141	0x3d40c474	0.047062352
142	0x3c1d08a5	0.009584581
143	0x3d8c64a7	0.068551354
144	0xbcd14159	-0.025543856
145	0xbdb611e7	-0.08890133
146	0x3d356af9	0.04429147
147	0xbc9eebee	-0.01939961
148	0x3de2f19c	0.110812396
149	0x3d1a16ae	0.037619285
150	0x3d0322eb	0.032015722
151	0xbd399faa	-0.045318283
152	0x3db3d153	0.0878016
153	0x3cb7cb64	0.022435851
154	0xbd0a1aa1	-0.0337168
155	0x3cb9183a	0.02259456
156	0x3d6579bb	0.056024294
157	0xbde998f3	-0.11406126
158	0x3dd8d3a3	0.105872415
159	0x3c7f6e6c	0.0155902915
160	0x3d13a85a	0.036049224
161	0xbdde9d94	-0.108698994
162	0xbd7e6ef2	-0.062117524
163	0x3bf2c362	0.0074085454
164	0xbd340733	-0.04395218
165	0xbd39f58a	-0.04540018
166	0xbcf1541d	-0.029459054
167	0x3cd7b46f	0.026331155
168	0xbd5eb6f9	-0.054373715
169	0x3ddd3e25	0.10802869
170	0xbd850462	-0.064949766
171	0xbd8b41f1	-0.06799687
172	0xbc0a9c60	-0.008460134
173	0x3c0321a5	0.008003627
174	0x3b0a4c6f	0.0021102687
175	0xbda7fc0f	-0.08202373
176	0x3daec202	0.08533098
177	0xbd9c851c	-0.07642576
178	0x3cf144fc	0.02945184
179	0xbdf48f8a	-0.119414404
180	0x3d37ef01	0.044905666
181	0x3d1d76fb	0.038443547
182	0xbc84fe36	-0.016234498
183	0x3dbcbb86	0.09215455
184	0x3c498990	0.012300864
185	0xbda5cb22	-0.08095385
186	0x3daa6f4a	0.08322008
187	0x3ba35cc2	0.004985423
188	0xbd8dbfa3	-0.069213174
189	0x3dbf210b	0.09332474
190	0x3d2b0917	0.041756716
191	0xbd03ce3a	-0.032179095

gru.weight_hh_l0 f4 [192, 64]
0	0xbd9cc7b5	-0.076552786
1	0xbc9ae6d4	-0.018908896
2	0xbdd51631	-0.10404623
3	0xbd4cfd11	-0.05004603
4	0x3cb51ffc	0.022109978
5	0x3c9db601	0.019251825
6	0x3d8c7fa2	0.068602815
7	0x3d7b0f8c	0.061294124
8	0xbbc90883	-0.006135048
9	0x3caff064	0.021476932
10	0xbd51c965	-0.051217455
11	0x3c6a62ba	0.014305765
12	0xbdb45abb	-0.08806368
13	0xbce81c6b	-0.028333863
14	0x3de9290b	0.113847815
15	0x3db1403d	0.086548306
16	0xbd3c8cf2	-0.046032853
17	0x3c9b6727	0.018970085
18	0xbdda6126	-0.10663061
19	0x3d6564a8	0.056004196
20	0x3de40f8a	0.11135776
21	0xbc44f23c	-0.012020644
22	0xbd289d52	-0.041165657
23	0x3dbe6624	0.092968255
24	0x3d29bfcb	0.041442674
25	0xbd9e9b40	-0.07744455
26	0xbd7e6958	-0.062112182
27	0x3d938f6b	0.07205089
28	0x3dc5d436	0.09659617
29	0xbdf7ed60	-0.121058226
30	0x3d84e182	0.06488325
31	0xbc0088a0	-0.007845074
32	0x3da1cbfb	0.07900234
33	0xbd57c818	-0.05268106
34	0x3de9806d	0.114014484
35	0xbc95ca41	-0.018284919
36	0xb9c5a2ac	-0.00037695968
37	0x3de7ec5b	0.11324378
38	0x3c989177	0.01862405
39	0x3d3507d9	0.044196937
40	0x3c7a9313	0.015293854
41	0xbe0b74ba	-0.13618746
42	0x3c7e730a	0.015530357
43	0x3b4214ac	0.0029614372
44	0x3d9a1ad7	0.075246505
45	0xbde45cd9	-0.11150522
46	0xbbb41837	-0.0054960507
47	0xbd014217	-0.03155717
48	0xbd274953	-0.04084141
49	0x3d38903d	0.04505943
50	0xbe084ae0	-0.13309813
51	0x3dd66304	0.104681045
52	0xbe085fa2	-0.13317731
53	0xbccad175	-0.02475808
54	0x3dbebfd8	0.09313935
55	0x3dc883f4	0.09790793
56	0xbd9689e9	-0.07350523
57	0x3d869cd9	0.06572885
58	0xbce62db7	-0.02809797
59	0xbda72d76	-0.08162968
60	0xbc6f17ce	-0.014593078
61	0xbcad2257	-0.021134539
62	0xbd9a1fac	-0.07525572
63	0x3de2a3a3	0.110663675
64	0x3d2e8913	0.042611193
65	0xbd9c24cc	-0.07624206
66	0x3dbfdc41	0.09368182
67	0x3c20bf76	0.009811273
68	0xbc0d1a33	-0.008612203
69	0x3dd0d300	0.10196495
70	0x3cc2f96d	0.023800576
71	0xbc62f51f	-0.013852387
72	0xbca88e84	-0.02057577
73	0xbcd831d8	-0.026390955
74	0xbcab0f1c	-0.020881228
75	0xbd114d56	-0.035474144
76	0xbc92e57a	-0.017931689
77	0xba613790	-0.00085913483
78	0x3d861783	0.06547453
79	0xbdcbb2f6	-0.099462435
80	0x3de98382	0.11402036
81	0x3d9956d3	0.074872635
82	0xbcdfa748	-0.027301446
83	0xbdc3bd52	-0.09557594
84	0xbc3b052d	-0.011414808
85	0x3d82e558	0.063914
86	0x3df819c6	0.12114291
87	0xbdf3ba17	-0.11900728
88	0x3ce3862a	0.027773935
89	0x3d83a2b6	0.06427519
90	0x3da83b4e	0.082144365
91	0xbdca5b99	-0.09880752
92	0x3d5933ca	0.053027906
93	0xbc89a12b	-0.016800484
94	0xbd194f4a	-0.03742913
95	0x3c411c76	0.011786571
96	0xbcac73c5	-0.021051297
97	0xbda7d061	-0.08194042
98	0x3a2fc840	0.000670556
99	0xbdd98303	-0.106206916
100	0xbdbb2598	-0.0913803
101	0x3c9b6764	0.018970199
102	0xbda6e6ad	-0.08149467
103	0x3c86d296	0.016457837
104	0x3d9f5c5d	0.07781289
105	0xbd72c59b	-0.059270483
106	0x3d326e88	0.043562442
107	0xbca3bd52	-0.019987736
108	0x3ce40bfb	0.027837744
109	0xbcb76d15	-0.022390882
110	0xbde8c38f	-0.11365425
111	0x3c853885	0.016262302
112	0x3dd84293	0.10559573
113	0xbd7788b8	-0.06043312
114	0xbde452d2	-0.11148609
115	0x3c4be850	0.012445524
116	0x3d019fb4	0.031646445
117	0x3c82810d	0.015930677
118	0xbd7d97dc	-0.061912403
119	0x3d918b2b	0.07106622
120	0xbdc3891a	-0.095476344
121	0xbd48da6c	-0.04903643
122	0x3c591693	0.013250011
123	0x3dd27887	0.10276895
124	0x3beafbd0	0.0071711317
125	0x3d240b02	0.04004956
126	0x3df5cde9	0.12002165
127	0x3979be16	0.00023817303
128	0xbcc164e5	-0.02360768
129	0x3d85a20c	0.065250486
130	0x3d96d601	0.07365037
131	0xbd5503c0	-0.05200553
132	0xbd448726	-0.04798045
133	0x3db96423	0.09052303
134	0xbde6188a	-0.11235149
135	0xbd46e801	-0.0485611
136	0x3d50502d	0.05085771
137	0xbd3c4506	-0.045964263
138	0x3d852863	0.06501844
139	0xbd35b613	-0.044363093
140	0x3d3633a5	0.044482846
141	0xbdbd55d0	-0.09244883
142	0x3e011e22	0.12609151
143	0xbd047a37	-0.032343116
144	0xbd8d9671	-0.0691346
145	0x3e013f96	0.12621912
146	0x3cfe789b	0.031063369
147	0x3cc7e944	0.024403222
148	0x3dad2d80	0.08455944
149	0xbdcb4049	-0.09924371
150	0xbcdab174	-0.026695944
151	0xbdfab889	-0.122422285
152	0x3cdd6824	0.027027197
153	0x3cfe2be3	0.031026786
154	0x3d0f9cff	0.035061833
155	0xbdf164d9	-0.11786813
156	0x3d90fb52	0.070791855
157	0x3d1ca839	0.038246367
158	0x3dc07aa8	0.09398395
159	0x3db1f643	0.08689549
160	0x3d3dcca8	0.046337754
161	0x3db4eae9	0.08833868
162	0x3dd05dca	0.10174139
163	0xbd9c6955	-0.07637278
164	0xbdbec2b6	-0.09314482
165	0xbdbfbc69	-0.09362108
166	0x3d89d1f3	0.06729498
167	0xbc939824	-0.018016882
168	0xbd6e922d	-0.058244873
169	0x3d008521	0.03137696
170	0x3dc33ed3	0.09533467
171	0x3cb76c8d	0.022390628
172	0x3c418edd	0.011813846
173	0x3de03f5a	0.10949583
174	0x3d479033	0.048721503
175	0xbdf2239e	-0.118232
176	0xbd119fb4	-0.035552695
177	0x3df83d8f	0.12121116
178	0x3c42a333	0.01187973
179	0xbba7160f	-0.005099065
180	0x3dbb2783	0.09138396
181	0xbd97477d	-0.07386682
182	0xbd58954b	-0.052876752
183	0xbde5f3f3	-0.1122817
184	0x3de81df4	0.11333838
185	0x3dbbe009	0.09173591
186	0xbd8530aa	-0.065034226
187	0x3dafdf23	0.08587482
188	0xbd110ef6	-0.03541466
189	0xbbbffb11	-0.005858787
190	0x3de41d91	0.11138452
191	0x3d5f3467	0.054493334
192	0x3c8b89fe	0.017033573
193	0x3d74cf56	0.059768043
194	0xbd95b238	-0.07309383
195	0xbda46e59	-0.0802886
196	0xbdef6ecf	-0.11691057
197	0x3d666198	0.056245416
198	0x3cd05685	0.02543188
199	0x3db4f8a2	0.088364854
200	0x3dd5e393	0.10443797
201	0xbd8b775b	-0.068098746
202	0x3d54ada5	0.051923413
203	0xbdf606ea	-0.120130375
204	0xbda30547	-0.07959991
205	0x3dd3306b	0.10311969
206	0xbdb21352	-0.08695091
207	0xba851d0b	-0.001015575
208	0x3d97c893	0.07411303
209	0x3d8a0a46	0.06740241
210	0x3dd4b891	0.10386766
211	0x3dd6d4ba	0.10489793
212	0xbc9d8a01	-0.019230844
213	0xbdbe0926	-0.09279089
214	0xbd82d4e9	-0.06388266
215	0xbd36242e	-0.044468097
216	0x3df29516	0.11844842
217	0xbcd191af	-0.025582163
218	0xbc377a1d	-0.011198548
219	0x3db3c762	0.08778264
220	0x3db20332	0.08692016
221	0xbdbb9832	-0.09159888
222	0xbd66daf3	-0.05636115
223	0x3d4c5f16	0.04989537
224	0x3daa9abf	0.08330297
225	0x3dc7eb68	0.09761697
226	0xbda54783	-0.080702804
227	0x3c9c3b56	0.019071262
228	0xbd90d530	-0.07071912
229	0x3dd23504	0.10264018
230	0xbd45fb2e	-0.048335247
231	0xbbc9b201	-0.006155253
232	0xbdd77c0e	-0.105217084
233	0x3d6873d2	0.05675108
234	0xbda7a128	-0.08185035
235	0x3d1d9239	0.038469527
236	0x3cba4493	0.022737777
237	0x3d3a3ff7	0.045471158
238	0xbd97d824	-0.074142724
239	0xbd68c184	-0.056825176
240	0xbddf0e7e	-0.10891436
241	0xbd13bd7f	-0.03606939
242	0x3db2cbfe	0.08730315
243	0xbc951fc6	-0.018203627
244	0x3db80729	0.08985741
245	0x3d3d2c45	0.046184797
246	0x3d7194ba	0.058979727
247	0xbd0f38be	-0.034966223
248	0x3da77b65	0.081778325
249	0x3a805317	0.0009790388
250	0xbce3b1bc	-0.027794711
251	0x3b87cd15	0.0041443207
252	0x3d9dc76f	0.077040546
253	0xbde5e5f0	-0.11225498
254	0xbd54c478	-0.05194518
255	0x3d8d8b7d	0.06911371

gru.bias_ih_l0 f4 [192]
0	0xbd8c5b63	-0.06853368
1	0x3cb0d5fe	0.021586414
2	0x3cbc8769	0.023013787
3	0xbd1080ea	-0.035279192
4	0xbd10cb0e	-0.035349898
5	0x3d6100e5	0.054932494
6	0x3c608b25	0.01370505
7	0x3ddeacbd	0.10872791
8	0x3da57be3	0.0808027
9	0x3d7fe014	0.062469557
10	0x3cf15ade	0.029462274
11	0x3daa093d	0.08302543
12	0xbc36d378	-0.0111588165
13	0xbda65c83	-0.08123114
14	0x3d244ecb	0.040114205
15	0xbd9522c8	-0.072820246
16	0xbd941c27	-0.07231932
17	0xbd0be71d	-0.034155954
18	0xbdbf60fd	-0.09344671
19	0xbcb5e982	-0.022206072
20	0xbd51c1e6	-0.051210307
21	0x3d0b0fbb	0.03395055
22	0x3d54d5f7	0.051961865
23	0x3dcebf23	0.1009505
24	0xbdd73672	-0.105084315
25	0x3de563e4	0.11200693
26	0x3dfb8e05	0.122829475
27	0xbdb2ce2c	-0.087307304
28	0x3c8da198	0.017288968
29	0xbdd29e58	-0.10284108
30	0x3ca8f5b4	0.020624973
31	0x3d91efc6	0.07125811
32	0xbdbbf094	-0.09176746
33	0x3d2af23a	0.04173491
34	0x3c75db1f	0.015005856
35	0x3c7a23ba	0.015267307
36	0xbd9f432e	-0.077764854
37	0x3db37793	0.08763041
38	0xbc906528	-0.01762636
39	0xbdb760be	-0.08953999
40	0x3da7dd28	0.08196479
41	0xbd0089e8	-0.031381518
42	0x3de3f7bf	0.11131238
43	0xbda8ea36	-0.08247797
44	0xbe0f27a0	-0.1397996
45	0xbce2434c	-0.02761998
46	0x3b28a160	0.0025730953
47	0xbdb303bd	-0.087409474
48	0xbc0e4bd6	-0.008685073
49	0xbdbd401d	-0.09240744
50	0x3dc5a98a	0.09651478
51	0x3d649369	0.055804644
52	0xbdc351a2	-0.095370546
53	0xbde045be	-0.10950802
54	0x3ddf3be6	0.109000966
55	0x3da16b4e	0.07881795
56	0xbd6d6088	-0.057953387
57	0xbd6cfef7	-0.05786034
58	0xbd8ee900	-0.06978035
59	0xbdbef850	-0.093247056
60	0x3d50d5f8	0.050985307
61	0x3d12ce0c	0.035841033
62	0x3c4a9bc5	0.01236624
63	0x3cdb27dc	0.026752405
64	0x3dcde41c	0.10053274
65	0x3d95730f	0.07297336
66	0x3e018986	0.12650117
67	0x3d9877bd	0.07444713
68	0x3d41b240	0.047289133
69	0xbac995e2	-0.0015379752
70	0xbd18f382	-0.037341602
71	0x3e004ae6	0.12528571
72	0xbd81f603	-0.06345751
73	0x3da4e9fe	0.08052443
74	0x3d736369	0.059420977
75	0xbde82f49	-0.11337144
76	0xbb84dc93	-0.004054615
77	0x3dea4eac	0.11440787
78	0x3d4baa57	0.049722996
79	0x3dd6f236	0.10495417
80	0xbdcf2e44	-0.10116246
81	0xbd6ddc05	-0.058071155
82	0xbda3a97a	-0.079913095
83	0x3d947b64	0.072500974
84	0x3d369028	0.044571072
85	0x3de8605f	0.11346506
86	0xbdb18a9e	-0.08669017
87	0x3dae98c9	0.08525235
88	0x3dc7488e	0.097306356
89	0xbd948d96	-0.07253568
90	0xbdf79469	-0.12088854
91	0x3dcd94d6	0.10038154
92	0x3d4f37d5	0.050590355
93	0xbd45bb11	-0.048274104
94	0xbdfd84b8	-0.1237883
95	0xbc3037a1	-0.01075545
96	0x3cb82951	0.022480639
97	0xbd4cb7c5	-0.049979944
98	0xbb4e932e	-0.0031520831
99	0x3bc1a3bd	0.0059094117
100	0x3d868d8b	0.06569966
101	0x3deb6d48	0.11495453
102	0x3d54482b	0.051826637
103	0xbd7eada4	-0.062177315
104	0xbd3db12f	-0.046311554
105	0xbd4116d7	-0.047140922
106	0xbd21feae	-0.039549522
107	0x3d8d7297	0.06906622
108	0x3dc3b30a	0.09555633
109	0x3c89af97	0.01680736
110	0xbdb5783a	-0.08860822
111	0x3dcf7493	0.10129657
112	0xbd9c7f36	-0.07641451
113	0x3d75e09a	0.06002865
114	0xbdb587e7	-0.08863812
115	0xbdbac0cb	-0.091188036
116	0xbc242504	-0.010018591
117	0xbd8a3f3e	-0.06750344
118	0xbda0952f	-0.078409545
119	0x3daac16a	0.08337672
120	0xbd38cb2a	-0.045115627
121	0x3df34f82	0.11880399
122	0xbda3896c	-0.079851955
123	0x3dd5fa90	0.10448182
124	0x3da41794	0.0801231
125	0xbdc8ae77	-0.097989015
126	0xbda2ce9e	-0.07949565
127	0x3b45cf00	0.0030183196
128	0x3cac52d0	0.021035582
129	0xbdec5e4b	-0.115414225
130	0xbd99a4b4	-0.07502118
131	0xbaa6cf78	-0.0012726625
132	0xbdb68e7c	-0.089138955
133	0x3d91d341	0.071203716
134	0x3d4d250d	0.050084163
135	0xbb3ee530	-0.0029128306
136	0x3c1dc4a5	0.009629403
137	0x3d16ffb8	0.036864966
138	0x3ad57365	0.0016285001
139	0x3d3c3462	0.045948394
140	0xbded0e92	-0.11575045
141	0x3d2ffca4	0.042965546
142	0xbdc48e01	-0.095973976
143	0xbddc64a6	-0.10761385
144	0xbd8a5bcd	-0.06755791
145	0xbddaeb05	-0.10689358
146	0xbd47dd92	-0.04879529
147	0x3d7f5f65	0.062346835
148	0xbd91e289	-0.07123286
149	0xbd0e0eb4	-0.03468199
150	0x3cb2d62d	0.021830643
151	0x3db2d710	0.08732426
152	0x3d21fb81	0.039546493
153	0xbdcdd6fc	-0.10050771
154	0x3da4b3f7	0.08042138
155	0xbd9eb631	-0.07749594
156	0xbd62011a	-0.05517683
157	0x3d0e5f84	0.03475906
158	0xbce163f2	-0.027513478
159	0x3dba9470	0.091103435
160	0xbd5af712	-0.05345828
161	0xbc8b84eb	-0.017031154
162	0xbbec1bc8	-0.00720546
163	0xbc976215	-0.018479386
164	0xbd436aff	-0.04770946
165	0xbdd04f96	-0.1017143
166	0x3d5cd1e3	0.0539111
167	0x3dc83a9d	0.097768046
168	0xbda4b742	-0.08042766
169	0xbbc085ba	-0.0058753164
170	0xbd88da3d	-0.06682251
171	0xbd239467	-0.03993645
172	0xbd6d5cda	-0.05794988
173	0x3dab15fc	0.083538026
174	0xbd7cec78	-0.06174895
175	0xbde02642	-0.10944797
176	0x3dbc73eb	0.09201797
177	0x3cdf9116	0.027290862
178	0x3de3a78f	0.11115944
179	0xbdc43e5b	-0.09582206
180	0xbd26d276	-0.040728055
181	0x3d0227fe	0.03177642
182	0x3c38db8c	0.011282813
183	0xbd7d5df1	-0.061857168
184	0x3de2a7ca	0.110671595
185	0xbbfc15be	-0.0076930216
186	0x3d895d52	0.067072526
187	0x3cdc8e33	0.026923275
188	0xbda4d0ec	-0.08047661
189	0xbd43c855	-0.047798473
190	0x3d26c078	0.040710896
191	0x3de88796	0.11353986

gru.bias_hh_l0 f4 [192]
0	0xbdd7304d	-0.105072595
1	0x3dab98a0	0.0837872
2	0x3db2179c	0.086959094
3	0xbc8772e3	-0.016534274
4	0xbd60b807	-0.054863002
5	0xbc21b976	-0.0098708775
6	0x3de0779a	0.10960312
7	0x3a9750b3	0.0011544436
8	0x3d1b689b	0.037941556
9	0xbd74149a	-0.05958996
10	0xbdab8fce	-0.08377038
11	0x3d8b537d	0.068030335
12	0x3d773c10	0.060360014
13	0xbda4a11b	-0.08038541
14	0xbc74ccfe	-0.014941452
15	0xbab9a07d	-0.0014162209
16	0xbd81f657	-0.06345814
17	0xbde8084d	-0.11329708
18	0x3c83ae2e	0.016074266
19	0xbde984a1	-0.1140225
20	0xbd83081c	-0.06398031
21	0x3cb9e898	0.022693917
22	0x3d34e623	0.044164788
23	0xbd4b759f	-0.04967272
24	0xbc93957d	-0.018015618
25	0xbbbad7a1	-0.0057019745
26	0xbc670cfc	-0.014102217
27	0x3dda765e	0.10667108
28	0xbdb922fd	-0.090398766
29	0xbd9ee6c0	-0.07758856
30	0x3d026388	0.0318332
31	0xbd04c1a2	-0.032411225
32	0xbd4abdd2	-0.049497433
33	0xbe019768	-0.12655413
34	0xbd99ccff	-0.07509803
35	0x3d826009	0.063659735
36	0x3dbf3ec0	0.093381405
37	0xbddb199f	-0.10698246
38	0x3d80320c	0.06259546
39	0xbde909f9	-0.11378855
40	0x3c3d1010	0.011539474
41	0x3ce8ec12	0.02843288
42	0xbd96280d	-0.07331858
43	0x3d396dd7	0.045270767
44	0xbdc19490	-0.09452164
45	0x3de59201	0.11209489
46	0xbdd38de0	-0.10329795
47	0xbdb3504d	-0.087555505
48	0xbd5794f5	-0.05263229
49	0xbceafe49	-0.028685706
50	0xbc7c5567	-0.015401221
51	0x3d0b1b62	0.03396166
52	0xbd524b51	-0.05134136
53	0x3dd39aff	0.103322975
54	0x3d9a54da	0.075357154
55	0x3e00ffa0	0.12597513
56	0x3c718ddc	0.014743295
57	0x3da34548	0.07972199
58	0xbc2811bf	-0.010258137
59	0xbdfdb1fd	-0.12387464
60	0x3d714f51	0.058913533
61	0xbde5305a	-0.11190863
62	0x3d77d05b	0.060501438
63	0xbd1908a7	-0.037361767
64	0x3dd964e8	0.106149495
65	0xbd9352b7	-0.07193511
66	0xbd275db0	-0.04086083
67	0x3da66269	0.08124239
68	0xbdabc0e3	-0.083863996
69	0x3c96e4a4	0.018419571
70	0x3d8be4d3	0.06830754
71	0xbc382fc1	-0.011241854
72	0xbdeafc1b	-0.114738666
73	0x3dacfa74	0.08446208
74	0x3d706d00	0.0586977
75	0x3d842686	0.0645266
76	0x3ba55e4a	0.0050466405
77	0x3d3e8ffa	0.046524025
78	0xbd629119	-0.055314157
79	0x3deed9aa	0.1166261
80	0x3cdee443	0.027208453
81	0x3d9aee9f	0.075650446
82	0x3d9222fc	0.07135579
83	0xbdf071bc	-0.11740443
84	0xbdddcf9f	-0.10830616
85	0xbd691c53	-0.056911778
86	0x3dbffdaf	0.09374558
87	0xbdf80743	-0.1211076
88	0x3dbf8b14	0.09352699
89	0xbb8dc922	-0.0043269554
90	0xbd49dc66	-0.049282454
91	0xbd255ed4	-0.04037364
92	0x3d98630b	0.07440766
93	0x3dcdcacb	0.10048445
94	0xbcfeb349	-0.03109135
95	0xbdb2be56	-0.0872771
96	0xbdf32886	-0.118729636
97	0xbd60f900	-0.054924965
98	0x3c1d7702	0.009610893
99	0xbc447126	-0.011989867
100	0x3d059215	0.032610018
101	0x3da98738	0.08277744
102	0xbd4e2879	-0.050331566
103	0xbbcf8771	-0.0063332845
104	0xbd9a9fbf	-0.075500004
105	0xbde253e7	-0.11051159
106	0xbd4ca92a	-0.049966015
107	0x3dfc9f52	0.123350754
108	0xbcc34d9a	-0.023840714
109	0xbd7c2f11	-0.061568324
110	0x3dd37ddc	0.1032674
111	0x3bf72ba8	0.007543046
112	0x3dcb04c8	0.09913021
113	0xbd8e50ee	-0.0694903
114	0x3de7c6a9	0.11317188
115	0x3df08f2f	0.1174606
116	0x3d64641a	0.055759527
117	0xbc9eb5de	-0.01937383
118	0xbdac81bd	-0.08423183
119	0xbbe44317	-0.0069660055
120	0x3d4082a6	0.046999596
121	0x3d197c09	0.037471805
122	0xbcc37433	-0.023859119
123	0x3d0c173b	0.03420184
124	0x3d7e9be4	0.062160388
125	0x3ce98921	0.028507771
126	0xbda2c62e	-0.07947956
127	0xbc322f6e	-0.010875566
128	0x3d5fbebb	0.054625254
129	0x3db0b06b	0.08627399
130	0xbd355b61	-0.0442766
131	0xbd6f494b	-0.058419507
132	0x3d70c80e	0.058784537
133	0x3ce33d73	0.027739262
134	0xbd39ceef	-0.045363363
135	0xbd450729	-0.04810253
136	0x3caaf8fc	0.020870678
137	0x3dbe5fe7	0.09295636
138	0x3d80c1a7	0.06286936
139	0x3c3a12a2	0.0113569815
140	0x3dd083f4	0.10181418
141	0xbd9597a9	-0.073043175
142	0x3ddeb94c	0.10875186
143	0xbdb11394	-0.08646312
144	0xbd3911dc	-0.045183048
145	0x3dac98e9	0.08427603
146	0xbd2292a4	-0.03969063
147	0xbd8f0f3a	-0.06985326
148	0x3929ee8a	0.00016205959
149	0xbd2889e2	-0.04114712
150	0xbdaba853	-0.08381715
151	0xbcb3f6e5	-0.021968314
152	0xbcb01dab	-0.021498522
153	0xbdf1a7f4	-0.11799613
154	0xbdb06e1e	-0.08614753
155	0xbc1fa37c	-0.009743568
156	0xbddeff0a	-0.108884886
157	0xbd447ea5	-0.04797234
158	0xbccfc338	-0.025361642
159	0x3bc8a67a	0.006123361
160	0x3d5cd41c	0.05391322
161	0xbd247fe0	-0.040161014
162	0x3db337fc	0.087509125
163	0xbd6c6c29	-0.057720337
164	0xbd582d04	-0.052777305
165	0xbcbee238	-0.023301229
166	0x3c891e32	0.016738031
167	0xbcb1a43c	-0.021684758
168	0x3d0d39e5	0.03447904
169	0x3df15ef2	0.117856875
170	0xbd48922a	-0.048967518
171	0x3ddb5e3e	0.10711335
172	0xbcd7cc7d	-0.026342625
173	0xbd88ac24	-0.06673458
174	0xbd680150	-0.056641877
175	0xbd6fb8fd	-0.058526028
176	0x3c85bc67	0.016325189
177	0xbd3977af	-0.045280155
178	0xbdee7cfd	-0.116449334
179	0xbc75f17b	-0.015011187
180	0x3dc99f8f	0.098448865
181	0xbbfc4c3a	-0.0076995166
182	0x3d523aa9	0.051325474
183	0x3d60bc46	0.05486705
184	0xbd24ee55	-0.040266354
185	0xbd8c3e02	-0.068477646
186	0xbd892a90	-0.06697571
187	0xbd28c2f5	-0.04120155
188	0x3b8bce8d	0.004266566
189	0x3d86648b	0.06562146
190	0x3da451c8	0.08023411
191	0xbdedc7ad	-0.11610351

gru.weight_ih_l1 f4 [192, 64]
0	0xbd7876dd	-0.06066023
1	0x3d9aab10	0.07552159
2	0xbdf8bd2e	-0.12145458
3	0xbd212d3c	-0.03934978
4	0x3d8249d0	0.06361735
5	0xbd87bf97	-0.0662834
6	0x3ddf7ca7	0.109124474
7	0x3cc08e88	0.023505464
8	0xbd821188	-0.06351
9	0xbd424574	-0.047429517
10	0xbdefe7ef	-0.1171416
11	0x3dca2985	0.098712005
12	0xbcf4bd3e	-0.029875394
13	0xbd96c345	-0.073614635
14	0xbc8364da	-0.0160393
15	0xbddf5494	-0.10904804
16	0xbdd7860d	-0.10523615
17	0x3d8d855f	0.06910204
18	0xbc6168e0	-0.013757914
19	0xbc3eefff	-0.011653899
20	0x3c7d3b26	0.015455997
21	0xbde310d4	-0.11087194
22	0xbb82c060	-0.003990218
23	0xbda10659	-0.07862539
24	0x3ddd4338	0.108038366
25	0xbdecc260	-0.115605116
26	0xbdc3a241	-0.09552432
27	0x3deef214	0.116672665
28	0xbccf576f	-0.025310246
29	0xbe0022e1	-0.12513305
30	0xbdf34dbd	-0.11880062
31	0x3d75d466	0.060017012
32	0x3d0e74a1	0.034779195
33	0x3d46b23d	0.048509825
34	0xbd9da21d	-0.07696936
35	0x3d0c7917	0.034295168
36	0xbd2318d0	-0.039818585
37	0xbd803832	-0.062607184
38	0xbda37154	-0.079806
39	0xbd9bdd45	-0.07610563
40	0x3dbe8158	0.09302014
41	0x3d034548	0.032048494
42	0x3df0bb91	0.117545255
43	0x3d126442	0.035740145
44	0xbd5992e0	-0.053118587
45	0x3c2cd1c4	0.010548059
46	0xbd74a9a0	-0.05973208
47	0x3d08a283	0.03335811
48	0x3d1a5ab4	0.037684157
49	0xbd945984	-0.07243636
50	0x3ddfdde4	0.10930994
51	0xbdd9aea0	-0.1062901
52	0x3d8b9d30	0.068170905
53	0x3d648cf3	0.055798482
54	0xbd852f02	-0.06503107
55	0xbd73a7a6	-0.059486054
56	0xbdae5b0f	-0.08513462
57	0x3db518e1	0.08842636
58	0xbd89bdbb	-0.06725641
59	0xbd0ec59a	-0.034856416
60	0xbda900a0	-0.08252072
61	0x3d97123c	0.07376525
62	0xbd02f50c	-0.031971976
63	0x3d49e6a0	0.049292207
64	0xbd7969f9	-0.06089208
65	0xbd757607	-0.059927013
66	0x3d843b45	0.06456617
67	0x3ddcb8e0	0.107774496
68	0xbdc8cb0f	-0.09804355
69	0xbd8a65b7	-0.06757682
70	0x3d45c3cf	0.04828244
71	0xbdaafba4	-0.08348778
72	0x3dd4c0d7	0.10388344
73	0xbbdaea2d	-0.006680748
74	0xbdceb470	-0.100930095
75	0xbd78f7b5	-0.060783107
76	0xbda8617d	-0.082217194
77	0xbd8a8309	-0.06763274
78	0x3e0c53fa	0.1370391
79	0x3e0cf30e	0.13764593
80	0x3cc8be7e	0.024504896
81	0x3c70cf44	0.0146978535
82	0x3cddac5e	0.02705973
83	0xbdff7b3e	-0.124746785
84	0x3dce351c	0.100687236
85	0x3e0fbd2e	0.1403701
86	0xbc6e9b03	-0.014563325
87	0xbd61fdc2	-0.055173643
88	0xbce7a7c1	-0.028278233
89	0xba926e83	-0.0011171851
90	0xbd5abea0	-0.05340445
91	0x3e086e4c	0.13323325
92	0xbccd2755	-0.025043169
93	0xbd084467	-0.03326836
94	0xbd0dc0cd	-0.034607697
95	0xbbc8a365	-0.006122994
96	0x3da411cc	0.08011207
97	0xbd0b683e	-0.03403496
98	0x3dc2fe29	0.095211335
99	0x3e10bdec	0.1413495
100	0x3d397526	0.045277737
101	0x3dea457e	0.11439036
102	0x3dca7ed2	0.0988747
103	0x3d35be06	0.044370674
104	0x3d30b0b4	0.043137267
105	0x3d4c10b5	0.04982062
106	0xbd83aee2	-0.064298406
107	0x3dcf2597	0.101145916
108	0xbd14eb5e	-0.036357276
109	0x3dbd44bd	0.092416264
110	0x3c723119	0.014782214
111	0xbcb9c986	-0.022679102
112	0xbd23c742	-0.03998495
113	0xbd3c8221	-0.046022538
114	0xbc3089b1	-0.010775016
115	0x3e12ab0e	0.14323065
116	0x3d7035f4	0.058645204
117	0xbda16be0	-0.07881904
118	0xbd4f3baa	-0.05059401
119	0x3de302e2	0.11084534
120	0x3d85d31e	0.06534408
121	0xbc99a7bc	-0.01875674
122	0xbd33cec8	-0.043898374
123	0x3dffd3bd	0.12491558
124	0xbd16a0d1	-0.03677446
125	0xbddb0a99	-0.10695381
126	0x3d1be6c9	0.03806189
127	0x3dd28454	0.10279146
128	0x3df15865	0.11784438
129	0xbcb03cb9	-0.02151333
130	0x3d001b7c	0.03127621
131	0x3d8603f9	0.065437265
132	0x3dedadaf	0.11605393
133	0xbd76de8a	-0.060270824
134	0xbb037036	-0.0020055897
135	0x3cdcba93	0.026944434
136	0xbdfae855	-0.12251345
137	0xbdac6d68	-0.08419305
138	0x3cad40c5	0.021149049
139	0xbde0c593	-0.10975184
140	0xbd8c4e73	-0.068509005
141	0x3c0c3383	0.008557203
142	0xbd967220	-0.07345986
143	0xbd298f60	-0.0413965
144	0x3dd412ba	0.10355134
145	0x3dcb8cf6	0.099389955
146	0x3dade84c	0.08491573
147	0xbddb2b7c	-0.10701653
148	0x3d9e0dcd	0.07717476
149	0xbc775d91	-0.015097992
150	0xbd7bfe52	-0.061521836
151	0xbd80e9c5	-0.06294588
152	0x3d8f1115	0.0698568
153	0x3c6d3846	0.014478749
154	0x3de37ca7	0.1110776
155	0xbd26e756	-0.040747963
156	0xbd5807d0	-0.052741826
157	0xbd786683	-0.060644638
158	0xbd8bedd7	-0.06832474
159	0xbd947278	-0.07248396
160	0xbd845939	-0.0646233
161	0xbc666ae9	-0.014063575
162	0x3df7bf11	0.1209699
163	0xbd4401e2	-0.047853358
164	0xbc8d479a	-0.017246056
165	0xbdf2f413	-0.1186296
166	0x3c378b44	0.011202637
167	0x3da13468	0.07871324
168	0xbd4b7597	-0.04967269
169	0xbda2213e	-0.07916497
170	0x3cf6968f	0.030101089
171	0x39a91823	0.00032252175
172	0x3d3142ec	0.043276712
173	0x3d353716	0.044241987
174	0x3de6cafb	0.11269184
175	0x3d90a935	0.07063524
176	0x3df4827f	0.11938953
177	0x3895590c	7.12146e-05
178	0x3c2c6e7e	0.01052439
179	0x3c46b806	0.012128836
180	0xbcf04183	-0.029328113
181	0xbdf3170c	-0.1186963
182	0x3d35dc9a	0.044399835
183	0x3d61dbd5	0.05514129
184	0xbdafd495	-0.08585469
185	0xbd7d0c66	-0.061779402
186	0xbd8c881f	-0.068619005
187	0xbd6dead3	-0.058085274
188	0x3dc07cd1	0.09398807
189	0x3d8e67f6	0.06953423
190	0xbd250357	-0.04028639
191	0xbb56bb7c	-0.0032765558
192	0xbdcd2f8d	-0.10018835
193	0x3d95f0e9	0.073213406
194	0xbb909045	-0.0044117295
195	0xbddf99b2	-0.10917987
196	0xbc953bcf	-0.018216996
197	0xbd4b3952	-0.04961521
198	0x3da5756b	0.08079036
199	0x3dc97bd3	0.09838071
200	0xbd26a595	-0.040685255
201	0xbdb78c8b	-0.08962353
202	0x3c7221b4	0.014778543
203	0xbd868d1f	-0.065698855
204	0xbd11587d	-0.03548478
205	0xbdc9fb94	-0.09862438
206	0x3d3abd9b	0.045590978
207	0x3bcafc5b	0.006194634
208	0x3da9e3cc	0.08295402
209	0xbdc5e38d	-0.096625425
210	0xbdb0d5d7	-0.08634537
211	0xbde317ff	-0.11088561
212	0xbda0da2f	-0.07854115
213	0xbc3e9ca1	-0.011634023
214	0x3dd65078	0.10464567
215	0xbddb6a77	-0.10713666
216	0x3deb2126	0.11480932
217	0xbd5bc1aa	-0.05365149
218	0x3d04e8fb	0.03244875
219	0x3d96c832	0.07362403
220	0x3bb29bc7	0.005450699
221	0x3db01b34	0.085989386
222	0x3d456381	0.048190597
223	0x3d7510d0	0.059830487
224	0x3c8b14d3	0.016977703
225	0x3d073e13	0.033018183
226	0x3cd5d193	0.02610091
227	0x3d8aeeaf	0.067838065
228	0xbd4474fa	-0.04796312
229	0x3d8e1f30	0.06939542
230	0xbd5fcd7b	-0.05463932
231	0x3d7fd729	0.062461052
232	0x3dee350c	0.11631212
233	0x3db5b962	0.088732496
234	0xbd900b0b	-0.07033356
235	0xbceed7f5	-0.02915571
236	0xbd020cfd	-0.031750668
237	0xbde7caa8	-0.113179505
238	0xbd2f1ee2	-0.04275406
239	0xbd1c3a31	-0.038141433
240	0xbdb53168	-0.08847314
241	0x3d1babf6	0.03800579
242	0xbcc62906	-0.024189483
243	0xbdd70a93	-0.10500064
244	0x3cdff0b8	0.027336463
245	0x3d5267f7	0.05136868
246	0x3d80401a	0.062622264
247	0xbdbc096f	-0.09181487
248	0x3d7e044e	0.062015824
249	0x3c24cac2	0.010058107
250	0x3d9a3c42	0.075310245
251	0x3d416855	0.04721864
252	0xbce1b5d4	-0.027552523
253	0x3cbf7560	0.023371398
254	0x3de7232b	0.11286005
255	0x3d978c2c	0.073997825

gru.weight_hh_l1 f4 [192, 64]
0	0xbdd0beed	-0.10192666
1	0xbd245bd0	-0.04012662
2	0xbd80f853	-0.06297364
3	0x3c82d897	0.015972419
4	0x3da79217	0.08182161
5	0x3bb6ea8a	0.0055821585
6	0xbced774b	-0.028987547
7	0x3dce1770	0.10063064
8	0xbdb1dffb	-0.08685299
9	0x3da2949a	0.079385
10	0xbda75a65	-0.08171538
11	0x3cb82f8f	0.022483615
12	0x39a38ee3	0.00031196242
13	0xbd9066d2	-0.070508614
14	0x3dfaa2b2	0.12238063
15	0xbdb2e752	-0.08735527
16	0x3d8b6855	0.06807009
17	0xbd6fd310	-0.058550894
18	0xbc0c92fc	-0.008579966
19	0xbc4d644f	-0.012536122
20	0xbc15da4e	-0.009146286
21	0xbdd2f898	-0.10301322
22	0xbdb84830	-0.08998144
23	0xbcf269cc	-0.029591464
24	0xbca7e375	-0.020494202
25	0xbdaa7ec0	-0.08324957
26	0x3c3e5109	0.011616
27	0xbc3d8ad4	-0.011568744
28	0x3db5a73b	0.08869787
29	0xbd2936f0	-0.041312158
30	0x3dc16f2a	0.09445031
31	0x3bed6dab	0.0072457395
32	0xbcd8a71e	-0.026446875
33	0x3d3b9411	0.045795504
34	0xbe083511	-0.13301493
35	0xbd3066b8	-0.04306671
36	0x3d706c87	0.05869725
37	0x3d789ee0	0.06069839
38	0xbd8607e1	-0.065444715
39	0xbc4323ee	-0.011910422
40	0xbd488cf9	-0.048962567
41	0x3d8db1e0	0.069186926
42	0xbd4f2ea8	-0.050581604
43	0xbcb41ed3	-0.021987354
44	0xbda5c50c	-0.08094224
45	0x3d1e673c	0.03867267
46	0x3dedeb7d	0.116171815
47	0xbd500833	-0.05078907
48	0x3dd211be	0.1025729
49	0xbdbcccc0	-0.092187405
50	0xbd262879	-0.04056594
51	0x3a0febb3	0.0005490139
52	0xbdc611ea	-0.096713856
53	0x3dab48ee	0.083635196
54	0x3da4cd7e	0.08047007
55	0x3b9af5d3	0.0047290116
56	0x3d3ddc85	0.046352882
57	0xbc25a612	-0.010110395
58	0x3dc0b32a	0.09409173
59	0x3d662261	0.05618513
60	0x3c94b8d7	0.018154545
61	0xbd96b2a3	-0.07358291
62	0xbe0403d2	-0.12892082
63	0x3d2ae3b5	0.041721065
64	0xbd691d94	-0.056912974
65	0xbcdf23fc	-0.027238838
66	0xbce6f8d4	-0.028194822
67	0xbc7f38d2	-0.015577512
68	0xbdb7fdd9	-0.089839645
69	0xbd6bfacf	-0.057612237
70	0xbc8ce673	-0.01719973
71	0xbd4c1715	-0.0498267
72	0xbc3f79ab	-0.011686723
73	0x3dac8682	0.08424093
74	0x3dc76b72	0.097372904
75	0xbd06f4db	-0.032948356
76	0xbdad6adc	-0.084676474
77	0xbc128286	-0.008942252
78	0x3d281ced	0.04104321
79	0xbb425fa7	-0.0029659064
80	0xbd80b09a	-0.06283684
81	0xbd95071a	-0.07276745
82	0xbd1eeed3	-0.03880198
83	0x3da14f47	0.07876449
84	0x3c0eb371	0.008709774
85	0x3cc5d7d6	0.02415077
86	0x3db89b4c	0.090139955
87	0x3dfc2858	0.123123825
88	0x3cb43bf4	0.022001244
89	0x3d73bc4c	0.059505746
90	0x3ddba539	0.10724873
91	0x3da70528	0.0815528
92	0xbd452aee	-0.048136644
93	0xbc631505	-0.013859992
94	0x3e0b05e6	0.13576469
95	0x3dc96cf2	0.09835233
96	0xbc025623	-0.007955107
97	0x3dc97fac	0.098388046
98	0x3d8ab91b	0.06773587
99	0x3ddc3752	0.10752739
100	0x3d8dde82	0.069272056
101	0x3bdac8ee	0.0066767847
102	0xbe015b27	-0.12632428
103	0x3d358374	0.044314817
104	0x3d1b9691	0.03798539
105	0x3dbf9a75	0.09355632
106	0xbda24d7a	-0.07924934
107	0xbc83fe7d	-0.01611256
108	0xbd22e17c	-0.03976582
109	0x3db566a3	0.08857467
110	0x3d910446	0.07080893
111	0xbddd8756	-0.10816829
112	0xbc9670c1	-0.018364312
113	0xbcf588f1	-0.029972525
114	0x3d09447f	0.03351259
115	0xbd8aa108	-0.067689955
116	0xbd73763c	-0.05943893
117	0xbe09f2be	-0.13471505
118	0xbc7220fe	-0.014778374
119	0xbdd1689f	-0.10225033
120	0xbd83980f	-0.06425487
121	0xbdb920e7	-0.09039479
122	0x3c39cc60	0.011340231
123	0x3d06a62a	0.03287331
124	0xbda81a8e	-0.0820819
125	0xbcd0f1b8	-0.025505885
126	0xbd600a0f	-0.054697093
127	0xbe0adcff	-0.13560866
128	0xbdbee268	-0.09320527
129	0x3d7c0da4	0.061536446
130	0x3b57dc05	0.0032937538
131	0xbce85e7f	-0.028365372
132	0xbd2b3d53	-0.04180653
133	0x3dfb9e9d	0.122861125
134	0x3dc7ec99	0.09761924
135	0x3d007449	0.0313609
136	0x3d35bb6b	0.04436819
137	0xbc472f52	-0.012157278
138	0xbd4b9c60	-0.049709678
139	0xbdbffc4a	-0.09374292
140	0xbdd62228	-0.104557335
141	0x3dceb136	0.10092394
142	0xbd462d6d	-0.048383165
143	0xbc2042c4	-0.009781543
144	0x3b963c9b	0.0045848615
145	0x3cdd221f	0.02699381
146	0x3dc2b6ff	0.0950756
147	0xbdee0ef1	-0.116239436
148	0x3ccdfa36	0.025143724
149	0x3c121683	0.0089165
150	0x3d6861a5	0.056733746
151	0xbdeca4ab	-0.115548454
152	0x3deabbe6	0.1146162
153	0x3d596d0d	0.053082515
154	0x3df504a7	0.11963778
155	0xbd84f822	-0.0649264
156	0x3de9e55d	0.11420701
157	0xbdd79c25	-0.10527829
158	0xbd5dff36	-0.054198466
159	0x3dc20577	0.094736986
160	0x3c310ded	0.010806543
161	0x3d3c0acc	0.045908734
162	0xbadc5f20	-0.0016813017
163	0x3d046aba	0.032328345
164	0xbd9a79ef	-0.07542788
165	0xbd36d1b3	-0.04463358
166	0x3dacacb7	0.0843138
167	0x3d7ea1e2	0.062166102
168	0x3d0af3cf	0.03392392
169	0xbd55ff6d	-0.052245546
170	0xbd051c53	-0.032497715
171	0xbdc48abe	-0.095967755
172	0x3d4a3c1e	0.04937374
173	0xbdb3681c	-0.08760092
174	0xbaaf5422	-0.0013376514
175	0x3de7340f	0.11289226
176	0x3db9638b	0.090521894
177	0x3cc6b71e	0.024257239
178	0x3dbdfdaa	0.09276898
179	0xbd81fc83	-0.06346991
180	0x3d986aaf	0.07442223
181	0xbcc85bcb	-0.024457833
182	0xbc3820cb	-0.011238287
183	0xbdb0bd50	-0.086298585
184	0xbd068cc8	-0.032849103
185	0xbd751c3d	-0.059841383
186	0xbd8a35a4	-0.067485124
187	0x3d71ef90	0.059066355
188	0xbcbd34f2	-0.023096535
189	0x3dbb8867	0.09156876
190	0x3deb8eea	0.11501868
191	0xbdb6238e	-0.088935
192	0x3d535ab6	0.05160018
193	0x3c25df45	0.010124032
194	0xbd4f1d2a	-0.050564922
195	0x3d9a11ec	0.075229496
196	0xbd8fd4a1	-0.070229776
197	0x3d863398	0.065528095
198	0xbd7627dd	-0.06009661
199	0xbde2f68d	-0.11082182
200	0x3d8a5385	0.06754211
201	0xbde00b87	-0.10939699
202	0xbcc99416	-0.024606746
203	0xbd41febf	-0.047362085
204	0x3d4f9476	0.050678693
205	0xbd9279f4	-0.07152167
206	0xbd526067	-0.051361468
207	0xbd8c5835	-0.06852762
208	0xbc096101	-0.008384944
209	0x3de923f5	0.113838114
210	0xbd09082e	-0.033455066
211	0xbd911249	-0.07083566
212	0x3d3e5c3c	0.04647468
213	0xbd910fdd	-0.07083104
214	0x3decc35b	0.115606986
215	0xbd5f2269	-0.054476175
216	0x3e01b5f8	0.12667072
217	0xbdad78c2	-0.08470298
218	0x3d0d8947	0.034554746
219	0xbdc1e4e8	-0.094674885
220	0xbd9c397a	-0.0762815
221	0xbb516282	-0.0031949584
222	0x3d6daf25	0.05802836
223	0x3cd8e5e9	0.026476817
224	0x3d2cc973	0.042184304
225	0xbdb3c4c0	-0.087777615
226	0x3bcb5406	0.0062050847
227	0xbc1b523b	-0.0094800545
228	0xbc4bf2b4	-0.012448002
229	0xbce45021	-0.02787024
230	0x3b697269	0.0035621172
231	0xbd6e1c79	-0.058132622
232	0x3df1eea1	0.11813093
233	0xbd9d8346	-0.07691054
234	0xbdd6ed8f	-0.104945295
235	0x3affa7e9	0.0019504997
236	0x3e01d9a4	0.1268068
237	0xbd8596c3	-0.06522896
238	0x3da0a227	0.07843428
239	0xb9ab076f	-0.000326212
240	0xbddf72ab	-0.10910543
241	0xbdec4bd8	-0.115379035
242	0xbdcf85ed	-0.10132966
243	0xbde6c2df	-0.112676375
244	0xbddba031	-0.107239135
245	0xbd6ba1eb	-0.057527464
246	0x3cdb6f6e	0.026786532
247	0xbd7a45a7	-0.061101582
248	0xbd4d05b4	-0.050054267
249	0x3dfc8b3f	0.123312466
250	0xbd201921	-0.039086465
251	0xbc63bbba	-0.013899738
252	0x3d7eb12e	0.06218069
253	0x3d8ae5ec	0.06782135
254	0x3d33a743	0.043860685
255	0x3d952727	0.07282858

gru.bias_ih_l1 f4 [192]
0	0xbc45f8da	-0.012083257
1	0x3d650114	0.05590923
2	0xbd8aaa9c	-0.067708224
3	0x3d95eefb	0.073209725
4	0x3dc23ebc	0.09484622
5	0x3c318c52	0.010836678
6	0xbd0ddc11	-0.0346337
7	0x3ddf3531	0.10898817
8	0xbd92b50a	-0.07163437
9	0xbd76da83	-0.060266983
10	0x3d26d7a8	0.04073301
11	0xbd86a41a	-0.06574269
12	0xbd89004f	-0.06689512
13	0xbd040c0a	-0.032238044
14	0x3cf14ef7	0.029456599
15	0xbce7c52f	-0.028292267
16	0xbda484a2	-0.0803311
17	0x3dd95b18	0.10613078
18	0x3ca0cb9f	0.019628344
19	0x3d955939	0.072924085
20	0xbda2a0f5	-0.07940856
21	0xbc0ee640	-0.008721888
22	0xbd9c0047	-0.076172404
23	0x3dd9b233	0.10629692
24	0x3dd8141b	0.1055071
25	0x3c9c64b2	0.019090984
26	0xbdace862	-0.08442761
27	0x3d9d03ed	0.076667644
28	0x3d996b3f	0.07491159
29	0xbd810343	-0.0629945
30	0xbc8bc497	-0.017061515
31	0xbcb62e1f	-0.02223879
32	0x3d61ed01	0.055157665
33	0x3d6be99e	0.05759584
34	0x3d0b9269	0.034075174
35	0x3d9868de	0.07441877
36	0x3dc19bc7	0.0945354
37	0x3d652048	0.05593899
38	0xbd954d5a	-0.07290144
39	0x3d9d05df	0.076671354
40	0x3dace826	0.08442716
41	0xbcfbea33	-0.030751323
42	0x3ddfff61	0.109373815
43	0x3d6c182e	0.057640247
44	0x3d49f8c2	0.0493095
45	0x3cbe7ac8	0.023251906
46	0x3d112ff1	0.03544611
47	0xbc9635f0	-0.018336266
48	0xbc4797d4	-0.012182195
49	0x3db77191	0.08957208
50	0x3d685e3f	0.056730505
51	0xbde6d3d3	-0.11270871
52	0x3c9e8132	0.019348715
53	0xbc340259	-0.010986888
54	0x3dbd1edc	0.092344016
55	0x3d16e3d8	0.036838382
56	0xbbfd4078	-0.0077286325
57	0xbda4c271	-0.08044899
58	0x3dc7d1ec	0.09756836
59	0xbd1d37ed	-0.038383413
60	0x3d0168fe	0.03159427
61	0xbdb3705c	-0.08761665
62	0x3b99f5bf	0.0046984847
63	0x3d162b54	0.036662415
64	0xbdb02e24	-0.086025506
65	0x3db91180	0.09036541
66	0xbd73398f	-0.059381064
67	0xbda453c2	-0.08023788
68	0xbc55332f	-0.013012691
69	0x3d9ebb53	0.07750573
70	0x3d18bff5	0.03729244
71	0xbd648171	-0.055787507
72	0x3d877375	0.066138186
73	0xbdcef69e	-0.10105632
74	0x3dc220ab	0.09478887
75	0x3cd12c99	0.025533961
76	0xbb6a9194	-0.0035792338
77	0x3d73e1ea	0.05954162
78	0xbc15dfa2	-0.0091475565
79	0xbdd7c130	-0.105348945
80	0xbce753d3	-0.028238213
81	0xbd8ad044	-0.06778005
82	0x3dc148b1	0.09437693
83	0x3d0711aa	0.03297583
84	0x3d6176ef	0.055045065
85	0x3d5ba2a1	0.053621892
86	0x3d7d4391	0.061832014
87	0xbd2de60d	-0.04245572
88	0x3db457e0	0.08805823
89	0x3d72df59	0.059295032
90	0xbdcdb5b5	-0.100444235
91	0x3aa23004	0.0012373929
92	0xbd53b9f3	-0.051691007
93	0xbdc7795b	-0.097399436
94	0xbc208fe7	-0.009799934
95	0x3dced087	0.10098367
96	0xbd1167c8	-0.035499364
97	0x3df29384	0.118445426
98	0x3da776e1	0.08176971
99	0x3c5c4560	0.013444275
100	0xbd893828	-0.06700164
101	0xbbe3d7e7	-0.006953228
102	0x3dc054b4	0.09391156
103	0x3dc13400	0.09433746
104	0x3c959ffc	0.018264763
105	0xbdb4a8b9	-0.08821244
106	0x3dbb0b50	0.09133017
107	0xbde8d15d	-0.11368058
108	0xbd3ae37b	-0.0456271
109	0xbd4f7e99	-0.050657842
110	0x3d1441f9	0.03619573
111	0x3c68d434	0.014210749
112	0x3d5ba0a8	0.05362001
113	0x3a843f96	0.0010089751
114	0x3d13fa33	0.03612728
115	0x3dcb73d2	0.099342
116	0xbd68b919	-0.056817148
117	0xbde84303	-0.113409065
118	0x3d310c6f	0.04322475
119	0xbdae6585	-0.08515457
120	0x3dd1ae09	0.10238273
121	0xbd04d266	-0.032427214
122	0x3c01998f	0.007910146
123	0x3dcf2497	0.10114401
124	0x3e04dadc	0.12974113
125	0xbcf9e9bf	-0.030506967
126	0xbcb63723	-0.022243088
127	0xbda445a0	-0.080210924
128	0xbddd3635	-0.10801355
129	0x3d15c0c2	0.03656078
130	0xbdba90c8	-0.09109646
131	0xbdf7dcb5	-0.121026434
132	0xbc79749f	-0.015225559
133	0xbca35076	-0.019935828
134	0x3d3f095b	0.04663978
135	0xbd95e846	-0.07319693
136	0x3d10c753	0.03534634
137	0x3dadb331	0.08481444
138	0x3baa0553	0.005188623
139	0x3dd07bab	0.10179838
140	0x3bdcc299	0.006737065
141	0xbdb147d6	-0.0865628
142	0xbc52aff6	-0.012859335
143	0xbdecc1f0	-0.11560428
144	0x3d213039	0.03935263
145	0x3d21e7b4	0.03952761
146	0xbc08f649	-0.0083595
147	0xbda67af1	-0.08128918
148	0xbd796f11	-0.060896937
149	0x3da17de7	0.07885342
150	0xbc2bdefe	-0.010490177
151	0xbd015a32	-0.031580158
152	0x3d2a2177	0.04153582
153	0xbdbc01f4	-0.0918006
154	0x3d4aef3e	0.049544565
155	0xbd9796a9	-0.07401783
156	0xbd5e5541	-0.054280523
157	0xbab3ffe4	-0.0013732878
158	0xbcfc2052	-0.03077713
159	0x3d006d00	0.03135395
160	0xbd4d3c50	-0.050106347
161	0xbd730de7	-0.05933943
162	0x3c89e501	0.01683283
163	0x3c231860	0.009954542
164	0xbdcf27c7	-0.10115009
165	0xbb90d623	-0.0044200583
166	0xbc50f1f7	-0.012753001
167	0x3dd69bc7	0.10478931
168	0xbd6f4c05	-0.058422107
169	0x3d75b81d	0.059990037
170	0x3dcf81de	0.10132192
171	0xbcdc928d	-0.02692535
172	0xbde5c32b	-0.11218866
173	0x3d6e79b1	0.058221523
174	0x3dba9ceb	0.09111961
175	0x3da72a9e	0.081624255
176	0xbd6a939f	-0.05726969
177	0xbd03e683	-0.032202255
178	0x3d4247af	0.047431644
179	0xbccae9c2	-0.024769668
180	0x3dae9c06	0.08525853
181	0x3d3bf3e5	0.045886893
182	0x3ca92d38	0.020651445
183	0xbde7cadf	-0.113179915
184	0x3dc814b1	0.097695716
185	0x3ca911bc	0.02063834
186	0xbde9dc15	-0.114189304
187	0x3c45fb4f	0.012083842
188	0x3cb46dcc	0.022025011
189	0x3d57ffe5	0.052734274
190	0x3d04d6f8	0.032431573
191	0x3db66812	0.089065686

gru.bias_hh_l1 f4 [192]
0	0xbc81e5a4	-0.015856571
1	0xbd0b6c9f	-0.034039136
2	0xbde2bcc6	-0.11071162
3	0x3d96ff29	0.07372887
4	0xbd135470	-0.035969198
5	0x3dbceb3e	0.092245564
6	0x3d608c7a	0.05482147
7	0x3dc8d5e1	0.09806419
8	0x3d974958	0.07387036
9	0xbdf2455e	-0.11829637
10	0xbcf7d578	-0.030253157
11	0xbdffe0fc	-0.12494084
12	0x3d5c0fb5	0.053725917
13	0xbd9677f9	-0.07347102
14	0x3da99728	0.08280784
15	0x3da1d26d	0.07901464
16	0xbd8826e5	-0.066480435
17	0x3d4bafab	0.049728077
18	0xbdba31da	-0.0909154
19	0xbdc8b7bf	-0.09800672
20	0xbdcdd54d	-0.100504495
21	0xbd1bd571	-0.03804535
22	0xbdad6c49	-0.084679194
23	0x3d27bf7e	0.040954106
24	0xbd868f83	-0.065703414
25	0xbd377361	-0.04478777
26	0x3df89588	0.12137896
27	0x3c52f054	0.0128746815
28	0xbc94bc41	-0.018156173
29	0xbd831cce	-0.064019784
30	0xbdd437a5	-0.10362176
31	0x3dcca4e1	0.09992386
32	0xbdf57f8c	-0.11987218
33	0x3df964dc	0.121774405
34	0xbdb467e5	-0.08808879
35	0x3de8fc60	0.11376262
36	0xbdbae727	-0.0912612
37	0x3bba9beb	0.0056948564
38	0xbd297e56	-0.04138025
39	0x3d12ab7c	0.03580807
40	0xbc5f60d1	-0.013633923
41	0xbd72b933	-0.05925865
42	0xbd804caa	-0.062646225
43	0x3ca6bb0b	0.02035286
44	0xbd341bec	-0.04397194
45	0xbd50a449	-0.050937925
46	0xbdd95a11	-0.10612882
47	0xbdf6ed24	-0.1205695
48	0x3c15e0db	0.009147848
49	0x3d375677	0.044760194
50	0xbd8cf910	-0.068834424
51	0xbdede6e9	-0.11616308
52	0xbd2f0d14	-0.04273708
53	0x3a2cd92b	0.000659364
54	0x3cfad0bb	0.030617109
55	0xbde7523a	-0.1129498
56	0xbd6021f1	-0.05471987
57	0xbdcb1203	-0.09915545
58	0xbd0b8210	-0.034059584
59	0x3ddf8dac	0.10915694
60	0xbdecae0e	-0.11556636
61	0xbb1d7743	-0.0024027384
62	0xbdb3f480	-0.08786869
63	0x3df50b14	0.119650036
64	0xbdf8fe34	-0.121578604
65	0xbc907a69	-0.017636495
66	0xbd8aa9ba	-0.06770654
67	0xbdcbd97c	-0.09953591
68	0x3d9fe280	0.07806873
69	0xbcfe67a5	-0.031055281
70	0xbda15f01	-0.07879449
71	0x3d6718ed	0.056420255
72	0xbd9966c7	-0.07490306
73	0x3ded6ec4	0.115933925
74	0x3c25834a	0.0101021025
75	0x3cbdb649	0.02315821
76	0xbbe9db0f	-0.0071367095
77	0x3dc679c6	0.09691195
78	0xbbbf6261	-0.005840585
79	0xbde45016	-0.11148088
80	0xbbc8ab94	-0.0061239693
81	0xbdeeb5c2	-0.11655761
82	0x3d5373a5	0.05162396
83	0x3de7f269	0.11325533
84	0xbdd4170f	-0.103559606
85	0x3d21d435	0.039509017
86	0xbdd379d2	-0.1032597
87	0xbd1825c9	-0.03714541
88	0xbd4d434e	-0.050113015
89	0xbd5c1685	-0.053732414
90	0xbc76270f	-0.015023961
91	0xbb98afbf	-0.0046596224
92	0xbc31d249	-0.010853359
93	0x3bc286a6	0.0059364615
94	0xbd19d28b	-0.037554305
95	0x3d8236de	0.06358121
96	0x3df63a13	0.120227955
97	0x3dfcc8aa	0.12342961
98	0xbcf47a6c	-0.029843532
99	0xbde85bdc	-0.11345646
100	0x3dccc5b2	0.09998645
101	0x3ca240b8	0.01980625
102	0x3d93aa2b	0.07210191
103	0x3bf160d6	0.00736628
104	0x3d5e712e	0.054307155
105	0xbd14b35c	-0.036303863
106	0x3dd698e6	0.10478382
107	0x3d044acd	0.032297898
108	0x3dab454b	0.08362826
109	0x3d5e783f	0.054313894
110	0xbdefd3d2	-0.117103234
111	0xbd989ad6	-0.074514076
112	0x3bacf3f3	0.0052781045
113	0x3df060d9	0.11737222
114	0x3d455983	0.04818107
115	0xbd6b382f	-0.057426628
116	0xbd68c6c5	-0.056830186
117	0x3da79497	0.08182638
118	0xbca48d45	-0.020086894
119	0x3d898a8d	0.067158796
120	0x3dc9659b	0.09833833
121	0x3d581e66	0.052763365
122	0xbc917548	-0.01775612
123	0x3ce0c6a0	0.027438462
124	0xbde2098b	-0.110369764
125	0xbd2cc523	-0.04218019
126	0x3c09c5b9	0.008408957
127	0xbcb283d7	-0.021791382
128	0xbd4639a3	-0.04839481
129	0xbced48e8	-0.028965428
130	0xbd38f967	-0.045159724
131	0x3ded09d4	0.1157414
132	0x3d43fcfd	0.04784869
133	0x3de4c137	0.11169665
134	0xbdc82e2f	-0.09774434
135	0xbbacfe37	-0.005279328
136	0xbdd3b757	-0.10337704
137	0x3da25451	0.07926238
138	0x3c6ad636	0.014333298
139	0x3b9b3325	0.0047363215
140	0x3ceab30e	0.028649833
141	0x3dbd36e1	0.09238983
142	0x3afe8a58	0.0019419892
143	0xbbd9fbc3	-0.006652327
144	0x3d97dab1	0.07414759
145	0x3d8cb19e	0.06869815
146	0xbddde3f2	-0.10834493
147	0xbd392131	-0.04519767
148	0xbd2a484d	-0.041572858
149	0xbda2a0dc	-0.07940838
150	0x3de6d725	0.11271504
151	0x3da23086	0.07919411
152	0xbd94e1bb	-0.07269617
153	0x3dd3af59	0.10336179
154	0xbdb3f723	-0.08787372
155	0x3d90be3e	0.07067536
156	0x3dd5882a	0.10426362
157	0xbc5b0249	-0.013367244
158	0x3cba0a66	0.022710036
159	0x3d250b01	0.040293697
160	0x3dea0eca	0.11428602
161	0x3c9b1993	0.018933093
162	0xbd4a683e	-0.04941582
163	0xbd719f87	-0.058990028
164	0xbceb44f1	-0.028719397
165	0x3df6d554	0.12052408
166	0xbb792435	-0.0038015966
167	0x3b8db660	0.0043247193
168	0xbda0227d	-0.07819078
169	0x3ce4d3e3	0.027933067
170	0xbddc09fe	-0.10744093
171	0xbde32f7f	-0.110930435
172	0x3d89b7b7	0.06724494
173	0x3d877072	0.06613244
174	0xbdec0ce6	-0.11525898
175	0x3c03e562	0.008050295
176	0x3cf9273d	0.030414218
177	0x3d3c0d4b	0.045911115
178	0x3d755d55	0.05990346
179	0xbd9d21a0	-0.07672429
180	0x3c30bd24	0.010787282
181	0x3c02a29a	0.007973338
182	0xbd700053	-0.05859406
183	0x3db2bc11	0.08727277
184	0x3b1a2699	0.002352154
185	0x3da578f3	0.0807971
186	0x3d8e61d0	0.0695225
187	0x3df4d140	0.11953974
188	0x3dca7dbb	0.098872624
189	0x3d0ad9a7	0.033898976
190	0x3d90dce1	0.07073379
191	0xbdab5255	-0.08365313

fc.weight f4 [1, 64]
0	0x3d522e28	0.05131355
1	0x3dbe67a7	0.09297114
2	0xbda8f5c9	-0.08250005
3	0x3d6bdfe5	0.05758657
4	0x3da1cb30	0.07900083
5	0xbd16672f	-0.036719497
6	0x3a7c1d05	0.00096173614
7	0xbdd4260d	-0.1035882
8	0x3d1ab59e	0.03777086
9	0xbcdc938e	-0.026925828
10	0xbd42b060	-0.047531486
11	0x3d4fbdd5	0.050718147
12	0xbc94968f	-0.018138198
13	0x3d51eeef	0.051253255
14	0x3d89a783	0.067214034
15	0xbd7847bc	-0.060615286
16	0x3a7be678	0.00096092327
17	0x3c2549bf	0.010088383
18	0xbd4ebbfb	-0.05047224
19	0xbdc63bdd	-0.09679387
20	0xbd77615d	-0.060395587
21	0x3d6df46f	0.05809444
22	0xbd000a62	-0.0312599
23	0x3d433a19	0.047662828
24	0xbdaa90a1	-0.08328367
25	0x3dc4000f	0.09570324
26	0xbb73f551	-0.0037225077
27	0xbd6267ad	-0.055274654
28	0x3d213f61	0.039367083
29	0xbc7af209	-0.015316495
30	0xbd8e2974	-0.069415
31	0x3d1507ae	0.036384277
32	0xbd9d5d57	-0.07683819
33	0x3c89fa6b	0.016843041
34	0xbdde08f0	-0.108415484
35	0xbdd09cd5	-0.10186163
36	0x3dec96d0	0.11552203
37	0x3dd9dfb8	0.10638374
38	0xbd7dd10b	-0.061966937
39	0x3dae8496	0.085213825
40	0xbcff91f9	-0.031197535
41	0x3aa01ef8	0.0012216261
42	0x3d712203	0.058870327
43	0x3ca4b258	0.020104572
44	0xbd51d21e	-0.051225774
45	0xbb3dad67	-0.0028942467
46	0xbd52f1d5	-0.05150016
47	0xbd81eec8	-0.06344372
48	0x3b930654	0.0044868384
49	0x3c2c566e	0.010518653
50	0x3de9a9c4	0.11409333
51	0x3d682973	0.056680154
52	0x3d83be02	0.064327255
53	0xbc91bcc9	-0.017790215
54	0x3d573c78	0.052547902
55	0x3d7a296b	0.061074656
56	0x3c8c173b	0.01710092
57	0xbcc65d72	-0.02421448
58	0x3cc95eef	0.0245814
59	0x3d7dd1e0	0.06196773
60	0x3dc0a00c	0.094055265
61	0xbd87207f	-0.06597995
62	0xbdcf2c5f	-0.10115885
63	0xbca66cc1	-0.02031553
