reports/day3/GRU.pt (torch, 154949 bytes, 9 tensors)

gru.weight_ih_l0 f4 [192, 1]
0	0x3dabf804	0.083969146
1	0x3d19a8e8	0.037514597
2	0xbc7acd74	-0.015307773
3	0xbe04e632	-0.12978438
4	0xbe0e96d4	-0.13924724
5	0xbc1eed8f	-0.009700193
6	0x3d3c40a7	0.045960095
7	0xbd0aa3f6	-0.03384777
8	0x3d27a9ed	0.04093354
9	0xbcbb0d6a	-0.022833545
10	0x3d5eff9f	0.054442998
11	0x3c5edc34	0.013602305
12	0xbdb5f439	-0.088844724
13	0x3d9d9096	0.07693593
14	0x3df1f176	0.11813633
15	0xbd39eb0a	-0.045390166
16	0xbe05c678	-0.13063991
17	0xbde57951	-0.1120478
18	0xbc401b13	-0.011725205
19	0x3d5452a0	0.05183661
20	0xbd45ee1b	-0.04832278
21	0x3d00e912	0.031472273
22	0x3d4a95a6	0.049459122
23	0x3d9f1d72	0.07769288
24	0xbd6a7e78	-0.057249516
25	0x3e0425e4	0.12905079
26	0x3d75217a	0.05984638
27	0x3d007316	0.031359755
28	0xbd8464cf	-0.0646454
29	0xbdcb6fa9	-0.09933407
30	0xbca010ce	-0.019539263
31	0xbe0ee7ba	-0.13955584
32	0x3b5ef029	0.0034017658
33	0xbca3af76	-0.019981127
34	0xbbbb43e9	-0.0057148826
35	0x3d48ceab	0.04902522
36	0xbdbdcaa0	-0.09267163
37	0xbdbabcfa	-0.09118076
38	0xbcc67644	-0.024226315
39	0x3e0a9c66	0.13536224
40	0xbd678f44	-0.056533113
41	0xbd820255	-0.06348101
42	0xbd775476	-0.060383283
43	0x3db7916e	0.089632854
44	0xbd376c90	-0.044781268
45	0xbdeb24cb	-0.11481627
46	0xbdd37e92	-0.10326876
47	0xbd5825b1	-0.05277032
48	0x3dafe4b8	0.085885465
49	0x3d003964	0.031304732
50	0xbd851490	-0.064980626
51	0xbe0b17d1	-0.13583304
52	0x3d21db04	0.03951551
53	0x3dd3b439	0.10337109
54	0xbd946679	-0.072461076
55	0xbded6f2e	-0.115934715
56	0xbdd93745	-0.10606245
57	0xbe0b0ad9	-0.13578357
58	0x3d263fcb	0.04058818
59	0xbda729f7	-0.08162301
60	0x3d9ef94b	0.077623926
61	0x3dd9333b	0.106054746
62	0xbc821482	-0.01587892
63	0xbd336dda	-0.043805934
64	0xbdba5d52	-0.09099831
65	0x3d99a2f2	0.075017825
66	0x3c7b9aef	0.015356763
67	0x3d4c4ea0	0.04987967
68	0xbde3c187	-0.11120897
69	0xbd9e7848	-0.077377856
70	0x3dcc4c69	0.099755116
71	0xbb5cdefe	-0.003370225
72	0xbd7a87f7	-0.061164822
73	0xbd418cd8	-0.04725346
74	0x3e09089f	0.13382195
75	0x3d74f6d2	0.0598057
76	0x3cb33962	0.021877948
77	0x3d708938	0.058724612
78	0xbd180ff2	-0.03712458
79	0xbc3ca70e	-0.011514438
80	0x3b42375f	0.0029635055
81	0xbc76cff1	-0.0150642255
82	0x3db9e615	0.09077088
83	0x3c8e41b1	0.017365308
84	0x3dcd32a3	0.10019424
85	0xbd368966	-0.044564627
86	0xbd92abdc	-0.07161686
87	0xbcca948f	-0.024729041
88	0x3d98427d	0.07434557
89	0x3c170380	0.009217143
90	0x3d8a5845	0.06755117
91	0x39e9104c	0.00044453365
92	0x3d86c0fe	0.06579779
93	0xbcca3a60	-0.024686038
94	0x3ca70001	0.020385744
95	0x3dc29be9	0.09502394
96	0x3d4440c2	0.04791332
97	0x3db394e4	0.08768633
98	0x3d99e194	0.07513729
99	0x3cf15d9d	0.029463584
100	0x3cf78765	0.030215928
101	0x3dd6bd11	0.1048528
102	0x3a043342	0.00050430384
103	0xbdad7fa8	-0.08471614
104	0x3c4d8b7c	0.012545463
105	0x3d78960b	0.060689967
106	0xbe13392b	-0.14377277
107	0x3c35b096	0.011089465
108	0xbcacab26	-0.021077704
109	0x3df6c5c0	0.120494366
110	0xbde3c4f3	-0.111215495
111	0xbcc0606d	-0.02348348
112	0xbd1ef4f9	-0.038807843
113	0x3cdb624f	0.026780276
114	0x3da5771e	0.080793604
115	0x3dcd7ab2	0.10033168
116	0x3d0e05da	0.03467355
117	0x3e0e627f	0.13904761
118	0x3c8df129	0.017326908
119	0xbdefd523	-0.117105745
120	0x3ce39f88	0.027786031
121	0x3de9ca35	0.11415521
122	0x3df3dda7	0.11907511
123	0x3e06ba9c	0.13157123
124	0xbd5cf440	-0.053943872
125	0xbd0c3a91	-0.03423554
126	0xbd8ee7f7	-0.069778375
127	0x3b83c70c	0.004021531
128	0xbddd08bd	-0.10792682
129	0xbd358c33	-0.044323158
130	0x3d16f0c6	0.036850713
131	0xbd032350	-0.0320161
132	0xbdf58a67	-0.11989289
133	0xbdeea33b	-0.116522275
134	0xbdbf61ec	-0.09344849
135	0x3d398b2b	0.045298737
136	0x3da9f44a	0.082985476
137	0x3d447b68	0.047969252
138	0x3da3564c	0.07975444
139	0xbcba59e9	-0.02274795
140	0xbd12172c	-0.03566663
141	0x3d01c3fa	0.03168104
142	0xbd6845b7	-0.05670711
143	0x3ce0604a	0.027389664
144	0x3dbb088b	0.09132489
145	0xbc74d882	-0.014944198
146	0xbd3bb93a	-0.045830943
147	0x3d828ab8	0.06374115
148	0x3cb79a9e	0.022412594
149	0x3ca68db1	0.020331236
150	0xbd859d50	-0.065241456
151	0x3cb363eb	0.02189823
152	0x3dc80b9d	0.0976784
153	0xbd286404	-0.041111007
154	0x3d66b57f	0.056325432
155	0xbdd4abcb	-0.103843294
156	0xbd1465b9	-0.036229823
157	0x3d1664a1	0.03671706
158	0xbcda3e9a	-0.026641179
159	0xbde89211	-0.11355985
160	0x3d777f1c	0.060423955
161	0xbcb51e5d	-0.022109205
162	0xbda83c27	-0.08214598
163	0xbc8fc270	-0.01754877
164	0x3d0bbfea	0.03411857
165	0x3bb91490	0.005648203
166	0xbdb2d457	-0.08731907
167	0x3d5c3f0e	0.05377107
168	0xbd7ded41	-0.06199384
169	0xbca9ebca	-0.020742316
170	0xbc292f69	-0.010326245
171	0x3d2b46da	0.041815616
172	0x3a160766	0.00057231484
173	0xbdb860df	-0.09002852
174	0xbc959db1	-0.01826367
175	0xbd810603	-0.06299975
176	0xbc3f5793	-0.011678594
177	0xbd8f07d6	-0.069839165
178	0x3d30abec	0.043132707
179	0xbd800ac5	-0.06252054
180	0xbdcdbe88	-0.100461066
181	0xbce4e1b3	-0.027939653
182	0xbd6e07e1	-0.058112983
183	0x3de6e1a8	0.11273509
184	0xbdc201e5	-0.094730176
185	0x3d7fcde7	0.062452223
186	0x3c342240	0.010994494
187	0xbd737438	-0.059437007
188	0x3de5078e	0.111830816
189	0xbd384b77	-0.044993844
190	0xbc186102	-0.009300472
191	0xbdef87e1	-0.11695839

gru.weight_hh_l0 f4 [192, 64]
0	0x3d13bbf7	0.03606793
1	0xbdbe4a75	-0.09291545
2	0x3d73e71a	0.059546567
3	0x3cb233e3	0.021753257
4	0xbd352f3b	-0.044234496
5	0xbdb5875d	-0.08863709
6	0xbd902ffe	-0.07040404
7	0x3dcd9b46	0.10039382
8	0x3dcbc711	0.09950078
9	0xbc854948	-0.016270295
10	0x3d8d5a45	0.06901983
11	0x3d764aaa	0.0601298
12	0x3b9c489b	0.0047693974
13	0x3db1af09	0.086759634
14	0x3de52cbf	0.11190175
15	0xbdbc27c9	-0.09187276
16	0xbd39bc01	-0.04534531
17	0x3d1992f7	0.037493672
18	0x3dc37802	0.09544374
19	0x3dca1d5a	0.098688796
20	0x3dedd775	0.11613361
21	0x3d7f46ee	0.062323503
22	0xbca3ce44	-0.019995816
23	0xbc99a82f	-0.018756954
24	0x3d18be16	0.037290655
25	0x3cbbd5a5	0.022929022
26	0x3d266e24	0.040632382
27	0x3d9322e6	0.07184391
28	0x3da02d12	0.078210965
29	0x3dd1e3d8	0.10248536
30	0xbd2def2b	-0.042464416
31	0xbc950c59	-0.018194364
32	0xbd5e4718	-0.05426702
33	0x3cf6a4f2	0.030107949
34	0xbdcd7b15	-0.10033242
35	0xbd212834	-0.03934498
36	0xbdce5304	-0.10074428
37	0x3d7b6b6c	0.061381742
38	0xbd918f06	-0.07107358
39	0xbd4be553	-0.049779247
40	0xbc9caaa0	-0.01912433
41	0x3d153fcc	0.036437795
42	0xbd36193f	-0.04445767
43	0x3cd9880d	0.026554132
44	0x3d4ea18c	0.05044703
45	0x3dbc840a	0.09204872
46	0xbd2df016	-0.042465292
47	0xbc11efd7	-0.00890728
48	0x38273091	3.9861134e-05
49	0x3b594039	0.0033149852
50	0xbd2a7ac6	-0.041620992
51	0x3dcd7147	0.100313716
52	0xbc217406	-0.009854322
53	0xbdd3977e	-0.10331629
54	0x3ce7e790	0.02830866
55	0x3dc95a92	0.09831728
56	0x3d102e29	0.03520027
57	0x3d84eba1	0.06490255
58	0x3a2cb827	0.000658872
59	0xbdcd8824	-0.100357324
60	0xbde0cb32	-0.109762564
61	0x3dc22e20	0.09481454
62	0xbd27698f	-0.040872153
63	0xbdde98a7	-0.1086896
64	0x3ddd6acd	0.10811386
65	0x3d903aee	0.0704249
66	0xbdd63356	-0.1045901
67	0xbc6acf3f	-0.014331638
68	0x3c98be0f	0.018645314
69	0xbd7279e3	-0.05919827
70	0x3d38129c	0.044939622
71	0xbdc1c4c9	-0.09461362
72	0x3dae5587	0.08512407
73	0xbdc688bc	-0.09694049
74	0xbd8a16ef	-0.067426555
75	0x3e042989	0.1290647
76	0xbd3260fd	-0.043549526
77	0xbdab1c52	-0.08355011
78	0xbd5eb065	-0.05436744
79	0xbd458481	-0.04822207
80	0xbcceb042	-0.02523053
81	0xbc432780	-0.011911273
82	0x3d37649a	0.044773676
83	0xbdd54acf	-0.10414659
84	0x3d8273e1	0.063697584
85	0xbdcfeede	-0.10152982
86	0xbdf117d9	-0.11772127
87	0xbde9be9e	-0.114133105
88	0xbd92a7ab	-0.071608864
89	0xbdbbadfb	-0.091640435
90	0xbdd2156a	-0.10257991
91	0xbdf6765e	-0.120342955
92	0x3d1347ad	0.035957027
93	0x3b495273	0.003071931
94	0x3da99de6	0.0828207
95	0xbce7b866	-0.02828617
96	0xbdb8f7e0	-0.090316534
97	0x3d90d6d0	0.07072222
98	0x3d77a42e	0.06045931
99	0x3cdea528	0.027178362
100	0xbd332494	-0.043736055
101	0xbdda9b36	-0.106741354
102	0xbda098da	-0.07841654
103	0xbd9eb5bf	-0.07749509
104	0xbd3f58ac	-0.046715423
105	0xbdc14b94	-0.094382435
106	0xbd6397d7	-0.055564728
107	0xbcab9a96	-0.020947736
108	0xbc54ea36	-0.012995293
109	0xbd8ea519	-0.06965084
110	0x3d5d4afa	0.05402658
111	0x3c146d31	0.009059236
112	0xbd4ead7e	-0.050458424
113	0x3ddd9f6d	0.10821424
114	0xbd72fc62	-0.059322722
115	0x3de073a4	0.10959557
116	0xbd79d86d	-0.060997415
117	0xbd384ea4	-0.044996873
118	0x3840b8b6	4.5948393e-05
119	0x3dc8d6e1	0.0980661
120	0x3ca08769	0.019595819
121	0xbd736005	-0.059417743
122	0xbb0feb14	-0.0021960186
123	0x3d41a9c5	0.047281045
124	0x3dd5638f	0.1041938
125	0xbcfd486e	-0.030918326
126	0x3d32c41e	0.043644063
127	0x3db96f1d	0.09054396
128	0x3d94ca57	0.07265156
129	0x3d6c8ad8	0.0577496
130	0xbb9537a9	-0.0045537543
131	0x3d8bfb43	0.06835034
132	0xbd8da12e	-0.06915508
133	0xbdc15d09	-0.09441573
134	0x3d80f5a9	0.06296856
135	0x3df49312	0.11942114
136	0xbd63970a	-0.055563964
137	0xbbf3c6b6	-0.0074394597
138	0xbdae408f	-0.08508407
139	0x3d4eeb31	0.050517265
140	0xbda0b200	-0.07846451
141	0x3df9b3d7	0.12192505
142	0x3c9c4f78	0.019080862
143	0xbad3d3d3	-0.0016161151
144	0x3e017d85	0.12645538
145	0xbdc14dd3	-0.09438672
146	0xbbe68e16	-0.007035981
147	0xbdd35681	-0.10319234
148	0xbdb82837	-0.089920454
149	0xbd853f8e	-0.06506263
150	0xbdc8e7a3	-0.09809806
151	0x3dd28d5b	0.10280868
152	0x3de1b15e	0.11020158
153	0xbc879a60	-0.016553104
154	0xbc260499	-0.010132932
155	0xbd16ea3b	-0.036844473
156	0xbdc710bb	-0.09719988
157	0xbda99a70	-0.0828141
158	0x3d97f90d	0.074205495
159	0x3d6e17db	0.05812822
160	0x3e0e1045	0.13873394
161	0xbd0a231f	-0.0337249
162	0xbd9add66	-0.0756176
163	0xbdf3a7d2	-0.118972436
164	0xbdbd8da8	-0.092555344
165	0x3ce7c264	0.028290935
166	0xbd684eea	-0.056715883
167	0x3d1eea83	0.038797867
168	0xbc2fd6ec	-0.010732394
169	0xbde82001	-0.11334229
170	0xbdacd943	-0.08439877
171	0x3dc0b352	0.09409203
172	0xbd2de926	-0.042458676
173	0xbcd10e41	-0.025519492
174	0xbd5b5f05	-0.053557415
175	0xbde5189f	-0.11186337
176	0xbdbf3950	-0.09337103
177	0xbd4d1d66	-0.050076865
178	0x3d3c8acc	0.046030805
179	0x3d9b5391	0.075842984
180	0x3d2dfb17	0.042475786
181	0x3d1f6a97	0.03892001
182	0x3d91795d	0.07103226
183	0x3d843872	0.064560786
184	0xbd1c7c50	-0.03820449
185	0xbd7ac40b	-0.061222117
186	0x3d34b514	0.044118002
187	0xbd498824	-0.0492021
188	0xbd85f016	-0.065399334
189	0x3dbfb7b4	0.093612105
190	0x3c65308c	0.013988625
191	0x3d4fc454	0.050724342
192	0x3dc94281	0.09827138
193	0xbd17d1a3	-0.03706516
194	0x3dc15dde	0.09441732
195	0x3c051281	0.008122087
196	0xbd0e2573	-0.034703683
197	0xbd09b29e	-0.03361761
198	0x3d92293c	0.07136771
199	0x3d74bcbc	0.059750304
200	0xbccd39eb	-0.025052032
201	0x3d34fbe6	0.04418554
202	0xbd0c83fc	-0.034305558
203	0x3cadcd74	0.021216132
204	0x3db342ee	0.08753
205	0xbcb01f13	-0.021499192
206	0xbdc25c78	-0.09490293
207	0x3dc589e4	0.09645441
208	0x3dbddcc2	0.09270622
209	0x3cef1776	0.029185992
210	0xbd3b8264	-0.045778647
211	0xbdb6588b	-0.08903607
212	0x3c898197	0.016785426
213	0xbda20c28	-0.07912475
214	0xbd687779	-0.056754563
215	0xbdb276e3	-0.08714082
216	0xbded711f	-0.11593842
217	0xbdb892f1	-0.09012402
218	0xbdf21364	-0.11820105
219	0xbda9b69e	-0.082867846
220	0xbd810204	-0.062992126
221	0xbda705cd	-0.08155403
222	0xbd783bf4	-0.06060405
223	0xbd0f6f4f	-0.03501826
224	0xbd822723	-0.06355121
225	0x3ddd32bf	0.10800695
226	0xbdeca8ca	-0.115556315
227	0xbb445205	-0.0029956114
228	0xbd33ea9a	-0.043924905
229	0x3ca884ae	0.02057108
230	0x3c801cbb	0.0156387
231	0xbde051ce	-0.10953103
232	0x3de9817c	0.1140165
233	0xbd665048	-0.056228906
234	0xbdf68081	-0.12036229
235	0x3d2ad4a3	0.041706692
236	0xbdc710a7	-0.09719973
237	0xbdba716c	-0.09103665
238	0x3d54a41c	0.05191432
239	0xbd88dbaf	-0.06682526
240	0x3dbd4358	0.092413604
241	0xbd8a5080	-0.067536354
242	0x3dd88f31	0.105741866
243	0x3c79d30b	0.0152480705
244	0x3b24851f	0.002510376
245	0x3ce53d7c	0.02798342
246	0x3b476a48	0.0030428339
247	0x3cb561dd	0.022141391
248	0x3bb51353	0.0055259853
249	0x3a99ffeb	0.0011749243
250	0x3d980674	0.07423106
251	0x3dd9bec4	0.10632089
252	0xbd4f0fed	-0.050552297
253	0xbc900e84	-0.017585047
254	0x3dd1dd42	0.1024728
255	0x3c397e46	0.01132161

gru.bias_ih_l0 f4 [192]
0	0xbd8ad69e	-0.06779216
1	0xbd997aa6	-0.074940965
2	0x3d49ce51	0.049269024
3	0x3da88bb4	0.08229771
4	0x3d2b10d5	0.0417641
5	0x3ca63747	0.02029003
6	0x3dd471fe	0.10373305
7	0xbd8e4d6b	-0.0694836
8	0x3c76218f	0.015022649
9	0xbda80c36	-0.08205454
10	0x3d30b3df	0.04314029
11	0x3d52182a	0.051292576
12	0xbdaa65c0	-0.083201885
13	0x3d222e0b	0.03959469
14	0xbdbf14c1	-0.0933013
15	0x3cdcb9ce	0.026944067
16	0x3df61527	0.12015753
17	0xbd9153a7	-0.070960335
18	0xbdad3f06	-0.084592864
19	0x3c95dad4	0.018292822
20	0xbb3d988e	-0.002893004
21	0x3c5b0b65	0.013369416
22	0x3d9beee2	0.07613923
23	0xbcf75a65	-0.03019447
24	0xbdc25808	-0.09489447
25	0x3dae837e	0.08521174
26	0x3d75fb9f	0.060054418
27	0x3dec83af	0.11548554
28	0xbdd26ea5	-0.1027501
29	0x3bdcd0c5	0.0067387545
30	0x3d34ae06	0.044111274
31	0xbdb1d34b	-0.08682879
32	0x3d21370c	0.039359137
33	0xbd031c37	-0.03200933
34	0x3d5c08e6	0.053719424
35	0x3dc538fc	0.096300095
36	0xba8b86a8	-0.0010644989
37	0xbc8f41b5	-0.017487386
38	0x39d3139e	0.00040259672
39	0xbd493388	-0.04912141
40	0xbb5478ac	-0.003242056
41	0xbca40fcd	-0.020027066
42	0xbd3570b9	-0.044296954
43	0xbdae4ad2	-0.085103646
44	0x3d9b1d75	0.07573978
45	0xbda4a70e	-0.08039676
46	0xbddf7bdf	-0.109122984
47	0x3d211205	0.039323825
48	0xbde262cd	-0.11054001
49	0xbc350767	-0.011049128
50	0x3c5f8b1b	0.013644005
51	0x3d2d2236	0.042268954
52	0xbe0047e3	-0.12527423
53	0x3d71d1ce	0.059037976
54	0xbbe02e50	-0.0068414584
55	0xbd70361d	-0.058645356
56	0xbdb59c6d	-0.088677265
57	0x3dc86610	0.09785092
58	0xbc6762a3	-0.014122638
59	0x3da189e5	0.078876294
60	0xbdf3e0b1	-0.11908091
61	0xbd9c784f	-0.076401345
62	0xbd3a8073	-0.045532655
63	0xbddcba49	-0.107777186
64	0xbb8d3f5c	-0.0043105315
65	0xbcbc2abd	-0.022969598
66	0xbd79cfea	-0.060989298
67	0xbcb1cecc	-0.021705054
68	0x3e006970	0.12540221
69	0x3be5b9fd	0.007010697
70	0x3c6ce974	0.014459956
71	0x3ca8debc	0.02061402
72	0xbd8123ce	-0.06305657
73	0xbd0d0f05	-0.034438152
74	0x3d95100b	0.072784506
75	0xbdcb1627	-0.099163346
76	0x3d83065d	0.06397698
77	0x3b8a504b	0.0042209974
78	0xbdee7396	-0.1164314
79	0xbdb83ab3	-0.08995571
80	0xbd848ff2	-0.06472768
81	0x3da0c1ba	0.078494504
82	0x3c3caf58	0.011516415
83	0x3dd27e7c	0.10278031
84	0xbdc8c91c	-0.098039836
85	0x3d2b2f23	0.041793
86	0x3d7667dc	0.06015764
87	0xbcec6870	-0.028858393
88	0x3aeec083	0.0018215332
89	0x3d9af506	0.07566266
90	0xbddba5db	-0.10724994
91	0xbda390da	-0.079866126
92	0xbd4960c4	-0.04916455
93	0xbdaef1e5	-0.085422315
94	0x3cc31227	0.023812367
95	0xbd7357cf	-0.059409913
96	0x3d207791	0.039176527
97	0x3d8892e3	0.066686414
98	0x3dd7c892	0.105363026
99	0xbc1a3506	-0.009412056
100	0xba9ba2e0	-0.0011874102
101	0x3ab430ae	0.0013747418
102	0x3b9b8653	0.0047462373
103	0x3d850da6	0.06496744
104	0x3c5bb6dc	0.013410296
105	0x3def9e80	0.11700153
106	0x3cae1e95	0.021254817
107	0x3d4e9203	0.050432216
108	0x3d819ca9	0.06328709
109	0xbdb8693d	-0.090044476
110	0xbd581521	-0.052754525
111	0x3e076ba4	0.13224655
112	0x3db23770	0.0870198
113	0xbc2653a1	-0.010151775
114	0x3d3e62b7	0.04648086
115	0x3da04ba6	0.07826929
116	0x3d865f90	0.06561196
117	0x3d9f6193	0.07782283
118	0xbd1b59ed	-0.037927557
119	0x3d181c46	0.03713634
120	0x3d787739	0.060660575
121	0x3d0d3756	0.0344766
122	0x3d5693d4	0.052387074
123	0xbc3e8c39	-0.011630111
124	0x3d482bcf	0.048869904
125	0x3d4d2dfa	0.050092675
126	0x3e12cc46	0.14335737
127	0x3d136329	0.03598324
128	0xbd71d6cf	-0.059042748
129	0x3dd8402d	0.105591156
130	0x3d8cd4fe	0.068765625
131	0x3d80c72b	0.06287988
132	0x3da21515	0.07914177
133	0x3db85375	0.09000293
134	0xbd786541	-0.06064344
135	0xbd30c84c	-0.043159768
136	0x3de906da	0.1137826
137	0xbdd06bdd	-0.10176823
138	0x3dc34910	0.0953542
139	0xbccc0d1b	-0.024908593
140	0xbdf504e6	-0.11963825
141	0x3d081b0c	0.03322892
142	0x3c11c57c	0.008897182
143	0x3db5c4b3	0.08875408
144	0xbd19b73f	-0.037528273
145	0x3ddba63c	0.10725066
146	0xbdd6de28	-0.10491592
147	0x3d88af64	0.06674078
148	0x3c5842c0	0.013199508
149	0xbddcb712	-0.107771054
150	0xbc8b3da9	-0.016997175
151	0x3cdaa81d	0.02669149
152	0xbd540ab1	-0.05176801
153	0xbd8e2262	-0.06940152
154	0x3de89a4f	0.11357557
155	0x3ce9a2f4	0.028520085
156	0x3dcb681f	0.09931969
157	0xbdbc7dc3	-0.09203675
158	0xbbc928d5	-0.0061389008
159	0xbd6261bc	-0.055268988
160	0xbdab6d92	-0.08370508
161	0xbdf91f76	-0.12164204
162	0x3d132230	0.035921276
163	0xbd9654bc	-0.073403805
164	0x3d9ff9ca	0.07811315
165	0xbc57f872	-0.013181793
166	0xbda8df97	-0.082457714
167	0x3d9e7c77	0.077385835
168	0x3cdfd169	0.027321534
169	0xbcf25304	-0.0295806
170	0xbd9e08a2	-0.0771649
171	0xbda3800d	-0.07983408
172	0xbdccd7e6	-0.10002117
173	0x3c911765	0.01771135
174	0x3d7d7c86	0.061886333
175	0xbce891d1	-0.028389843
176	0xbdc2d89d	-0.09513972
177	0x3dea4456	0.11438815
178	0xbdb467e1	-0.08808876
179	0xbd54e23d	-0.05197357
180	0xbd88596e	-0.06657682
181	0xbda38886	-0.07985024
182	0xbc4440af	-0.011978312
183	0xbd9e5f7f	-0.07733058
184	0x3dddae46	0.10824256
185	0xbd761e8d	-0.06008773
186	0xbc7595d5	-0.014989336
187	0x3c61c2a4	0.013779316
188	0xbbd0a5a8	-0.006367404
189	0xbdc70e0e	-0.097194776
190	0x3d573236	0.05253812
191	0x3df79aef	0.12090098

gru.bias_hh_l0 f4 [192]
0	0xbd8bbb15	-0.068227924
1	0x3c5a24b3	0.013314414
2	0x3df1bd45	0.118036784
3	0xbd97b1c9	-0.07406957
4	0x3ddaa33a	0.10675664
5	0xbc4e9b92	-0.012610333
6	0xbc80e748	-0.015735283
7	0xbc677f4f	-0.014129474
8	0x3b7797ff	0.0037779806
9	0xbda1c213	-0.07898345
10	0xbd2cc9a0	-0.042184472
11	0x3d6eca3a	0.058298327
12	0x3b105e06	0.0022028699
13	0xbdcde179	-0.10052771
14	0xbd4d726c	-0.05015795
15	0xbc826634	-0.015917875
16	0x3c9c3138	0.019066438
17	0x3ddc74da	0.10764475
18	0x3df06170	0.11737335
19	0x3da39a20	0.079883814
20	0xbc301c81	-0.010748983
21	0x3dae2012	0.08502211
22	0xbde3ddd0	-0.11126292
23	0x3c0c52ff	0.00856471
24	0x3ccec277	0.025239212
25	0x3da00b90	0.07814705
26	0xbcbd40b0	-0.023102134
27	0x3db1df59	0.08685178
28	0xbce63398	-0.028100774
29	0xbce4db32	-0.027936552
30	0x3d52aeee	0.051436357
31	0x3d738b9c	0.059459314
32	0xbde6c065	-0.11267165
33	0x3cb3bd10	0.021940738
34	0x3c626933	0.013819027
35	0x3c907643	0.017634517
36	0x3c31e8dc	0.010858741
37	0x3ca5d378	0.020242438
38	0xbcb149dd	-0.021641666
39	0xbd852faa	-0.06503232
40	0x3c8499c4	0.016186602
41	0xbd87eabd	-0.0663657
42	0xbd74a5d9	-0.059728477
43	0xbdbc09aa	-0.09181531
44	0xbdff42b7	-0.12463897
45	0xbd05f2c0	-0.032702208
46	0x3c56323c	0.0130735
47	0x3dc7d4bb	0.09757372
48	0xbdb64057	-0.088989906
49	0x3ddf6ae1	0.109090574
50	0x3e022aa0	0.12711573
51	0xbdac0d26	-0.08400945
52	0xbc9c5159	-0.019081758
53	0xbd7e4491	-0.06207711
54	0xbdb2de3f	-0.08733796
55	0xbc893967	-0.016751004
56	0xbdab8f21	-0.08376909
57	0x3bf7b838	0.0075598024
58	0xbd755bef	-0.059902128
59	0xbdc295dd	-0.095012404
60	0xbc0fd87d	-0.008779642
61	0x3de4344f	0.111427896
62	0x3cb16732	0.021655653
63	0xbdabad3b	-0.083826505
64	0x3da066f1	0.078321345
65	0xbdc74989	-0.097308226
66	0xbb8e81eb	-0.0043489835
67	0xbd8a3819	-0.06748981
68	0xbded2125	-0.115785874
69	0xbd377ba4	-0.044795647
70	0xbd95e3dd	-0.07318852
71	0xbd8eb5a8	-0.06968242
72	0xbdb40f46	-0.08791976
73	0xbd357d7c	-0.044309124
74	0x3cf277c7	0.02959813
75	0x3cb16fbf	0.02165973
76	0xbdea6479	-0.11444945
77	0x3df44158	0.11926526
78	0xbd2f5fef	-0.0428161
79	0xbd281317	-0.04103383
80	0xbdc7d7e9	-0.097579785
81	0x3dc3a2b5	0.09552518
82	0x3dbd321d	0.09238074
83	0xbdc8b122	-0.097994104
84	0x3e037a5c	0.12839645
85	0xbd578ab9	-0.05262253
86	0xbd05b660	-0.03264463
87	0x3d88c8a4	0.06678894
88	0xbddc529f	-0.10757946
89	0x3b69e666	0.0035690307
90	0xbdd3a51e	-0.10334228
91	0xbd7b5488	-0.061359912
92	0x3b48b9eb	0.0030628394
93	0x3dfd932c	0.123815864
94	0x3dd20b6e	0.10256086
95	0x3c8aa30d	0.016923452
96	0xbbbafe86	-0.005706611
97	0xbd062bf8	-0.032756776
98	0xbd9dbb94	-0.07701793
99	0xbc174671	-0.009233103
100	0x3d843a65	0.064564504
101	0xbd62ea6e	-0.05539935
102	0x3d24b80e	0.04021459
103	0xbda99202	-0.08279802
104	0x3c89b58a	0.016810197
105	0xbdada8d2	-0.084794655
106	0x3a6c24c3	0.00090081635
107	0xbdbcc590	-0.092173696
108	0x3dfae3ae	0.12250458
109	0xbdb0194f	-0.08598577
110	0x3c8256e0	0.015910566
111	0x3db844bb	0.08997484
112	0xbdd35766	-0.10319404
113	0x3e038972	0.128454
114	0xbddf6f1e	-0.10909866
115	0xbddb0da8	-0.10695964
116	0xbdd91ccb	-0.10601195
117	0x3dad593b	0.08464285
118	0xbd3546e1	-0.04425705
119	0xbd1071ec	-0.035264894
120	0xbd83d390	-0.06436837
121	0xbdf81004	-0.1211243
122	0xbd186bca	-0.03721217
123	0xbd882b31	-0.06648863
124	0x3d2c4481	0.042057518
125	0x3c060620	0.008180171
126	0xbbbd31ab	-0.005773743
127	0xbc468797	-0.012117288
128	0xbdc68378	-0.096930444
129	0x3df2d9d5	0.118579544
130	0xbdfbb30c	-0.1229001
131	0xbddaf1e4	-0.10690668
132	0x3d3058f4	0.043053582
133	0x3b61fb3a	0.0034482018
134	0xbd6f6b21	-0.058451775
135	0xbc374b1b	-0.01118734
136	0xbcbedc3d	-0.023298377
137	0x3d89e885	0.06733803
138	0x3d50900c	0.050918624
139	0xba99ce58	-0.0011734469
140	0x3c8f7658	0.017512485
141	0x3d49c53b	0.04926036
142	0xbdd26a71	-0.10274208
143	0xbdc50450	-0.09619963
144	0xbd522854	-0.05130799
145	0xbd28591a	-0.0411006
146	0x3d8fbcc0	0.07018423
147	0x3b37b4c3	0.0028031326
148	0xbd4599b5	-0.04824229
149	0x3dfd4237	0.12366145
150	0xbdaccd86	-0.08437638
151	0xbdc5d6b3	-0.09660091
152	0x3cdb9fa5	0.026809523
153	0xbc8a18bf	-0.016857503
154	0x3d922dad	0.07137618
155	0xbdfb8e4b	-0.122829996
156	0xbdd222c0	-0.10260534
157	0x3e023400	0.12715149
158	0x3d25f33e	0.040515177
159	0xbdcd9e96	-0.100400135
160	0x3dbca93a	0.09211965
161	0xbd50c5bc	-0.050969824
162	0x3d36018a	0.04443506
163	0xbdd58161	-0.10425068
164	0x3d6ae93e	0.057351343
165	0x3d98bbf1	0.07457722
166	0xbc079923	-0.008276257
167	0x3d23d031	0.03999347
168	0x3d6de4f5	0.05807968
169	0x3dc6c423	0.09705379
170	0xbc4f6057	-0.012657247
171	0x3dfc8b59	0.12331266
172	0xbddf04f3	-0.10889616
173	0x3c064541	0.008195222
174	0x3df65883	0.12028601
175	0x3d2fbf25	0.0429069
176	0x3de63566	0.11240654
177	0x3d89f2f0	0.0673579
178	0x3c0d8e7e	0.00863993
179	0xbdce4315	-0.10071389
180	0xbd482cae	-0.048870735
181	0xbdc6eba7	-0.09712916
182	0xbd9a0305	-0.07520107
183	0xbdb04485	-0.08606819
184	0x3cec5b5a	0.028852154
185	0xbc1ef08a	-0.009700904
186	0x3c6a5b0a	0.014303932
187	0xbdd0cd4c	-0.10195407
188	0xbdd891c2	-0.10574676
189	0x3c1a8d13	0.009433049
190	0xbdcc16f7	-0.09965318
191	0x3d0b9f50	0.03408748

gru.weight_ih_l1 f4 [192, 64]
0	0x3d3ede68	0.046598822
1	0xbd898e6f	-0.0671662
2	0xbccedf56	-0.02525298
3	0xbe052ff9	-0.13006581
4	0xbc543d2b	-0.012954037
5	0x3d44253a	0.047887065
6	0x3db55991	0.08854974
7	0xbc8087bc	-0.015689723
8	0xbd8c0c67	-0.06838303
9	0xbd897306	-0.06711392
10	0xbc58e81b	-0.013238932
11	0x3c08741a	0.008328462
12	0xbc353525	-0.011060034
13	0xbda8d02d	-0.082428314
14	0x3dfa8f65	0.122343816
15	0x3ddd0693	0.107922696
16	0xbc7d3380	-0.015454173
17	0x3dd00965	0.10158042
18	0x3d7a2b09	0.061076198
19	0x3ce2629c	0.027634911
20	0x3deb1670	0.11478889
21	0x3db6282a	0.088943794
22	0x3a09088d	0.00052274094
23	0xbd89d9c5	-0.06730989
24	0x3ce8f767	0.028438283
25	0x3d4e36e4	0.050345317
26	0x3c92d223	0.017922467
27	0xbd8e5008	-0.069488585
28	0xbd9e999a	-0.07744141
29	0xbc0f039e	-0.00872889
30	0x3d06025c	0.032717094
31	0x3daec95b	0.08534499
32	0xba848666	-0.0010110855
33	0xbcf5d468	-0.03000851
34	0x3dc24f6c	0.09487805
35	0xbcba9233	-0.022774791
36	0xbde30684	-0.11085227
37	0xbc87e058	-0.016586468
38	0xbc0564e0	-0.008141726
39	0x3bf64d8c	0.0075165685
40	0xbe0644c7	-0.13112174
41	0xbd8a7547	-0.0676065
42	0x3dbf7967	0.093493275
43	0x3d86abca	0.06575735
44	0x3b93be71	0.0045087864
45	0x3dd33b71	0.10314072
46	0x3d08350f	0.033253726
47	0xbbb60ef6	-0.0055559827
48	0x3dd1f30a	0.10251434
49	0x3dd52dfe	0.10409163
50	0xbdef42e0	-0.11682677
51	0xbdad61c2	-0.084659114
52	0x3d5349f1	0.051584188
53	0x3df33cd5	0.11876837
54	0x3dd88bde	0.105735525
55	0xbd23a9da	-0.039956905
56	0xbcc9bb6b	-0.0246255
57	0xbd07179e	-0.032981507
58	0x3d0e7c05	0.034786243
59	0x3c711588	0.014714606
60	0xbdd6d347	-0.10489517
61	0x3d7a6067	0.061127093
62	0x3cbc7023	0.02300269
63	0xbdf4dfad	-0.11956725
64	0xbd0b4a5b	-0.034006458
65	0xbdc2f57d	-0.095194794
66	0xbdb035e4	-0.08604029
67	0xbde10b2e	-0.109884605
68	0x3db70d0b	0.089380346
69	0xbde31a36	-0.11088984
70	0xbd03f99c	-0.032220468
71	0xbd9ba807	-0.07600408
72	0x3da26f3d	0.07931373
73	0x3cd5b792	0.02608851
74	0xbcb83582	-0.022486452
75	0xbd5af8e7	-0.053460028
76	0xbdbf6a56	-0.09346454
77	0x3d48d448	0.049030572
78	0x3d6711bf	0.05641341
79	0x3d987a49	0.07445199
80	0xbdbd483f	-0.092422955
81	0x3d970b2b	0.07375177
82	0x3de840d4	0.1134049
83	0xbc8e132f	-0.017343132
84	0x3dad4a51	0.0846144
85	0x3d327533	0.0435688
86	0xbdd995d7	-0.10624283
87	0xbc128701	-0.00894332
88	0xbdacb9f9	-0.08433909
89	0xbd34bc3f	-0.044124838
90	0x3dc94c12	0.098289624
91	0x3d3d35e8	0.046193987
92	0x3a172a8c	0.0005766533
93	0x3d91a4c3	0.07111504
94	0xbd786f91	-0.060653273
95	0x3d08b350	0.03337413
96	0xbd9f7c1e	-0.07787345
97	0xbd9bb169	-0.07602198
98	0xbdaeba38	-0.08531612
99	0xbd5a702f	-0.053329643
100	0x3b8b34ba	0.004248229
101	0xbd3b386b	-0.0457081
102	0xbd01d56a	-0.031697668
103	0x3dcbaaaf	0.09944665
104	0x3c0d88bf	0.00863856
105	0x3db346b9	0.08753724
106	0x3a9fb79b	0.0012185456
107	0xbe07ecbb	-0.132739
108	0xbdbb700e	-0.09152232
109	0xbc01ed52	-0.007930117
110	0x3deba4ff	0.1150608
111	0xbdb0f714	-0.086408764
112	0xbc9711bb	-0.018441072
113	0x3df4bae9	0.11949713
114	0x3d8a4bd5	0.06752745
115	0x3c6e9665	0.014562224
116	0x3c93b64d	0.018031264
117	0x3d229d07	0.039700534
118	0x3997bee2	0.00028943183
119	0xbd8ae625	-0.06782178
120	0xbd738ff0	-0.05946344
121	0x3d35b40e	0.044361167
122	0xbca7617c	-0.020432226
123	0xbd9f8c10	-0.07790387
124	0x3d1ab4a8	0.037769943
125	0x3d2cc4df	0.04217994
126	0xbda98426	-0.082771584
127	0x3df1ba3a	0.11803098
128	0xbb7c3cc9	-0.003848838
129	0x3ddfc31d	0.10925887
130	0xbd5d8571	-0.054082338
131	0x3c26ecba	0.010188276
132	0xbd90823c	-0.0705609
133	0xbc189be9	-0.009314516
134	0xbd555c58	-0.05209002
135	0x3dc857c2	0.097823635
136	0x3c0d4119	0.0086214775
137	0xbdd1b9ab	-0.102404915
138	0xbd859444	-0.0652242
139	0xbcee4a92	-0.029088292
140	0xbd798ad4	-0.060923412
141	0xbdd22732	-0.10261382
142	0xbd39e1b7	-0.045381274
143	0xbc969115	-0.018379727
144	0x3ceb9a92	0.028760228
145	0x3dada410	0.08478558
146	0xbdc0b5b5	-0.09409658
147	0xbd0deffd	-0.0346527
148	0x3db082b6	0.08618681
149	0x3c2e6091	0.01064314
150	0xbdb50105	-0.08838085
151	0xbcd8da24	-0.026471205
152	0xbdb6082f	-0.0888828
153	0x3dc2f9c4	0.09520295
154	0x3dc39cf0	0.09551418
155	0x3d7cb4f2	0.061696
156	0xbd19e22b	-0.037569206
157	0x3dca5d6a	0.098810986
158	0xbdb60100	-0.088869095
159	0x3d8db40d	0.069191076
160	0xbd3ba4d2	-0.04581148
161	0x3da7677e	0.081740364
162	0x3bc41300	0.0059837103
163	0x3b67bf75	0.003536192
164	0xbcd295f9	-0.025706278
165	0xbb884dbd	-0.0041596578
166	0xbd760129	-0.0600597
167	0x3daa31a5	0.0831025
168	0xbde23d7c	-0.110468835
169	0x3d166e24	0.036726132
170	0x3db3d8ee	0.087816104
171	0x3d9fb9d0	0.07799113
172	0x3d88efa8	0.06686336
173	0x3c4592db	0.012058939
174	0xbda096d4	-0.07841268
175	0xbd15fe66	-0.036619566
176	0x3c2f6fc7	0.010707802
177	0x3e03d833	0.12875442
178	0xbd1196ee	-0.03554433
179	0x3cd5d638	0.026103124
180	0x3db9da4b	0.09074839
181	0xbde825b0	-0.11335313
182	0x3d8a4eac	0.06753287
183	0xbdd59a16	-0.1042978
184	0xbd5a1c53	-0.05324967
185	0xbd96f25d	-0.07370446
186	0x3cfe1cd7	0.031019611
187	0x3cce17dd	0.025157863
188	0x3d2e15fb	0.04250143
189	0x3dc27545	0.09495024
190	0xbd108517	-0.035283174
191	0x3de65696	0.11246984
192	0x3d352483	0.044224273
193	0x3db919f9	0.09038157
194	0x3d35ddd0	0.04440099
195	0x3c9b7425	0.01897628
196	0xbda1cbdb	-0.079002105
197	0xbd557de9	-0.05212203
198	0xbda77602	-0.08176805
199	0xbde8579f	-0.113448374
200	0x3d8ad620	0.06779122
201	0xbdbf0dad	-0.0932878
202	0xbd1b00aa	-0.03784243
203	0x3d8b8106	0.06811719
204	0x3d05c16e	0.032655172
205	0xbde0da3c	-0.10979125
206	0x3d47a007	0.0487366
207	0xbc0bbb4b	-0.008528541
208	0xbdba2768	-0.090895474
209	0xbd658d66	-0.05604305
210	0x3d7b0510	0.061284125
211	0x3d9aa794	0.07551494
212	0x3db4cda5	0.08828286
213	0x3d5a5217	0.053300943
214	0x3cad5b7e	0.021161791
215	0xbb7df6b0	-0.0038751774
216	0xbd99e46b	-0.075142704
217	0xbd439c08	-0.047756225
218	0x3d933040	0.07186937
219	0x3ce02746	0.027362477
220	0xbb05e7e4	-0.0020432407
221	0xbdec506f	-0.11538779
222	0xbbfd07d7	-0.007721882
223	0xbdc33836	-0.09532206
224	0x3d1db8b8	0.03850624
225	0xbdc8760a	-0.09788139
226	0x3cd6c0f8	0.026215062
227	0xbdd693a7	-0.10477381
228	0xbaaca92e	-0.0013172978
229	0x3cc9a26a	0.024613578
230	0x3aaab6c6	0.0013024441
231	0xbdf3d2e3	-0.11905458
232	0x3c718b4a	0.014742682
233	0x3d1af611	0.037832323
234	0x3decbd22	0.11559512
235	0xbd99e219	-0.07513828
236	0xbd85c49c	-0.06531641
237	0x3cd4bac2	0.02596796
238	0xbdd30d13	-0.10305228
239	0xba525033	-0.0008022815
240	0xbd18c8e4	-0.03730096
241	0xbda7ba3d	-0.08189819
242	0x3d4943be	0.04913687
243	0x3dee7b60	0.11644626
244	0xbde63d5f	-0.11242174
245	0xbd18daee	-0.037318163
246	0x3da85f12	0.08221258
247	0xbdacbc1f	-0.08434319
248	0xbe0052f3	-0.12531643
249	0x3d81be19	0.063350864
250	0x3d924b1e	0.07143234
251	0x3d93b67e	0.07212542
252	0x3db0751f	0.08616089
253	0x3dd8bbbf	0.10582685
254	0xbd7c6067	-0.061615374
255	0x3d1c1d75	0.03811403

gru.weight_hh_l1 f4 [192, 64]
0	0x3d343123	0.043992173
1	0xbd1ca434	-0.038242534
2	0xbd99c400	-0.07508087
3	0xbd8c57ca	-0.06852682
4	0x3de0c6d5	0.10975424
5	0xbdaefaf1	-0.08543957
6	0xbd17c7e6	-0.037055872
7	0xbcf1396e	-0.02944633
8	0xbd4af4bd	-0.049549807
9	0x3d6ae7e2	0.057350047
10	0x3d929c39	0.07158703
11	0x3da0c9f8	0.078510225
12	0x3cbabb52	0.0227944
13	0x3da4d18b	0.0804778
14	0xbcc127bf	-0.023578523
15	0x3dac3b6e	0.08409773
16	0xbd82642e	-0.06366764
17	0xbd0e2431	-0.034702484
18	0xbdd28115	-0.10278527
19	0x3b3b9fcc	0.0028629182
20	0xbd51d7eb	-0.051231306
21	0x3d0c5c69	0.034267817
22	0xbdd4a32f	-0.10382687
23	0x3d59ee31	0.053205673
24	0xbdcaf7d9	-0.099105544
25	0xbc3f6ee1	-0.01168415
26	0x3d5dcdce	0.05415135
27	0xbd189533	-0.037251662
28	0xbde3c68e	-0.11121856
29	0x3da95539	0.08268208
30	0x3d9808f1	0.074235804
31	0x3d2fa1a4	0.042878762
32	0xbd2ad440	-0.041706324
33	0xbd09f436	-0.033680163
34	0xbdd86806	-0.10566716
35	0xbac6d327	-0.001516913
36	0x3ccf6114	0.025314845
37	0xbda7ce95	-0.08193699
38	0xbd93a7df	-0.07209753
39	0x3b838ad9	0.0040143547
40	0x3c5905aa	0.013245979
41	0xbd8e2b55	-0.06941859
42	0x3dc8284d	0.09773312
43	0xbd25c99b	-0.04047547
44	0x3d4a3bde	0.0493735
45	0xbdf8452a	-0.12122567
46	0x3d9c50ad	0.07632575
47	0x3d2847ef	0.041084226
48	0x3cc3315e	0.023827251
49	0x3dcc79dc	0.0998418
50	0x3d0b4cbf	0.034008738
51	0xbd5583ef	-0.052127775
52	0x3d7673f9	0.060169194
53	0x3cd5b4c4	0.026087172
54	0xbda3222d	-0.07965503
55	0x3cb3fdaf	0.021971552
56	0xbdfe86fe	-0.124280915
57	0xbd234dcb	-0.03986911
58	0x3c662e49	0.014049121
59	0x3d996861	0.07490612
60	0x3dc4175c	0.09574768
61	0xbe007f81	-0.12548639
62	0xbd050749	-0.03247765
63	0xbcde9d30	-0.027174562
64	0x3cb41833	0.021984195
65	0x3b31d463	0.002713465
66	0xbdc2b959	-0.095080085
67	0x3c7d5106	0.015461212
68	0xbdb28dbd	-0.08718441
69	0x3c72986b	0.014806847
70	0xbd6eca8b	-0.05829863
71	0x3c8022d6	0.015641611
72	0xbb5f021f	-0.0034028364
73	0xbd903bd4	-0.07042661
74	0x3da05eb0	0.0783056
75	0x3cd637cd	0.026149655
76	0xbd44c115	-0.0480357
77	0x3cca7ce0	0.024717748
78	0xbdd91b87	-0.106009535
79	0x3d29c4c3	0.041447412
80	0x3d89ca36	0.06728022
81	0x3dbde6c2	0.09272529
82	0xbbb68899	-0.005570483
83	0x3d60851a	0.054814436
84	0x3d761fef	0.060089048
85	0xbdd78436	-0.10523264
86	0xbd99bd5a	-0.07506819
87	0x3d892d6d	0.066981174
88	0x3d6db214	0.058031157
89	0x3d398221	0.045290116
90	0xbd4c8225	-0.049928803
91	0xbcf8a79a	-0.030353356
92	0x3d72a7b3	0.05924196
93	0x3cbcc0eb	0.02304121
94	0x3ab3008a	0.0013656777
95	0x3da1655e	0.078806624
96	0xbd4d0efe	-0.050063126
97	0x3d2ee0ca	0.042694844
98	0xba2f4376	-0.00066857727
99	0x3b11f1eb	0.0022269438
100	0x3dab0088	0.08349711
101	0xbd0d9641	-0.03456712
102	0x3d1916b7	0.03737518
103	0xbe015f60	-0.12634039
104	0x3daa5c6a	0.08318408
105	0x3d1277ff	0.03575897
106	0xbdd8ccf8	-0.1058597
107	0xbca718f9	-0.02039765
108	0x3d80c684	0.06287864
109	0xbdc7c144	-0.09753659
110	0x3df082f6	0.11743729
111	0x3b581b6c	0.003297533
112	0x3d5daefc	0.054121956
113	0xbda3c847	-0.07997184
114	0x3d178db5	0.037000377
115	0xbb00bf3f	-0.0019645242
116	0xbcfb8c16	-0.030706447
117	0xbdce3394	-0.100684315
118	0xbca08e54	-0.019599117
119	0xbd0b32c0	-0.033983946
120	0x3de877a1	0.113509424
121	0xbda8dd19	-0.08245296
122	0xbcfd3f9e	-0.030914124
123	0x3dec2689	0.115307875
124	0xbd7b01d8	-0.061281055
125	0x3d8c938a	0.06864078
126	0xbc1ba1f1	-0.009499059
127	0xbc74d9b4	-0.014944483
128	0xbe037933	-0.12839203
129	0x3da0c672	0.078503504
130	0xbd102d9c	-0.035199746
131	0x3de798a7	0.11308413
132	0x3d64239b	0.05569802
133	0x3daca9cd	0.084308244
134	0x3d5bb1ba	0.05363629
135	0xbd397475	-0.045277078
136	0x3c83ec83	0.016103989
137	0xbd434f3f	-0.047682997
138	0xbd81a368	-0.063299954
139	0x3d4ec9e3	0.050485503
140	0xbd365220	-0.044511914
141	0xbc015044	-0.007892672
142	0xbd13b655	-0.036062557
143	0xbdd16386	-0.10224061
144	0x3d2e1568	0.042500883
145	0x3dd5dd3e	0.10442589
146	0x3c5bd352	0.013417082
147	0x3ca25d3c	0.019819848
148	0x3da83fc5	0.08215288
149	0xbbf514bc	-0.0074792784
150	0x3dff1740	0.124556065
151	0xbe0f20d1	-0.13977362
152	0x3d4e602f	0.050384697
153	0x3da10ad0	0.078633904
154	0x3ddef2ea	0.10886176
155	0xbc87f770	-0.01659748
156	0xbdea8747	-0.11451583
157	0x3b6fcd6f	0.0036590954
158	0x3ca8364f	0.020533709
159	0xbd934814	-0.07191482
160	0xbd13af33	-0.036055755
161	0x3da31155	0.0796229
162	0x3d5f80af	0.05456608
163	0xbc0052cb	-0.007832239
164	0xbb65d353	-0.0035068586
165	0xbc9bf376	-0.01903699
166	0x3d56c1ff	0.052431103
167	0x3c50332a	0.012707511
168	0x3d5d7b22	0.054072507
169	0xbdf43701	-0.11924554
170	0x3d04af1e	0.032393567
171	0x3d8900e1	0.06689621
172	0xbc9c5631	-0.019084068
173	0x3d379b38	0.044825763
174	0xbdaaa253	-0.08331742
175	0xbd5194f7	-0.051167455
176	0xbd179701	-0.037009243
177	0xbdccfe33	-0.10009422
178	0x3da876f7	0.08225816
179	0x3b79da9c	0.0038124686
180	0x3c7a59ea	0.015280226
181	0xbd901de6	-0.07036953
182	0xbcd95bc4	-0.026533015
183	0xbd1c509e	-0.03816282
184	0xbdc9b8b1	-0.0984968
185	0x3d57313b	0.052537184
186	0xbcea1141	-0.02857268
187	0xbd4971b4	-0.0491807
188	0x3d6d89a3	0.05799259
189	0xbdcb6efa	-0.099332765
190	0xbdaefc85	-0.08544258
191	0x3e08da4f	0.13364528
192	0xbcce51e4	-0.025185533
193	0x3c53973e	0.012914477
194	0xbc7a6ed0	-0.015285209
195	0x3dead59f	0.11466526
196	0x3d9afd27	0.07567816
197	0xbd608ab8	-0.054819793
198	0x3dd08897	0.101823024
199	0x3c8ec49e	0.017427739
200	0x3dc84acf	0.097798936
201	0xbc6beca7	-0.014399684
202	0xbc39422a	-0.011307279
203	0x3cc5872b	0.024112305
204	0x3d8ac0a1	0.06775022
205	0xbd7b00ab	-0.061279934
206	0x3d1f5620	0.038900495
207	0xbd7ca5f7	-0.061681714
208	0xbdbb6815	-0.091507114
209	0x3b968a9d	0.0045941607
210	0xbc22fcdf	-0.0099479845
211	0xbe016b51	-0.12638594
212	0x3d332060	0.043732047
213	0xbdd3473b	-0.103163205
214	0xba28c880	-0.0006438568
215	0xbd9581a0	-0.07300115
216	0xbc18faf8	-0.009337179
217	0x3d60dfe8	0.054901034
218	0x3df83713	0.121198796
219	0xbd9b3216	-0.075779125
220	0x3d33c0f1	0.043885175
221	0xbdab305b	-0.083588324
222	0x3c991a99	0.01868944
223	0xbdcd7f19	-0.100340076
224	0x3dd37fcd	0.103271104
225	0x3c9e9d4f	0.01936212
226	0x3df3fb16	0.11913125
227	0xbd3ce452	-0.04611618
228	0xbd7b77c7	-0.061393525
229	0x3d045d44	0.032315508
230	0xbdfb619c	-0.12274477
231	0xbb80cb25	-0.0039304667
232	0xbc856268	-0.016282275
233	0xbd51c66f	-0.05121463
234	0xbd83a32d	-0.06427608
235	0xbd3409cc	-0.043954656
236	0x3c4e598c	0.012594592
237	0xbccd709f	-0.025078116
238	0x3d9b6f06	0.075895354
239	0x3d2cfc7b	0.04223297
240	0xbd57ae1f	-0.05265629
241	0xbdb136c6	-0.08653025
242	0x3d84853a	0.064707235
243	0x3c4131f9	0.0117917
244	0x3dbf2974	0.093340784
245	0x3cbbb319	0.022912549
246	0x3dc9800d	0.09838877
247	0x3ddfd210	0.10928738
248	0x3dd4e512	0.10395254
249	0x3b0797be	0.002068981
250	0x3b511d2c	0.0031908257
251	0xbd45bbd9	-0.04827485
252	0x3d81e84d	0.06343136
253	0xbb39a778	-0.002832858
254	0xbcb7baa5	-0.022427866
255	0xbd4e1e4e	-0.05032187

gru.bias_ih_l1 f4 [192]
0	0xbcf9e663	-0.030505365
1	0x3dd05f3e	0.10174416
2	0x3d1dfce4	0.038571253
3	0x3d01f8f6	0.03173157
4	0xbd5c099e	-0.05372011
5	0xbcfff2a4	-0.03124363
6	0xbde6c094	-0.112672
7	0x3dcf076e	0.10108839
8	0xbb1f37f2	-0.002429482
9	0x3ddb1f90	0.106993794
10	0x3d94b90f	0.072618596
11	0xb95f8f57	-0.00021320336
12	0x3d8703d8	0.0659253
13	0x3d98a1e9	0.07452757
14	0xbda22759	-0.07917661
15	0x3d851023	0.064972185
16	0xbdafb758	-0.08579892
17	0xbddca851	-0.10774291
18	0x3d51e125	0.051240105
19	0x3c85e3c7	0.016343964
20	0xbc6c15fd	-0.014409539
21	0xbded2637	-0.115795545
22	0xbd8f7f04	-0.07006648
23	0x3de1c326	0.1102355
24	0x3dde3819	0.108505435
25	0xbdb6b187	-0.089205794
26	0xbc5b623d	-0.013390121
27	0xbb34cd6f	-0.0027588268
28	0x3db6311d	0.08896086
29	0x3df54a24	0.11977032
30	0x3d7c9048	0.061661035
31	0xbdbfaadc	-0.09358761
32	0x3d342327	0.043978836
33	0x3df47d6a	0.11937983
34	0xbd8d4705	-0.068983115
35	0x3dc5884a	0.09645136
36	0xbc8edf16	-0.01744036
37	0x3df7ff67	0.12109261
38	0xbd2fb8b7	-0.042900767
39	0xbdfb3c37	-0.122673444
40	0xbd4306e5	-0.047613997
41	0x3d75daa8	0.06002298
42	0x3dd6cedd	0.10488675
43	0xbd72214d	-0.05911379
44	0x3cd25956	0.025677364
45	0x3d9470d9	0.072480865
46	0xbd93e711	-0.07221807
47	0x3d6274f9	0.055287335
48	0x3def21e5	0.11676387
49	0xbc169bd0	-0.009192422
50	0x3d8e99d1	0.06962932
51	0x3b05b38a	0.0020401203
52	0x3d3f8c56	0.046764694
53	0xbda73f8b	-0.08166417
54	0xbd4b115a	-0.049577095
55	0xbde13e0c	-0.109981626
56	0x3d95079c	0.07276842
57	0xbd978aad	-0.07399497
58	0x3cd90928	0.026493624
59	0xbb701b46	-0.003663735
60	0x3cb6a849	0.022297041
61	0xbd62d312	-0.055377074
62	0xbc64ec12	-0.013972299
63	0x3d3c45b6	0.04596492
64	0x3e008b8f	0.12553237
65	0x3dcf7f97	0.10131758
66	0x3c761c70	0.0150214285
67	0x3e17031c	0.1474728
68	0xba7a5956	-0.0009550055
69	0x3d92dd93	0.07171168
70	0x3d3fe7db	0.046851974
71	0xbc5a946b	-0.01334105
72	0xbd8c505e	-0.06851266
73	0xbdde4dda	-0.10854693
74	0xbdde4e9d	-0.10854838
75	0x3dd317a7	0.10307246
76	0x3d06b4bc	0.032887205
77	0xbd488cec	-0.04896252
78	0x3d7a06fc	0.061041817
79	0xbdb0229c	-0.08600351
80	0x3d852ceb	0.06502708
81	0xbddd9b6a	-0.108206585
82	0xbc9653ce	-0.018350508
83	0xbdc710a2	-0.09719969
84	0xbd50265b	-0.05081783
85	0x3d3562e6	0.04428377
86	0x3c479ffc	0.012184139
87	0xbd9a0627	-0.07520705
88	0xbcb9b1b2	-0.02266774
89	0x3daa9b20	0.08330369
90	0xbdc2582e	-0.09489475
91	0x3d754b25	0.059886117
92	0xbcd5f578	-0.026118025
93	0xbccc01da	-0.024903227
94	0x3db991d2	0.09061016
95	0xbc91c275	-0.01779292
96	0xbcae8356	-0.02130286
97	0x3de92d3d	0.11385582
98	0xbde2ce7d	-0.11074541
99	0xbd90cad5	-0.07069937
100	0x3c38867f	0.011262535
101	0xbdb4b27e	-0.08823107
102	0xbd05923c	-0.032610163
103	0xbd2b052c	-0.04175298
104	0xbdc3f47a	-0.095681146
105	0xbdf1aa25	-0.118000306
106	0x3d79e22a	0.061006702
107	0xbcd628c8	-0.026142493
108	0x3e09424d	0.13404198
109	0x3ce57a3b	0.028012386
110	0x3d6d3fe9	0.057922278
111	0x3c0b14d9	0.008488857
112	0xbda3238c	-0.079657644
113	0x3d9f625e	0.07782434
114	0xbbf1a4e4	-0.007374393
115	0x3c5e76ef	0.013578161
116	0xbde8b0d3	-0.113618515
117	0xbd392acf	-0.04520684
118	0xbd8f074c	-0.06983814
119	0xbc78372c	-0.015149873
120	0x3d2eb486	0.04265263
121	0xbcd457f1	-0.02592084
122	0x3e0c6a84	0.13712507
123	0xbc07b8e1	-0.008283825
124	0xbd92e570	-0.07172668
125	0xbd491733	-0.04909439
126	0x3d87dcb0	0.0663389
127	0x3d3afe7f	0.045652863
128	0xbce47e3e	-0.027892228
129	0xbdf72c4a	-0.12068994
130	0x3d85a434	0.0652546
131	0x3dfb6eb2	0.12276973
132	0xbd1b9011	-0.03797919
133	0x3dcb55eb	0.09928497
134	0xbd84fa15	-0.06493012
135	0x3d318781	0.043342117
136	0x3cfb2b5b	0.030660322
137	0x3cdef0be	0.027214404
138	0xbd3f27e1	-0.04666889
139	0xbd96b77e	-0.07359217
140	0x3dbc3c2a	0.09191163
141	0x3d944fb0	0.07241762
142	0x3d927176	0.07150547
143	0x3c6f3436	0.01459985
144	0x3d424acd	0.047434617
145	0xbc86ec19	-0.016470002
146	0xbb92a29f	-0.0044749524
147	0xbdaa9037	-0.08328288
148	0x3d8e0028	0.069336236
149	0xbd6c0f28	-0.05763164
150	0x3cf1a9de	0.029499944
151	0x3dcbbf1a	0.09948559
152	0x3df5cd0b	0.120019995
153	0x3ca726ea	0.020404298
154	0xbd659f0c	-0.056059882
155	0xbc1e526e	-0.009663207
156	0x3de73b1b	0.1129057
157	0x3de33ee8	0.11095983
158	0xbc3b05ed	-0.011414987
159	0x3db6411a	0.08899136
160	0x3d31091a	0.04322157
161	0x3d41f5db	0.047353607
162	0x3b9bcc56	0.0047545834
163	0x3c453158	0.01203569
164	0xbd55a9cc	-0.052163884
165	0x3c5d4eb7	0.013507537
166	0xbb7d0a1c	-0.0038610762
167	0xbdeccb67	-0.115622334
168	0x3d83cbdb	0.06435367
169	0x3dd42d73	0.10360231
170	0x3cd9fb02	0.026608948
171	0x3dd3526c	0.10318455
172	0xba6491ae	-0.0008719218
173	0xbdcccff7	-0.10000604
174	0x3d94ff29	0.072752304
175	0xbda891ca	-0.08230932
176	0x3dc24d9c	0.09487459
177	0xbc4643b0	-0.012101099
178	0xbcd22d2b	-0.025656303
179	0xbc9d1d23	-0.019178933
180	0xbd8d482f	-0.068985336
181	0xbd3670c4	-0.044541135
182	0xbd04794d	-0.032342244
183	0xbddc2698	-0.10749549
184	0xbd8c38d0	-0.068467736
185	0x3dcdffd1	0.10058559
186	0x3d22ca31	0.039743606
187	0x3d3e3567	0.046437647
188	0x3df2b571	0.118510135
189	0x3dc0e5d9	0.0941884
190	0x3dd63861	0.10459972
191	0x3d330383	0.04370452

gru.bias_hh_l1 f4 [192]
0	0xbd838048	-0.06420952
1	0x3c006a57	0.007837853
2	0x3dbfe589	0.09369952
3	0xbcc721ad	-0.02430805
4	0x3cde1a6f	0.027112214
5	0x3d64e893	0.055885863
6	0x3cb8c203	0.02255345
7	0x3d27b27d	0.040941704
8	0xbd71cb5b	-0.059031826
9	0xbcd4b9a0	-0.02596742
10	0xbd4c6a83	-0.049906265
11	0xbde275f5	-0.11057655
12	0xbdd6ad06	-0.1048222
13	0xbded3e71	-0.115841754
14	0x3d9c0653	0.07618394
15	0x3d97b5c9	0.0740772
16	0xbc4fb8f8	-0.012678377
17	0x3ddd4ef5	0.108060755
18	0x3e06f145	0.13177975
19	0x3cff7955	0.031185785
20	0xbda4b368	-0.080420315
21	0xbc52026c	-0.01281796
22	0xbd20adb4	-0.039228156
23	0xbc99e513	-0.018785989
24	0x3ddf4cc1	0.109033115
25	0xbd3bf23c	-0.04588531
26	0xbd2dfc40	-0.042476892
27	0xbd92bf4f	-0.071653955
28	0x3e002bcf	0.12516712
29	0x3cf43a1b	0.029812863
30	0x3d29f861	0.04149664
31	0xbdd99719	-0.10624523
32	0xbdfcb9d6	-0.12340133
33	0xbde5d9ee	-0.112232074
34	0x3be81411	0.00708247
35	0xbd4b4bdc	-0.049632892
36	0xbcd612f6	-0.026132088
37	0x3d9eed32	0.07760085
38	0xbdde76d6	-0.1086251
39	0xbb457fee	-0.0030136066
40	0x3c90afe9	0.017662005
41	0x3de4c951	0.111712106
42	0xbc5677f6	-0.013090124
43	0xbd8693df	-0.06571173
44	0xbc8131c5	-0.015770802
45	0xbda9cd1f	-0.08291077
46	0xbe0f055b	-0.13966887
47	0xbd1f6691	-0.038916174
48	0xbd9c6d7c	-0.0763807
49	0xbdad829c	-0.084721774
50	0xbccb10a9	-0.024788218
51	0x3c5b5f13	0.013389367
52	0x3dd5f6a6	0.10447435
53	0xbd2a8efc	-0.041640267
54	0x3d934706	0.07191281
55	0x3dfb114f	0.12259161
56	0xbdd36e50	-0.10323775
57	0x3df21e73	0.11822214
58	0xbd7e107c	-0.06202744
59	0x3c875b91	0.016523154
60	0x3db04a1b	0.086078845
61	0xbdc46289	-0.095891066
62	0xbd6029e5	-0.054727454
63	0x3d641ab7	0.05568954
64	0x3d69cd09	0.057080302
65	0x3d5a875a	0.053351738
66	0x3ddf29e5	0.108966626
67	0x3dee6389	0.116400786
68	0xbdbe21e8	-0.09283811
69	0x3ba2c08f	0.0049668024
70	0xbceb6a35	-0.028737167
71	0xbc69008f	-0.014221325
72	0x3cb87bd0	0.022519976
73	0x3dca39dc	0.09874317
74	0xbc3da676	-0.011575332
75	0x3dfcca6d	0.12343297
76	0xbd6c7694	-0.057730272
77	0xbc51fbcf	-0.0128163835
78	0xbc7510e9	-0.014957645
79	0xbd75cf5e	-0.060012214
80	0xbd6f10f4	-0.058365777
81	0xbddca404	-0.10773471
82	0x3d7e1d27	0.06203952
83	0xbd2b9dca	-0.041898526
84	0xbd842e10	-0.06454098
85	0xbd243c1c	-0.040096387
86	0x3d35daa0	0.04439795
87	0xbd940af2	-0.0722865
88	0xbce58e56	-0.028021973
89	0xbda2d0f0	-0.07950008
90	0xbc8ca396	-0.017167848
91	0xbcedb963	-0.029019063
92	0xbdef6755	-0.11689631
93	0x3e0278bc	0.12741369
94	0x3df4837b	0.119391404
95	0x3d4cc2ed	0.049990583
96	0x3df300e6	0.11865406
97	0x3de59575	0.11210147
98	0xbd9be39c	-0.076117724
99	0x3d46f1f1	0.048570577
100	0xbcf5bb71	-0.029996606
101	0x3d521ec1	0.05129886
102	0x3dc0b0fa	0.094087556
103	0x3ddb3f19	0.10705394
104	0x3cdb3337	0.02675782
105	0x3dc6c5c6	0.09705691
106	0x3da3d7cb	0.080001436
107	0xbd14844c	-0.03625898
108	0x3d344210	0.044008315
109	0xbdcb365f	-0.0992248
110	0xbd9b3e35	-0.075802244
111	0x3d503e1b	0.05084048
112	0xbdee24cb	-0.116281115
113	0xbdad15fa	-0.08451457
114	0x3dfee077	0.12445157
115	0xbc19c344	-0.009384934
116	0x3c9662de	0.01835769
117	0xbd559131	-0.05214042
118	0x3d72b397	0.0592533
119	0xbc39603c	-0.011314448
120	0xbd9d6c01	-0.07686616
121	0xbd10d6e3	-0.035361182
122	0x3dd9136e	0.10599409
123	0x3d8493ee	0.06473528
124	0xbdce3ff6	-0.10070793
125	0x3c8c0ba4	0.017095394
126	0x3e05ad37	0.13054357
127	0xbdbf20ea	-0.0933245
128	0xbd52ddc7	-0.051481035
129	0x3cc25cc7	0.02372588
130	0x3b31d441	0.002713457
131	0x3deb4780	0.11488247
132	0x3c74cc45	0.01494128
133	0x3dc936f6	0.09824936
134	0xbd571875	-0.05251356
135	0x3da74680	0.08167744
136	0x3de992a4	0.114049226
137	0x3d87d07b	0.06631561
138	0xbd43d990	-0.047814906
139	0x3dccbc63	0.099968694
140	0x3dc11ab6	0.09428923
141	0xbd6dbed0	-0.0580433
142	0xbda11715	-0.07865731
143	0xbdf23f44	-0.11828473
144	0xbd802eea	-0.06258948
145	0xbb29afd7	-0.0025892162
146	0xbd17b2e0	-0.037035823
147	0x3ccaa786	0.024738085
148	0xbc9364fe	-0.017992493
149	0x3d77dc5b	0.06051288
150	0x3dd27502	0.10276224
151	0xbdfb5fb1	-0.12274111
152	0x3dc479ba	0.0959353
153	0x3d9265b9	0.07148308
154	0xbdd05719	-0.101728626
155	0xbdebcacd	-0.115132906
156	0xbc94d424	-0.018167563
157	0x3dc82dfc	0.09774396
158	0x3d2195df	0.03944957
159	0xbd8f2961	-0.06990314
160	0x3cbacd5d	0.022803003
161	0xbd26063b	-0.040533286
162	0x3d789112	0.060685225
163	0x3d92a921	0.07161165
164	0xbcc600d9	-0.024170326
165	0xbd76b7ac	-0.060233757
166	0xbd987d69	-0.07445795
167	0x3d785327	0.060626175
168	0xbc625969	-0.013815262
169	0x3d458ed1	0.048231903
170	0xbcf9b8aa	-0.030483562
171	0xbdac7dbf	-0.08422422
172	0x3d936075	0.07196132
173	0xbbc147b5	-0.0058984407
174	0x3df67c28	0.120354
175	0xbde4f9a4	-0.11180428
176	0x3c6fa286	0.014626151
177	0xbc830333	-0.015992736
178	0xbc068614	-0.008210678
179	0xbc11a212	-0.008888738
180	0xbcb81b99	-0.022474097
181	0x3d3c76d8	0.046011776
182	0xbd2ea3c3	-0.042636644
183	0xbd64d2db	-0.05586515
184	0x3dda737a	0.10666557
185	0x3d7904f2	0.06079573
186	0x3d576168	0.05258313
187	0x3d6147e6	0.05500021
188	0x3d95999a	0.07304688
189	0x3d2e0538	0.042485446
190	0xbbbd93d7	-0.005785446
191	0xbdcbb2b0	-0.09946191

fc.weight f4 [1, 64]
0	0x3ce2eae9	0.027699905
1	0xbd98ac09	-0.07454688
2	0xbce82b7c	-0.028341047
3	0x3d67b2e9	0.056567106
4	0xbcef7387	-0.029229892
5	0xbdf0bff8	-0.11755365
6	0x3da5d12d	0.08096538
7	0x3c960036	0.018310647
8	0x3bb7564a	0.0055950033
9	0xbdc01b38	-0.093801916
10	0x3df22011	0.118225224
11	0xbd043bc5	-0.032283563
12	0x3dd4267b	0.10358902
13	0x3dd29c9e	0.102837786
14	0x3d1b994e	0.037988
15	0x3c16640e	0.009179128
16	0xbced6792	-0.02898005
17	0x3b3a1fc5	0.0028400284
18	0xbbae30dd	-0.0053158836
19	0x3d080a5b	0.033213
20	0xbb0a392c	-0.0021091206
21	0x3ddaae1e	0.106777415
22	0xbdb0f127	-0.08639746
23	0x3d23e967	0.04001751
24	0x3dacb73c	0.08433387
25	0x3da72d7d	0.08162973
26	0xbab092e4	-0.0013471511
27	0xbd73159e	-0.059346788
28	0xbd9ba16f	-0.075991504
29	0xbdea78b2	-0.11448802
30	0xbcf231bc	-0.02956473
31	0x3d0c1c7e	0.03420686
32	0x3c0c45f0	0.008561596
33	0x3b6ef8d5	0.0036464233
34	0x3dbe5c2f	0.092949264
35	0x3dcf2cd6	0.10115974
36	0xbd220ef6	-0.03956505
37	0xbd3115ea	-0.04323379
38	0x3dd0ce6e	0.10195623
39	0xbdbb1d5e	-0.09136461
40	0x3c53c35f	0.012924998
41	0x3bb0e70a	0.0053986358
42	0x3cbafebf	0.02282655
43	0x3be9e107	0.007137421
44	0x3d45909e	0.04823362
45	0xbd9602c2	-0.07324745
46	0x3dccfbfd	0.100090005
47	0x3dbedd31	0.09319533
48	0x3dddb506	0.10825543
49	0xbd47e82d	-0.048805404
50	0xbbeb1221	-0.007173792
51	0x3cb3d5c4	0.021952517
52	0x3d6ea5cb	0.05826358
53	0x3d096da3	0.033551823
54	0xbbcdc488	-0.006279532
55	0xbdb92ec5	-0.09042124
56	0x3c79d310	0.015248075
57	0x3d64966d	0.05580752
58	0xbdd1b38e	-0.102393255
59	0x3de17178	0.110079706
60	0xbdd92a76	-0.10603802
61	0x3dc0c013	0.09411635
62	0x3dd32f72	0.10311784
63	0xbd882816	-0.06648271
