reports/day3/LSTM.pt (torch, 205397 bytes, 9 tensors)

lstm.weight_ih_l0 f4 [256, 1]
000000 b5 e9 10 3d 9d 55 73 3d f0 c5 40 bd c8 3b e3 bc
       0.03537913 0.05940782 -0.047063768 -0.027738467
000010 24 7b ad bd 24 3c b7 3d 62 59 97 bd 5d c1 3e bd
       -0.08470753 0.08947018 -0.07390095 -0.046571124
000020 7c 1c 21 3d 0f 0a f6 bc bf b6 9e bd 2c ed fe bd
       0.039333805 -0.030034093 -0.077497 -0.12447581
000030 36 73 a9 3d 3c 41 cc bd 19 09 c5 bd 5e d8 e6 bd
       0.08273928 -0.0997338 -0.09620876 -0.112717375
000040 35 b4 04 3e 0a de a0 bd 4c 78 c8 bc 4b 82 40 bd
       0.12959369 -0.078548506 -0.024471425 -0.046999257
000050 66 1d 4d bd 85 4a b2 3d be 43 b3 3d 53 49 b3 bc
       -0.050076865 0.0870562 0.08753155 -0.02188555
000060 e6 0b f9 bc b6 16 3d 3d 91 84 cf bc 83 01 da bd
       -0.030401181 0.046164237 -0.025331767 -0.106448196
000070 09 f2 d5 3d 43 ab ec 3d d2 19 f3 bd 49 1e 26 bd
       0.10446555 0.11556103 -0.11870159 -0.040556226
000080 6f a1 d8 3c 13 46 83 bd 22 15 ed 3d d8 9e db bd
       0.026444165 -0.0640985 0.115762964 -0.107236564
000090 7a 02 08 be b4 d1 79 3d 50 ea ab 3c 86 08 25 3d
       -0.13282195 0.060991004 0.020985752 0.04029133
0000a0 b8 f0 37 bd f5 f8 30 bd 48 26 cf 3d 32 c7 ab bd
       -0.0449073 -0.043206174 0.101147234 -0.08387603
0000b0 b0 f5 1b bc 7a 2c ee bc 8f 2f e6 bd eb 89 4a bd
       -0.009519026 -0.029073942 -0.1123954 -0.049447935
0000c0 ca 0c 8b 3d 6a 59 30 bd b4 b8 a0 bd a5 6a 90 3c
       0.06789549 -0.043054022 -0.07847729 0.017628977
0000d0 40 b2 c5 bd b3 5f 5e 3d 60 31 41 bc a9 4f ad 3d
       -0.09653139 0.054290485 -0.011791557 0.084624596
0000e0 34 07 aa 3c 14 e1 f4 3d 99 c7 e5 bd 1a 9a d8 bc
       0.020755388 0.11956993 -0.11219711 -0.026440669
0000f0 d6 29 b2 bd 42 85 ad 3d 02 ab 30 3d 67 53 e5 3d
       -0.08699386 0.084726825 0.043131836 0.11197548
000100 fa 08 6f bc 9b 3f ec bd a2 3f c1 3d 40 2a c4 3c
       -0.0145895425 -0.11535569 0.09435965 0.023945928
000110 f7 16 5e 3c cd 6c 0b bd a3 53 c6 3d 69 f2 c0 3d
       0.01355528 -0.034039307 0.09683921 0.09421236
000120 3d a8 b7 bd 01 da 88 3d dd fc 92 3c 30 27 60 bc
       -0.08967636 0.06682206 0.01794284 -0.013681218
000130 9b 70 9a 3d 34 5c b8 bd ee d3 80 bd 7a dd 3e 3d
       0.07541009 -0.09001961 -0.062904224 0.046597935
000140 0a e3 f5 bd 79 0d 09 3d 7b dd cf bd c5 7e 92 bd
       -0.12006195 0.033460114 -0.10149666 -0.071530856
000150 4d 75 c0 bd ac 0d b9 bd 55 fe c2 bd 45 f7 d0 3d
       -0.09397373 -0.09035811 -0.09521166 0.10203413
000160 24 40 66 bd e2 18 df bd 06 f1 0d 3e f1 ed 21 bd
       -0.056213513 -0.10893418 0.13861474 -0.03953356
000170 76 6a 98 bd 4c 07 7b bd 70 8e ab 3d 90 c4 bd 3d
       -0.07442181 -0.061286256 0.08376777 0.09266007
000180 f8 4d d9 bc ca 43 29 3d 74 35 2c bc 5c 19 41 bc
       -0.026526436 0.041324414 -0.010510791 -0.011785831
000190 d5 30 7a 3d 72 9f b6 3d e1 09 0a 3e b9 db 2b bb
       0.061081726 0.089171305 0.13480331 -0.0026223494
0001a0 95 c7 c8 bd 34 1f c6 3c a3 55 f4 bd b7 be 3d bd
       -0.09803692 0.0241848 -0.119303964 -0.046324458
0001b0 40 02 85 bd 68 d7 05 3e b1 86 19 3e 27 55 ef bd
       -0.0649457 0.13070452 0.14992787 -0.116861634
0001c0 c2 c5 25 bc b6 dc 7c 3c a6 c8 9b bd 18 56 94 bd
       -0.01011795 0.015433481 -0.0760663 -0.072429836
0001d0 47 4e e9 bd b0 d7 f5 3d 95 dc 5e 3b b4 3f b2 3d
       -0.11391883 0.1200403 0.003400599 0.08703557
0001e0 0b f2 ba bd 17 1d 48 3d b9 7a b4 3d b0 b3 8e 3d
       -0.09128197 0.048855867 0.0881247 0.069678664
0001f0 84 eb 84 3d e5 35 2c 3c 60 e8 96 3c 9f ea 0a be
       0.064902335 0.010510896 0.018421352 -0.13566063
000200 9f 8b a9 3d b1 ff e3 bd 06 85 9b bd 63 8c 8e b8
       0.08278584 -0.11132754 -0.075937316 -6.797237e-05
000210 1f 62 52 3a c5 a6 8a 3d 2f 91 bf bd ee cb 0c 3d
       0.00080254854 0.0677009 -0.093538634 0.03437417
000220 ce f6 d5 3d b6 b4 6a 3c 91 43 5b bd 90 f9 db bd
       0.10447465 0.014325311 -0.053531233 -0.1074096
000230 46 91 a4 bd bf 11 fb 3c 21 95 3c 3d 95 fe 0a 3d
       -0.08035521 0.03064811 0.046040658 0.033934195
000240 29 5b 00 be ca a5 59 bc 81 1a 31 bd a9 a2 17 3d
       -0.12534775 -0.013284156 -0.043238167 0.03702036
000250 a5 29 d9 bd ef 95 6c bc c4 82 ef bc 33 9e 1a 3c
       -0.10603646 -0.014440044 -0.029237159 0.009437132
000260 3c 70 a3 3d 04 95 e5 3c b5 3b bb bd 9c 63 26 3c
       0.079803914 0.028025158 -0.091422476 0.010155585
000270 2f 8a df bc fd 85 c0 3d 51 af b0 bd 04 c8 e8 3c
       -0.02728757 0.09400556 -0.08627189 0.028415687
000280 c5 40 38 bd d0 b9 5a 3d e9 3f 10 bd e4 78 34 3d
       -0.044983644 0.05339986 -0.0352172 0.044060603
000290 4f 62 27 3c 06 2b bc 3d 0a 16 89 bd 85 ea c4 3d
       0.01021631 0.091878936 -0.06693657 0.096150436
0002a0 e9 f8 ba bb e2 d8 db 3d 3b e7 a2 bd 68 76 9c bd
       -0.005705942 0.107347265 -0.0795426 -0.07639772
0002b0 86 64 53 3d dc 6d 92 3d 41 6f f4 bd 8a 70 44 3d
       0.05160954 0.0714986 -0.119352825 0.047958888
0002c0 34 1e a9 bc 5c 74 fe 3d 8f 8a ad bd 98 15 72 3d
       -0.020644285 0.124245375 -0.084736936 0.059102625
0002d0 de bf 8c 3d 2e 2d c3 ba 84 b9 90 bd c2 5d 12 bd
       0.06872533 -0.0014890784 -0.07066634 -0.035733946
0002e0 10 b7 1d bd 5b b9 f4 3d 78 c2 41 bd 32 72 c0 bd
       -0.03850466 0.11949416 -0.0473046 -0.09396781
0002f0 2d f1 c2 bd 86 39 16 bd fd ff 2b 3d 48 3f 85 3d
       -0.09518657 -0.036675952 0.041992176 0.065062106
000300 65 8d da bd 42 47 58 bd d2 4f 7d bc e8 9c ab 3d
       -0.106715 -0.05280233 -0.015460925 0.08379537
000310 26 db 52 3d 81 05 94 3d 49 63 e3 3d 85 60 c4 3d
       0.051478527 0.07227612 0.111029215 0.09588722
000320 a9 9e f8 3b 86 1a dc 3d 26 a2 3e 3d f8 f5 ca 3c
       0.007587273 0.107472464 0.046541356 0.02477549
000330 86 07 eb 3c cd 79 91 3c a9 c1 8d bd f8 4e 82 3d
       0.02869011 0.017758274 -0.06921703 0.06362718
000340 f4 3a 96 bd bc 10 53 3d 16 d9 06 3e 43 1d fc bd
       -0.07335463 0.05152963 0.13168749 -0.12310269
000350 89 e5 ca bd 62 74 34 3d 33 70 f9 3c c8 80 c5 bd
       -0.099070616 0.044056304 0.030449009 -0.09643704
000360 7f 44 51 bc f0 96 1f bd d7 14 da 3d 7f 85 d2 bc
       -0.012772678 -0.038962305 0.10648506 -0.025698422
000370 ad 78 af bb ed 8e ca bd 53 c5 c1 bd 30 5c 7f 3d
       -0.005354962 -0.09890542 -0.09461465 0.062343776
000380 1f 00 d1 3d 14 c0 54 bd 04 d4 e9 bc 0c 63 7c 3d
       0.10205101 -0.051940992 -0.02854348 0.061617896
000390 df ee 02 be b4 4f c4 3c eb d6 ab bb c2 b6 35 3d
       -0.12786435 0.023963787 -0.005244126 0.044363745
0003a0 88 a3 4e bd f5 dc 0e bd d9 9d 4d bd b9 1d 89 bd
       -0.050448924 -0.03487869 -0.050199363 -0.06695122
0003b0 52 69 df 3d ea 2d 4c bd e4 8a 94 bc 5d 55 aa 3c
       0.1090876 -0.049848475 -0.018132634 0.020792658
0003c0 8b ad 61 3b c7 65 8f bd d9 73 21 3e 1a 13 ca 3d
       0.0034435715 -0.07001834 0.15766849 0.098669246
0003d0 12 5f 8c bd fd 77 89 bc a7 77 8e bc 8f 01 91 bc
       -0.06854071 -0.016780848 -0.017391039 -0.017700939
0003e0 25 8f 8f 3d 8f f8 c7 3d dd 0e be bd b5 2c b5 3d
       0.070097245 0.09764206 -0.09280179 0.08846418
0003f0 ea a3 1f 3c f0 6c 92 bd 1b ca 77 3d 27 d7 fc bd
       0.00974367 -0.071496844 0.060495477 -0.123457246

lstm.weight_hh_l0 f4 [256, 64]
000000 2b d9 32 bc 50 0a 86 bc 29 52 7b 3c 55 a9 b4 bd
       -0.010916035 -0.01636234 0.015339413 -0.0882136
000010 08 e2 ae 3c bb 6e cb bd 17 d4 ff 3c 15 51 61 3d
       0.021348014 -0.099332295 0.031229062 0.055008966
000020 fb 39 8f 3d 51 73 84 3d da 19 b7 bd e0 fc 16 ba
       0.06993481 0.06467307 -0.08940478 -0.0005759727
000030 f9 25 76 bd eb 84 a6 bd 16 65 c9 bd 33 70 4f 3b
       -0.060094807 -0.08130821 -0.09833734 0.003165257
000040 b4 32 82 3d 9a 41 64 bc ce ef 83 bd 06 7e e8 bd
       0.06357327 -0.013931656 -0.064422235 -0.11352162
000050 0a ca 83 bd d7 8c 7f 3d fb 31 8f 3d a2 7a 98 bd
       -0.0643502 0.062390175 0.06991955 -0.07445265
000060 0b b3 60 3d bc a3 be 3d 50 02 b0 3d 55 52 15 3d
       0.05485825 0.093085736 0.08594191 0.03645547
000070 53 15 94 bd fb 2c a8 3d 08 c0 b4 3d 4e 5e ea bd
       -0.0723063 0.08211704 0.088256896 -0.114437684
000080 3f 5c d7 3d 59 ea dd bd a0 76 06 3d 7f 2e 8f bd
       0.105156414 -0.10835714 0.032827973 -0.0699129
000090 cd 41 5f 3d 76 6e dc bd bd 45 20 bd e5 72 bb bd
       0.054506112 -0.10763256 -0.039129008 -0.09152774
0000a0 0a 37 69 3d 6d 4e fd 3d fc e3 35 3c a5 54 bf bd
       0.056937255 0.12368474 0.011101719 -0.093423165
0000b0 22 81 9b 3d b0 d3 a6 bd 31 63 cd 3d 21 02 8f bd
       0.075929895 -0.08145845 0.10028685 -0.06982828
0000c0 0c f2 f0 3d df d7 d7 bd fa 39 c0 3c 1e 62 06 be
       0.11764917 -0.10539221 0.023465145 -0.13123366
0000d0 b9 04 3d bc 58 dd 0f 3d fa 3d e0 bc fa 68 b8 3c
       -0.0115367705 0.0351232 -0.027373303 0.022510994
0000e0 1f 3a 94 bd da c5 cc 3b 4a a9 19 bd a5 bd 1f bd
       -0.07237648 0.0062491717 -0.037514962 -0.03899922
0000f0 7e b6 b1 bc 6f fe f7 3d 2f d0 f9 bd 71 e6 bc 3d
       -0.021693464 0.12109076 -0.12197911 0.09223641
000100 75 c3 90 3d bb 85 ba bd ba f8 0a 3d 21 85 d7 3d
       0.070685305 -0.09107538 0.03392861 0.10523439
000110 70 8f 04 bd f6 78 5c bd e0 1c 21 3d 7d 3d f7 3c
       -0.032363355 -0.053826295 0.039334178 0.030180687
000120 c7 f1 a7 3d 93 3e 9d bd aa ef 03 bd 38 3d 17 3e
       0.08200412 -0.07677951 -0.032210983 0.14769447
000130 57 f5 24 bd 5a 5a 00 bd e5 bf c3 bc 69 95 ba bd
       -0.040273037 -0.031336166 -0.023895213 -0.09110529
000140 81 33 c3 3d 20 3e 13 3d ba 3d ff bd f8 a9 be 3d
       0.09531308 0.03594792 -0.12462945 0.09309763
000150 d5 1d c7 3d e6 da 03 bc 74 00 b1 bd b2 97 89 bd
       0.09722487 -0.008047795 -0.086426646 -0.06718387
000160 ad ef 81 3d 28 ee fd bd 44 ab 59 bd de 11 b2 bc
       0.06344543 -0.1239894 -0.053141847 -0.021737035
000170 40 c2 1d bc da cf fd bd e2 ad 10 3d da 27 11 3d
       -0.009628832 -0.1239316 0.035322078 0.035438396
000180 dd e4 84 bc 97 79 90 3d 1b 1a 3c 3c ec 02 f5 bd
       -0.016222412 0.070544414 0.011480833 -0.11963448
000190 8f 58 8a 3d d1 d2 7c 3d d7 04 c2 bd f3 40 a0 3c
       0.067551725 0.061724488 -0.094735794 0.01956222
0001a0 e4 39 a7 bd 9f e3 c1 3d 0d 79 14 3d da 94 35 bb
       -0.08165339 0.094672434 0.036248256 -0.002770713
0001b0 f4 49 08 be aa 3b da bd ae c0 72 bc e3 e9 a3 bd
       -0.13309461 -0.10655911 -0.014816446 -0.08003595
0001c0 09 6c 91 bc 43 66 8f 3d a6 3c 90 3d 19 41 33 bd
       -0.01775171 0.07001927 0.07042818 -0.043763254
0001d0 ee e5 b4 3b 3d 2c ca bc 73 d4 19 3d 7f 28 48 bd
       0.005520574 -0.024679298 0.037556123 -0.048866745
0001e0 a1 8f f5 bc e5 6f e6 3d 39 87 96 3d 4c 45 12 bc
       -0.029975714 0.11251811 0.073500104 -0.0089276545
0001f0 17 b1 95 3d a4 96 85 bc cb 9d c0 bd a1 70 d6 3d
       0.07309168 -0.016307183 -0.094050966 0.10470701
000200 92 20 b7 3d a6 e2 4f 3d 0b 68 9f 3d b7 ea 40 3d
       0.08941759 0.05075326 0.077835165 0.04709884
000210 00 da ed 3d 44 f5 ff bc 81 5d e3 bd 5d c1 eb bd
       0.11613846 -0.031244881 -0.11101819 -0.115114905
000220 7c 23 81 3d 3f 2a a7 bd 01 1c ab bd 4a aa 23 bc
       0.06305596 -0.08162355 -0.08354951 -0.009989331
000230 67 a3 63 3d f0 00 59 3d 4e b4 a4 bd 71 88 41 3d
       0.055575754 0.05297941 -0.08042203 0.04724926
000240 23 5b 9c bd fc 09 5d bd a0 5e 1b bd 9d 0a 04 be
       -0.076345704 -0.0539646 -0.03793204 -0.12894674
000250 99 71 07 bd 37 2d ed bd ff 6c 11 bd ff aa a6 bd
       -0.03306732 -0.1158089 -0.035504337 -0.08138084
000260 97 5e b0 bd 1e e3 ef 3c 64 e5 91 3d ae 3f b9 3d
       -0.086117916 0.029283103 0.07123831 0.09045349
000270 91 34 e4 bd d4 c2 9e 3d 34 b8 db bc 9f f7 1c 3b
       -0.11142839 0.07752004 -0.026821233 0.0023951305
000280 3c eb 85 bd fc 19 eb bd e7 e2 e2 bd 6c d2 b2 bd
       -0.06539008 -0.114795655 -0.110784344 -0.08731541
000290 5d 80 11 3c 9b ed cd bd c9 4d 7a bd 4f 95 93 3c
       0.008880702 -0.10055085 -0.061109338 0.018015532
0002a0 3a 00 b4 3d 7f ac 46 bd ee 54 88 3d da 83 ec bd
       0.08789106 -0.04850435 0.06656824 -0.11548586
0002b0 57 e7 58 3d c8 5c d5 3d ae 44 8b bd 21 78 5a bd
       0.052954998 0.10418087 -0.06800209 -0.05333722
0002c0 78 b7 97 3c c6 be e5 3d d1 b6 97 bc 11 61 cb bd
       0.018520102 0.11218028 -0.01851979 -0.09930623
0002d0 90 26 b7 3d 6c 6a 01 3d ff e8 be bd 8b 6c 6c 3d
       0.08942902 0.031595632 -0.09321784 0.057720702
0002e0 24 2f 30 3d 31 ce b1 3c 02 28 68 bd aa 89 db bc
       0.043013707 0.021704765 -0.05667878 -0.026799042
0002f0 3c 84 3f bc 66 17 8c 3d 1d ce 59 bd 9b d4 0b bd
       -0.011689242 0.068404004 -0.05317508 -0.034138303
000300 8e a6 64 bc 62 c9 04 bb 01 80 ac bd 00 a2 0f bd
       -0.013955725 -0.0020261635 -0.08422852 -0.035066605
000310 2f bb 4f 3d 35 23 eb bd 6c e2 a9 bd 5e 16 38 bd
       0.05071562 -0.114813246 -0.0829514 -0.044943206
000320 3d 2b 92 3d bf 60 96 3d 6b 9a ea 3d 55 fb ee 3d
       0.07137153 0.073426716 0.11455234 0.116690315
000330 87 67 49 bd f0 48 6d 3d aa 55 b4 3c e4 98 ee 3d
       -0.049170997 0.057930887 0.022013504 0.11650255
000340 59 47 9d bc c8 bf b1 bd d0 aa da 3c 21 7d 0b 3d
       -0.01919906 -0.086791575 0.026692778 0.03405488
000350 68 da b8 bd 2a 68 0f bd af f7 af 3c bb c0 d2 3c
       -0.09026033 -0.035011448 0.02148041 0.025726667
000360 a1 ce 69 bd f7 11 ae 3c 88 e2 54 3d 0d 3a 18 3c
       -0.057081822 0.0212488 0.05197385 0.009291184
000370 fd 81 6b 3d 1b 66 a1 bd dc 7d e2 bd 36 3d 01 3c
       0.057497013 -0.07880803 -0.11059162 0.007888129
000380 a1 ec 10 bd 06 ee 8c bc e5 7b a4 bd cd 21 4f 3d
       -0.035381917 -0.017203342 -0.080314435 0.050569344
000390 f0 da f7 bd 6c 55 e1 bd 9d 69 68 3d 72 e5 c3 bc
       -0.12102306 -0.11002621 0.056741346 -0.023913119
0003a0 7b 5d f6 bd 36 fd 86 3d 01 2d e2 bd a0 5a 94 3d
       -0.12029549 0.06591265 -0.1104374 0.07243848
0003b0 00 1d a9 bc 3e d1 ff 3d 2e b7 ca 3c 91 eb 51 bd
       -0.020643711 0.12491082 0.02474555 -0.051250044
0003c0 ac 73 d9 3d d1 64 8a 3d 8c 43 b8 3d d6 da bf 3d
       0.10617766 0.067575105 0.089972585 0.093679115
0003d0 f6 f0 79 3d 3e fe 27 3d 46 ad 61 bd 1f 05 ab 3d
       0.061020814 0.04101395 -0.055096887 0.08350586
0003e0 29 d8 93 3c d4 49 85 bb 24 dc e5 bd 21 23 f3 3d
       0.01804741 -0.004067639 -0.11223629 0.11871935
0003f0 f1 50 8c bc 49 d2 c4 bd 04 63 8f bd 90 08 97 bb
       -0.01712844 -0.09610421 -0.070013076 -0.004609175

lstm.bias_ih_l0 f4 [256]
000000 1f 5b b0 3d 1a 74 02 bd bb 54 ba 3d 1f c9 d2 3d
       0.0861113 -0.031849004 0.09098192 0.10292267
000010 fb ee 8c 3d 14 41 83 bc 00 36 e3 bd b0 76 03 bd
       0.068815194 -0.016022243 -0.11094284 -0.03209561
000020 62 a4 f4 ba ae 48 1c 3d de 11 85 3b 42 19 1d 3c
       -0.0018664713 0.03815525 0.004060968 0.009588541
000030 48 7e 80 3d 54 d8 27 bc cf 91 fe bd 0c 0a 84 3d
       0.06274086 -0.010244448 -0.124301545 0.06447229
000040 73 86 dd 3d 72 86 5b bd eb d8 0f bd 67 bd c8 b8
       0.1081666 -0.053595014 -0.03511898 -9.572022e-05
000050 4b b3 c4 bd 61 d7 ce 3d 91 37 79 bd a7 c9 7e 3d
       -0.0960451 0.10099674 -0.060844008 0.06220403
000060 19 d4 80 3d cd 7d ab bd 41 30 ab bd 12 24 81 3d
       0.062904544 -0.08373604 -0.08358813 0.06305708
000070 95 02 aa bd f2 38 c6 bd f1 f2 c7 bc 80 46 36 bd
       -0.08301274 -0.0967883 -0.024407836 -0.044500828
000080 1b 10 a3 bb 24 bd 24 bc e1 dd 2a 3d 3b f2 ab 3d
       -0.004976285 -0.01005486 0.041715506 0.08395811
000090 61 fd 8f bd ff 47 9c 3b e3 34 d4 bb d5 46 37 3d
       -0.0703075 0.004769325 -0.006476031 0.044745285
0000a0 d4 cc c9 bc f2 53 3e bc 53 9d 88 3d 8b 73 1a bd
       -0.024633802 -0.011616694 0.06670632 -0.037707847
0000b0 df a4 ad 3d b6 ff d4 bd 2a ad 81 bd 16 09 35 3d
       0.08478712 -0.104003355 -0.063318565 0.04419812
0000c0 a0 00 99 3c 91 4f c7 3d 50 d2 90 3d 87 fa e5 bd
       0.018677056 0.09731973 0.07071364 -0.11229425
0000d0 4a d2 a7 bd aa 51 04 bd c0 fd e7 3d 3f 59 44 bd
       -0.08194406 -0.032304443 0.11327696 -0.047936674
0000e0 2a 22 b1 3d 88 e9 af bd 38 6a 60 bd 8a ba 63 bd
       0.086490944 -0.085894644 -0.054788798 -0.05559782
0000f0 e7 26 a7 3d 03 5e 59 3d 00 27 93 bd fd 1b 8b bd
       0.08161717 0.053068172 -0.07185173 -0.06792448
000100 d1 bb 82 bd c7 88 7c 3c a8 34 03 3c a9 be 93 bc
       -0.063834794 0.01541347 0.00800816 -0.01803525
000110 03 e2 db bc 1e 18 f6 3b e6 08 70 3d 8f f1 4b 3d
       -0.02684117 0.007510199 0.058602236 0.049790915
000120 66 21 4b 3d a2 97 25 bd 8f f6 56 3c 09 b7 d9 bd
       0.049592398 -0.04042781 0.013120308 -0.10630614
000130 51 a1 a3 bd b2 1f b0 bc c3 99 fb bd 9b 7f dc bd
       -0.07989753 -0.021499489 -0.12285187 -0.10766526
000140 98 30 69 bc 9b 9b 77 3d 8a 94 17 bd 3d 21 d6 bd
       -0.014232777 0.06045113 -0.037006892 -0.104555584
000150 d4 97 39 3d 3a f0 a3 3b 89 52 96 bd 6f 9a 95 3d
       0.04531081 0.0050030025 -0.07339961 0.073048465
000160 b8 37 89 bd 30 44 cc bb 1d 35 e6 3c 23 52 18 bd
       -0.06700081 -0.0062337145 0.028101498 -0.037187707
000170 0e 6d 1a bd 0d dc 02 bd d6 5a 78 3c 6d 61 cf bd
       -0.03770166 -0.031948138 0.015158376 -0.10126004
000180 48 38 81 3d 53 41 b8 bd fb 49 37 3d 15 ed 46 3c
       0.06309563 -0.089968346 0.044748288 0.012141486
000190 6d c9 ac 3c 88 f1 ff bd 39 3c c7 3c ab 45 e1 3d
       0.021092141 -0.1249724 0.024320709 0.10999616
0001a0 5f c7 d4 3d af 00 ad 3c 6b af 57 3d ef 75 95 bc
       0.103895895 0.02111849 0.052657526 -0.018244712
0001b0 32 10 83 3d 8d 1a 27 bd 89 4d 9c bd b4 06 a0 3c
       0.063995734 -0.040796805 -0.07631976 0.019534446
0001c0 71 5b 6f bd 05 ec cc bd 03 f6 62 bd 8d aa 72 3d
       -0.058436815 -0.10005955 -0.055410396 0.05924468
0001d0 04 91 80 3d e0 6e a2 bd 0f f5 ea bd 46 13 2e bd
       0.062776595 -0.07931304 -0.114725225 -0.04249885
0001e0 8a b4 c6 bd af 94 cc 3c 44 64 97 3c 89 d2 ba bd
       -0.09702404 0.024973242 0.018480428 -0.09122188
0001f0 32 95 1d bb a7 4d 06 bd 06 89 4a bd 2b f9 7d 3b
       -0.0024045226 -0.0327889 -0.049447082 0.0038753252
000200 15 83 3e 3d d1 78 39 3c b3 8a 5f 3b 6d 60 07 3d
       0.04651173 0.011320309 0.003410977 0.033050943
000210 72 24 97 bd 4a 04 41 3c 2e 04 f4 bd 0b 33 2f 3c
       -0.07379998 0.011780808 -0.1191486 0.010693322
000220 e8 6c e3 bd 9f 2c b2 3d b8 18 e3 3d 38 c7 a8 bd
       -0.111047566 0.08699917 0.11088699 -0.08241123
000230 b8 e9 85 bd 1e d4 f9 3c aa c4 ab 3c 3a 9f 8b 3d
       -0.06538719 0.030496653 0.0209678 0.068174794
000240 b3 33 c6 3d 4b ca 19 bd ba 7d ce 3d 71 95 f0 bd
       0.096778296 -0.037546437 0.10082574 -0.11747254
000250 b2 48 82 bd de 18 ba bd b1 03 d5 3d de d7 d4 3c
       -0.06361522 -0.09086774 0.10401095 0.02598184
000260 36 32 30 39 12 02 cc bd 98 86 5c 3d eb f1 b4 3d
       0.00016803373 -0.099613324 0.053839296 0.08835205
000270 7d 85 c2 bd a1 18 cf 3c a2 cf 1b 3d cc 13 47 3d
       -0.09498117 0.025280299 0.03803981 0.048602864
000280 00 b1 57 3d 9c ba 5b 3d b0 0d d2 3d 04 8f 89 3d
       0.052659035 0.05364476 0.10256517 0.06716731
000290 e8 6a 4c bd 67 d0 85 3d e8 9c 53 3a 00 16 28 3d
       -0.04990664 0.0653389 0.0008072392 0.041036606
0002a0 52 98 f0 3c 5e 3e 77 bd 91 0e da 3d 75 89 b3 3d
       0.029369507 -0.060362212 0.106473096 0.08766452
0002b0 24 77 91 bd e4 4a 97 bd f3 30 c9 3d d2 88 9a 3d
       -0.071028024 -0.07387331 0.098237894 0.07545628
0002c0 67 12 92 bd 15 5b e2 bd b0 15 88 bd 70 7d fd bd
       -0.07132416 -0.11052529 -0.066447616 -0.12377441
0002d0 2e 82 54 bd 4f 89 84 bd e0 6e c8 bd 01 55 c8 3d
       -0.05188196 -0.06471502 -0.09786773 0.09781838
0002e0 da a0 85 bc 16 76 c2 bc 19 ee 1b bd 15 2a 9a 3d
       -0.016312052 -0.023737948 -0.038068864 0.07527558
0002f0 51 c8 67 bd 78 ec 4e 3d aa 74 c6 bb 42 88 b9 bc
       -0.05658752 0.050518483 -0.006056388 -0.02264798
000300 40 11 cf 3d 8f 53 58 bd 24 4f 3f bd 9e 87 52 bd
       0.10110712 -0.052814063 -0.046706334 -0.051398866
000310 41 41 b0 3c 3e e4 1f bd 75 87 b0 3b d2 94 a0 3c
       0.02151549 -0.039036028 0.0053872415 0.019602213
000320 9c 46 40 bd 0a b7 c0 3d 85 0e 19 3b ec a5 d2 bc
       -0.04694234 0.09409912 0.0023354602 -0.025713883
000330 fa 67 ef bd 3c 40 51 bd 37 1f b6 bd d7 e7 dd bd
       -0.11689754 -0.05108665 -0.088926725 -0.108352356
000340 9c 63 83 3c 55 a5 7d bd 13 5e 1a 3d ec 3e 91 3d
       0.016038708 -0.06192525 0.037687372 0.070920795
000350 f2 a0 26 3d c7 71 db bd 27 a4 a4 3d f2 72 ff bd
       0.040680833 -0.10715061 0.08039122 -0.12473096
000360 5d 09 4f 3d 5e 74 5e 3d 88 e3 f5 3b 35 f6 b2 3d
       0.05054604 0.054310195 0.0075039305 0.087383665
000370 c0 9a fe bc 46 c7 9a bd d0 c1 b5 bd 1e f1 7e 3d
       -0.03107965 -0.0755754 -0.088748574 0.062241666
000380 bd 4d ef 3c c0 6e 27 3c 1f 5f 94 bc e5 48 d3 bd
       0.029211873 0.010219276 -0.018111764 -0.10316638
000390 c8 55 1d 3b 5e ff fa bd fc a0 9d 3d 76 74 c8 bd
       0.0024007428 -0.12255739 0.07696721 -0.09787838
0003a0 c4 d6 e9 bd 95 5e 13 bd 5c 49 a5 bd 94 3b 64 bc
       -0.114179164 -0.035978872 -0.08070633 -0.01393022
0003b0 66 68 82 bd fe 8f 88 bd 9e 12 94 bd c1 f9 34 3d
       -0.06367569 -0.06668089 -0.072301134 0.044183496
0003c0 95 83 b9 3d e8 a3 84 3d d5 2d 7f b8 1c b3 f1 bd
       0.090583004 0.06476575 -6.0839422e-05 -0.118017405
0003d0 91 52 ae 3d 04 29 be 3d ad b2 e2 3d fe 5e 90 3d
       0.08511842 0.09285167 0.11069236 0.07049368
0003e0 04 c8 9c bd 2d 47 e1 bd 1f ac 58 3d 23 d7 1a 3d
       -0.076553375 -0.10999904 0.052898522 0.037802827
0003f0 f9 35 a7 bd 70 57 da bd 51 3b d8 bd 81 6d a8 bd
       -0.08164591 -0.10661209 -0.10558189 -0.08224011

lstm.bias_hh_l0 f4 [256]
000000 d4 d5 53 3d f2 bc f8 bc e5 d8 1a bd 58 84 07 bd
       0.051717594 -0.030363534 -0.037804503 -0.033085197
000010 a8 00 c8 3d 6f 6a aa bd 67 19 0f 3c 75 ae 67 bd
       0.0976575 -0.08321082 0.008734084 -0.05656286
000020 29 40 d5 bc b9 b4 03 be 4c ae c7 bd e1 3e 94 bd
       -0.02603157 -0.12861909 -0.09750041 -0.07238556
000030 fc 72 5b 3c 9e b1 d7 3d e8 ac e8 3b ce ee e9 bd
       0.013394114 0.10531925 0.00710069 -0.114225015
000040 b1 43 ea bd 40 f7 6c 3d f7 00 36 bd 71 93 c6 3d
       -0.11438692 0.057852983 -0.044434514 0.09696091
000050 2b bd d3 3d e3 29 d5 bd a7 b4 97 3d b2 ce e0 3d
       0.10338815 -0.1040838 0.074075036 0.10976924
000060 5c 0f 32 3d 61 51 00 be b2 de 96 bd 4e 9e cd bc
       0.04347168 -0.12531044 -0.073666945 -0.0250999
000070 2e 93 6b 3b 8d a8 35 3d f2 c7 69 bd 75 a9 1d bd
       0.003594588 0.044350196 -0.05707545 -0.038491685
000080 e3 fa 52 3d ff 78 ba bd 7f d7 49 bd c5 98 b5 3d
       0.051508795 -0.091051094 -0.04927778 0.08867029
000090 55 e9 96 3d d7 6e ad 3c 65 e7 76 bd 67 bd fe bd
       0.07368723 0.021171017 -0.06027927 -0.124384694
0000a0 a8 31 6c 3d 3a 8e df 3d 2c 60 06 3d 80 89 9b bd
       0.057664543 0.109157994 0.03280656 -0.075945854
0000b0 5c e1 e2 3b 49 5a ac bd 42 62 a2 bd b5 13 a0 3c
       0.0069238376 -0.08415658 -0.079288974 0.019540647
0000c0 56 d0 d9 3d 46 55 3f bc 45 3c 94 3c 43 04 86 bc
       0.1063544 -0.011678046 0.018095145 -0.016359454
0000d0 e7 f4 09 be a2 5f 7d 3c 86 49 23 bd 55 67 1b 3d
       -0.13472329 0.015464695 -0.03986504 0.037940342
0000e0 a8 ce e9 3d 76 a0 b9 bd 07 c6 8c bd 41 be fd 3c
       0.1141637 -0.090638086 -0.06873708 0.03097451
0000f0 fc f8 74 3d 9a b2 c3 3d 47 f8 b3 bd 64 73 5e bd
       0.059807763 0.0955555 -0.087875895 -0.054309264
000100 a8 22 e8 bd f8 30 d8 bd 6c 93 84 bd a9 a9 3e 3d
       -0.11334735 -0.10556215 -0.06473431 0.04654852
000110 d7 a8 94 bd 06 91 e3 bd 1c b7 74 3a a0 26 8d 3d
       -0.07258766 -0.111116454 0.0009335147 0.06892133
000120 11 9a bd 3d 51 99 a4 3d 7b 82 ea 3c d1 0b b0 bd
       0.092579015 0.08037055 0.028626671 -0.08596004
000130 65 ef c4 3d 1b f1 70 bd 13 13 db bd c9 06 3c bd
       0.096159734 -0.058823686 -0.106969975 -0.04590491
000140 5d e4 df 3c 8d e8 df bd df 0a 77 3d 29 a1 c0 3b
       0.027330572 -0.109330274 0.0603131 0.005878587
000150 c6 d8 aa bb de 4f 55 bd b9 7d c7 3d e5 6c 33 3d
       -0.0052138297 -0.05207812 0.097407766 0.04380502
000160 9f 98 9c 3b 62 56 37 bd c5 3d e6 bd f0 6d 4c 3d
       0.004778936 -0.044760115 -0.1124225 0.049909532
000170 21 51 29 3d 38 06 da 3d 2b 9d 18 3d b7 2e 90 bd
       0.041337136 0.106457174 0.037259262 -0.0704016
000180 62 ca c7 3d 4f 94 be bd 49 9c ba bd 41 2e 8a bd
       0.09755398 -0.09305631 -0.0911184 -0.067471035
000190 3c a9 ba 3d 54 9e 36 3d 56 54 42 bd 23 51 b1 bd
       0.0911431 0.044584587 -0.04744371 -0.08658054
0001a0 b5 a8 34 3d 96 df b9 bd 98 d7 de bd c3 88 60 bd
       0.044106204 -0.09075849 -0.10880965 -0.054817926
0001b0 a4 9a ca bb 81 ce 75 bd 7b a1 ee bd ed 82 99 bc
       -0.0061829854 -0.06001139 -0.11651894 -0.018739188
0001c0 41 0c ea bd 43 e3 8c 3d 79 eb 68 3d 80 0b d9 3d
       -0.114281185 0.06879284 0.05686519 0.105978966
0001d0 e4 ee c8 3d 09 c6 cf bd c2 7b 50 3d 7a 89 82 bd
       0.0981119 -0.10145194 0.050899275 -0.06373878
0001e0 3a 83 e9 3d c7 d5 33 bd 1b d0 0f 3d 61 1d 4a 3d
       0.114019826 -0.043905046 0.035110574 0.049344424
0001f0 68 93 68 3d 93 ed ed bd 0d a4 d2 bd cb 8b 44 3d
       0.056781203 -0.11617579 -0.102851965 0.04798488
000200 86 78 bf bd b1 44 85 3c 03 6b a2 3d cd 78 19 3d
       -0.0934916 0.016268106 0.07930567 0.03746872
000210 f6 ac bd bd 0e ea bf bb 7f 72 cd 3c 9b f7 e9 3d
       -0.09261505 -0.005856759 0.02507901 0.1142418
000220 db e5 7f bd 10 b8 32 bc b2 4d d8 38 4d 72 59 3c
       -0.062475067 -0.010908142 0.000103141545 0.01327188
000230 f8 d2 1e 3d 34 38 e0 bd 84 2d bf bd ef 58 68 bd
       0.038775414 -0.1094822 -0.09334853 -0.05672544
000240 87 48 6d 3a 6b 4a b2 3d 77 64 56 3d b3 cf c4 3d
       0.000905164 0.087056 0.052341904 0.09609928
000250 06 47 d0 bd 16 83 b8 bd 8f 95 b8 3d ff 02 d4 bd
       -0.10169797 -0.09009378 0.09012901 -0.10352134
000260 c5 55 7a 3d a4 3d f1 3d 70 32 27 bd 1c 8f 86 bd
       0.061116952 0.11779335 -0.040819585 -0.06570265
000270 1f 4f 0f ba 6e 7d 12 bd 50 51 e3 bd 20 4c 1a 3c
       -0.0005466807 -0.03576415 -0.110994935 0.009417564
000280 7f 0d 25 3c 09 09 81 bd 02 13 a3 bd 08 c4 8f bd
       0.0100740185 -0.063005514 -0.0796261 -0.07019812
000290 45 d2 51 bc 02 75 97 bc 33 36 5a bd 84 26 33 3d
       -0.01280648 -0.01848841 -0.053274345 0.043737903
0002a0 98 e0 a8 bd 5d 0b 92 bd 58 97 8d bc c5 5b 9f 3d
       -0.08245963 -0.071310736 -0.01728408 0.077811755
0002b0 7d da 78 3d 5c 09 1c bd db 5e f0 bd bb b1 82 bd
       0.06075524 -0.038094863 -0.11736842 -0.06381556
0002c0 1b a1 b1 3d cf 10 92 bc 15 43 56 bd ce c6 bf 3d
       0.086733066 -0.01783028 -0.05231007 0.09364091
0002d0 47 91 22 3d 54 ae b1 bd e3 74 49 bd ec ca 3f 3b
       0.03968933 -0.086758286 -0.049183737 0.0029265238
0002e0 39 0e f1 bd 37 54 1b 3d 9f 3e 81 bd 58 6b f7 bc
       -0.11770291 0.03792211 -0.06310772 -0.030202553
0002f0 e9 d8 c7 3c 7c e1 a1 3d c4 18 52 3d 11 76 97 3d
       0.024395423 0.07904336 0.05129315 0.07395566
000300 df 9d 87 bd 27 bb 95 3d 98 75 3e bd 89 9c e7 3d
       -0.066219084 0.07311087 -0.046498865 0.113091536
000310 f9 fa 3f 3d f6 46 be 3d 87 ee f2 bd cb db 9b 3d
       0.046870206 0.092908785 -0.11861902 0.076102816
000320 ed 3b fb 3d 10 bf cc 3d 1d 91 a4 3d 2b 86 ac 3d
       0.12267289 0.0999738 0.08035491 0.08424028
000330 06 f6 c4 ba 6e e3 72 3d 45 07 cb 3d 25 92 9a 3c
       -0.0015026934 0.059298925 0.09913496 0.018868515
000340 c1 c2 b0 bd 3a 45 55 3c 35 f9 f6 bd 5c 76 ba bc
       -0.08630896 0.013016993 -0.12059251 -0.022761516
000350 79 b1 27 bd ee 1d 04 be b3 47 01 bd 2a 4d a7 3d
       -0.040940735 -0.12902042 -0.03156252 0.08169015
000360 8a 62 c6 3c ad 91 91 bd 44 b4 c2 3d 1b d6 59 3c
       0.024216909 -0.071078636 0.09507039 0.013295676
000370 a5 35 90 3b 24 a5 a9 bd e2 4a b8 3d 0d 57 7a bd
       0.004400926 -0.08283451 0.08998658 -0.061118174
000380 34 d2 d1 3d af a8 bc bd bb fe 42 bd 42 14 80 3d
       0.10245171 -0.09211861 -0.04760621 0.06253864
000390 69 8f 00 bd da a7 e9 3d 3f 2b 69 3c 3f 9e ff bd
       -0.031386767 0.11408968 0.014231502 -0.12481355
0003a0 06 03 e4 3c 81 a4 eb bd c4 28 97 bd 7d 22 85 3d
       0.027833473 -0.11505986 -0.07380822 0.06500719
0003b0 26 34 1d 3b 57 1c f9 bc 70 e2 86 3d fb 9f 5c bd
       0.0023987382 -0.030409021 0.06586158 -0.053863507
0003c0 87 f9 c0 3c 81 b5 0a be 99 9f 31 3d fc 18 cb bc
       0.023556484 -0.13545801 0.043365095 -0.024792187
0003d0 f1 24 50 3d 79 64 84 bd cd 12 ee bd 9c c3 c2 bd
       0.05081648 -0.06464476 -0.1162468 -0.09509966
0003e0 94 61 b5 3d fd 84 fb bd 54 10 8b 3d 3f 45 fc bd
       0.08856502 -0.12281225 0.06790224 -0.12317895
0003f0 eb 63 8e 3d 53 6f 4a bd 17 53 96 3d 23 28 cb 3c
       0.069526516 -0.049422573 0.07340067 0.024799412

lstm.weight_ih_l1 f4 [256, 64]
000000 a7 d8 72 3d cf 64 2a bd 53 36 72 bd be 99 49 3d
       0.059288647 -0.041600045 -0.05913384 0.049218886
000010 dc aa 15 bd b5 e8 bf bc dd 35 a2 3d 17 0f df bd
       -0.036539897 -0.023426393 0.0792043 -0.1089155
000020 3a 76 eb 3d 54 56 51 bd 8e 87 a0 bd 06 bb 2e 3d
       0.11497159 -0.05110772 -0.07838355 0.04265883
000030 9c 09 15 bd 82 2d d8 3d b1 c2 81 3d 81 d4 a3 3d
       -0.036386117 0.10555555 0.063359626 0.07999516
000040 1e a5 4f b9 87 b6 da bb e0 77 9a bc bc 3b b7 bd
       -0.0001980257 -0.006674591 -0.018855989 -0.0894694
000050 a6 87 08 bd 4e 1d 87 3d 44 6a f3 bc 31 07 f2 3d
       -0.03333249 0.06597386 -0.029713757 0.11817778
000060 cc c0 73 3d d0 39 cc bc 8c 6e 93 3d a4 10 ee 3b
       0.059510037 -0.02492991 0.071988195 0.0072651673
000070 10 0b da bc a9 d7 e9 3d 35 49 52 3c 8d 47 eb 3d
       -0.026616603 0.11418087 0.012834837 0.114882566
000080 43 88 aa 3d ec f4 5b 3d 99 c0 82 bd 7a 86 d2 3d
       0.08326771 0.053700373 -0.06384391 0.102795556
000090 15 aa a8 3c 1e 02 0a be 46 a2 8c 3c 11 7e 57 3d
       0.020588914 -0.1347737 0.017167222 0.05261046
0000a0 6f bd cc 3d 9d 28 df bc f0 c9 04 be c0 c6 52 3d
       0.09997069 -0.027241046 -0.12967658 0.051459074
0000b0 ce d8 3b bd 84 9e 45 ba 51 35 92 bd 95 cd 97 bc
       -0.045861058 -0.0007538574 -0.071390755 -0.018530646
0000c0 4b 88 4b 3d 13 b1 f7 3d e0 2a 22 bd 1d f9 55 bd
       0.049690526 0.12094321 -0.03959167 -0.052239526
0000d0 a0 e0 aa bd 5e 47 89 bd 04 37 a5 3d 88 9f d2 3d
       -0.08343625 -0.06703065 0.08067134 0.102843344
0000e0 25 0c ab bc cc 24 ac bd 16 47 f8 bc 17 e9 98 3d
       -0.020879814 -0.08405456 -0.030307334 0.07466333
0000f0 8a f9 8b 3d 84 bf d7 3c 08 27 45 3d 9c 15 11 3d
       0.06834705 0.026336439 0.048132926 0.035421
000100 4e b5 53 bd 97 4e 38 bd 31 37 9d bd a2 d4 a6 bc
       -0.051686577 -0.044996824 -0.076765426 -0.020365063
000110 40 89 92 bd 4a f3 b7 3c e9 5f ed 3d 9b 46 5b 3d
       -0.071550846 0.022454876 0.11590559 0.05353413
000120 88 11 ad 3d bf 87 ff bd de ae 58 bc 03 c0 b5 bd
       0.084506094 -0.124770634 -0.013225285 -0.08874514
000130 6e 59 b9 3d 13 14 ad bb 72 70 d9 3d e0 83 0e 3c
       0.090502605 -0.005281934 0.1061715 0.008698434
000140 f7 dc 48 3d 2b 48 95 3d f6 9e 40 3d 05 ad c2 bd
       0.049038853 0.072891556 0.047026597 -0.09505657
000150 09 0e ce bd ab 99 55 bd ba 55 f9 bd 58 a3 a6 bc
       -0.10061271 -0.052148502 -0.12174554 -0.02034156
000160 6a a2 a3 ba 93 a6 e7 3c 3d 34 97 3d ac 37 51 3d
       -0.0012484316 0.028277671 0.073830105 0.051078483
000170 64 23 9d 3d 17 0c f2 3d 57 f6 9c 3c 11 68 37 bd
       0.07672766 0.11818712 0.019160433 -0.04477698
000180 fd a4 da 3d f9 40 b8 bd fe 9b d1 3d 61 ef 99 3c
       0.10676 -0.089967676 0.10234831 0.018790903
000190 38 dc ce bd 14 af e0 bb 66 7a 1f 3d 55 9e 97 bd
       -0.10100597 -0.0068568084 0.038935088 -0.07403246
0001a0 25 39 85 3d 01 3e 9d 3d c8 dc 36 bd 0c b4 be 3d
       0.0650504 0.07677842 -0.044644147 0.09311685
0001b0 eb a5 2a 3c e1 4f 98 3c 39 e4 a0 bd 90 08 c7 39
       0.0104155345 0.018592777 -0.0785603 0.00037962617
0001c0 d3 31 73 3d cb 47 01 bc 7d 57 d8 3d 1b d0 b9 bd
       0.059373688 -0.007890652 0.10563562 -0.09072896
0001d0 e0 12 ef bb 85 56 64 bd 2c 38 c3 bd 44 db 9d bd
       -0.0072959512 -0.055746574 -0.09532198 -0.07707837
0001e0 43 49 9a 3d 1d 46 dc 3d 7d d3 66 bc 25 3d 4a 3d
       0.07533505 0.107555605 -0.014088509 0.04937472
0001f0 de c1 48 bd a1 a8 e2 3d 5a 4f bf 3d c3 bb 3d bb
       -0.04901301 0.1106732 0.09341307 -0.0028951026
000200 69 44 a0 bd 44 78 de 3d 53 9f 2b 3d e6 43 98 bd
       -0.07825548 0.108627826 0.04189999 -0.074348256
000210 4b 9f 90 bc 7c 0f ce bd 64 64 df 3d e4 58 a7 3d
       -0.017654082 -0.10061547 0.1090782 0.081712514
000220 a8 42 ea bd 42 fb 57 3d 92 46 e2 3d 8f a4 f6 3d
       -0.11438495 0.052729852 0.110486165 0.12043106
000230 96 86 98 3d 1f 16 f5 3d c1 b9 d7 3d c7 34 89 bd
       0.07447545 0.1196711 0.105334766 -0.066995196
000240 ed d8 38 3d 68 3e ac bd bf 30 35 3c 04 00 ba 3d
       0.04512875 -0.084103405 0.011058985 0.09082034
000250 5f f9 02 3e c9 7a f7 3c f3 b7 4c 3d 16 c7 68 3d
       0.1279044 0.030209916 0.049980115 0.05683049
000260 5f 31 3e 3d b1 97 80 3d b8 a0 a1 3d 35 f2 a1 bd
       0.046433803 0.06278933 0.07891983 -0.079075254
000270 bb 9e 72 3d 2f 7d e5 3d 3d fe 1f 3d c3 30 a5 bc
       0.05923341 0.112055175 0.03906082 -0.020164853
000280 d5 5f e0 3d bd 17 22 bd de 29 ed 3d 4e c7 13 bd
       0.109557785 -0.03957342 0.11580251 -0.036078744
000290 be 23 09 3d e1 6e e0 bd 49 f4 2a 3d 81 71 4e 3c
       0.033481352 -0.109586485 0.041736875 0.012600304
0002a0 cb 10 d8 bd d6 61 00 3e 55 66 02 3d da 48 d8 bd
       -0.10550078 0.12537321 0.031835873 -0.1056077
0002b0 7b 01 6d 3d bd 0a 38 3d 4f 84 02 bd 3e 60 33 bd
       0.05786274 0.044932116 -0.03186446 -0.043792956
0002c0 04 50 c8 bd 04 64 3a bd 48 24 d9 bd 7a b1 f5 3d
       -0.09780887 -0.04550554 -0.10602623 0.119967416
0002d0 50 63 82 bc b0 96 a3 bd f7 80 e0 bd 4e ef 8c bd
       -0.015916497 -0.07987726 -0.10962098 -0.06881581
0002e0 41 9e f4 bc 34 68 8f bd 1e 52 bb 3d 2a 26 ab bd
       -0.029860618 -0.07002297 0.09146522 -0.083568886
0002f0 46 79 bc 3d 3e 26 f5 bd 32 cc db 3d b9 da c7 bd
       0.092028186 -0.11970185 0.107323065 -0.09758515
000300 1e b3 87 bc 3d 80 99 bd b1 1b be bd e7 16 dd bc
       -0.016564902 -0.07495163 -0.092826255 -0.02698846
000310 1f e8 70 bd fb 86 92 bd 0e 95 ec 3d 23 ce db 3d
       -0.058815118 -0.07154652 0.115518674 0.10732677
000320 4b bf b1 3d bb a4 a0 bd e4 d5 82 3d bc c5 24 bd
       0.08679064 -0.0784392 0.06388453 -0.040227637
000330 6a df 6b 3d 5c 67 d3 bc ef fb 78 bd 8b 9e 95 3d
       0.05758611 -0.025806122 -0.060787138 0.0730563
000340 58 f7 a7 3b 12 c4 3e 3d e6 6a ed bd 10 80 f5 bd
       0.005125921 0.046573706 -0.11592655 -0.119873166
000350 b5 31 d6 3d 01 08 9c 3c 28 2e e6 3c 0f d5 9d bd
       0.104586996 0.019046785 0.02809818 -0.07706653
000360 2c af f2 b9 e2 3d cc 3d c4 86 cf bd d1 60 e5 3c
       -0.0004628835 0.09972741 -0.101331264 0.028000267
000370 cc 59 42 3c 9e 3c 34 3d 21 f0 b1 bd ae d5 46 bc
       0.01186223 0.04400312 -0.08688379 -0.012135906
000380 f7 d1 d7 3d 1e f3 36 bd 48 78 22 bc 4e f9 fe bd
       0.105380945 -0.04466545 -0.009916373 -0.12449895
000390 dc f8 f2 3d 91 d3 60 bd a2 8a e2 3d d3 69 0b bb
       0.118638724 -0.054889265 0.11061598 -0.0021272793
0003a0 bc 91 bf 3d f0 6b 25 bd 16 99 e6 3d 42 1e b0 3d
       0.093539685 -0.04038614 0.112596676 0.08599521
0003b0 db 6a bc 3d 62 0f fe 3d c6 75 bd bd f6 c9 8f 3d
       0.092000686 0.12405278 -0.09250979 0.07020943
0003c0 92 98 ba bd 35 8a c7 bd cd 68 99 bd 08 d9 d1 bd
       -0.09111132 -0.09743158 -0.07490692 -0.102464736
0003d0 da 26 d1 3d ff 7a d3 3c df eb 86 3c 4b 6e ce bd
       0.102124885 0.025815485 0.016469894 -0.100796305
0003e0 61 dd 2f bc 6e 49 1e 3d 9d 49 a4 bd 1f f2 3e 3c
       -0.010733933 0.038644247 -0.08021853 0.011654406
0003f0 96 f0 86 bd 15 fa 2f 3d 54 c4 5a 3c 08 61 da bc
       -0.06588857 0.042963106 0.013352472 -0.026657596

lstm.weight_hh_l1 f4 [256, 64]
000000 8b 1b 03 3e 0c 57 32 3d ac d5 c6 3d 95 22 cd 3c
       0.12803476 0.043540046 0.097087234 0.025040904
000010 40 79 8f ba ae ed 94 3d 8a 0b ad bc 1b d0 ac 3d
       -0.001094617 0.07271896 -0.021123666 0.084381305
000020 50 62 f1 bd cb 1a 68 3d 21 b0 01 be 5b b2 d8 bd
       -0.1178633 0.056666177 -0.12664844 -0.105808936
000030 4a 9f 45 bd fe 9f dd 3d 1b e8 b4 3d 6f ee 2b bd
       -0.048247613 0.10821532 0.08833333 -0.041975435
000040 3e 19 0a 3d 3c c8 c0 3d 99 4a 02 3d 37 cf d3 bd
       0.03371548 0.09413192 0.031809423 -0.103422575
000050 03 05 6f bd 9a 68 f2 bd f5 ad ab bd b0 33 fd 3d
       -0.05835439 -0.118363574 -0.08382789 0.12363374
000060 1d 67 f0 3d 7f ec b6 3d 03 88 28 3c 88 7f e9 bd
       0.11738417 0.08931827 0.010286334 -0.11401278
000070 92 33 be 3d 22 6a cc 3d 74 3a 30 3d 07 fb e5 bd
       0.0928718 0.09981181 0.043024495 -0.1122952
000080 20 f6 34 bd 8d d1 d0 3d c6 17 05 3d 5b d1 3c bd
       -0.044180036 0.10196219 0.032493375 -0.046098094
000090 04 64 d2 bd c9 b3 1e bc 47 52 0e bd 81 98 a0 3c
       -0.10272983 -0.009686419 -0.034746435 0.01960397
0000a0 f5 2a c2 bd 2e 65 66 bc 9c 35 aa bd 6f 1a 09 3d
       -0.0948085 -0.014062209 -0.083110064 0.033472475
0000b0 db 86 d7 3d dc be 04 3d bc 59 d9 3d 58 e5 95 3d
       0.105237685 0.03240858 0.106128186 0.073191345
0000c0 cc b5 16 3b 39 59 c4 3c c3 5b e0 3d 59 bc 53 3b
       0.0022996543 0.023968326 0.10955002 0.003230831
0000d0 4f 79 c2 3d 78 ab 99 3c 67 7f a2 3c 59 23 f1 3d
       0.09495794 0.01875852 0.01983614 0.1177432
0000e0 77 56 fc bc 13 77 11 bd dd fd 30 bd 58 2c e3 bc
       -0.030802948 -0.03551395 -0.043210853 -0.027731106
0000f0 07 dc ae 3d eb 6b d9 bd ac 2d a9 bc 41 4e 22 3d
       0.08538061 -0.10616287 -0.02065166 0.03962541
000100 80 03 b8 bd ee ff ca 3d 16 b8 96 3d ec 9a d2 3c
       -0.089850426 0.09912096 0.0735933 0.025708638
000110 1c d0 66 3d 6e 37 05 3e d1 53 79 bc ac b1 dd bd
       0.056350812 0.13009426 -0.015217737 -0.10824904
000120 b4 c5 8b 3d f5 17 83 3d 97 40 d5 bd ea e6 8b bd
       0.06824818 0.06401054 -0.1041271 -0.06831153
000130 cb 7d db 3b 79 a7 00 bc f6 c7 c4 bc e4 26 ee bd
       0.0066983453 -0.007852429 -0.02402113 -0.116285115
000140 67 4b be bd 99 26 91 3c 65 05 ac 3d 57 63 e8 bd
       -0.092917256 0.0177186 0.083994664 -0.113470726
000150 6d d4 96 3d 2e 03 ef bd f4 99 3a bd a6 cd a2 3c
       0.07364736 -0.11670528 -0.045556977 0.019873451
000160 19 b8 e3 bd ac 22 8c bd d4 94 28 3d 5e df 69 3c
       -0.11119098 -0.06842551 0.04115756 0.014274446
000170 30 ca ed bd 97 fd 22 3d 2f f3 12 3d 1d a5 8e 3c
       -0.1161083 0.039792623 0.03587645 0.017412717
000180 3c 53 d0 3c 2f 3a ca bc c9 94 5a 3c 5e 02 4a bd
       0.025430314 -0.024685947 0.013341137 -0.049318664
000190 2f 93 01 be ab f8 cd 3d dc 50 3d 3c d6 6e 3d 3d
       -0.12653802 0.10057195 0.011554923 0.04624828
0001a0 2b d1 04 be 9a 93 e0 3d b9 0c 88 bd 8e 23 58 3d
       -0.12970416 0.10965653 -0.06643052 0.052768283
0001b0 c1 d0 a3 bd c6 b1 56 bc c8 d0 2d 3c 98 6a 92 bd
       -0.07998801 -0.013103908 0.010608859 -0.071492374
0001c0 a5 66 96 3d e0 a7 c3 bd 4f 2b 44 bd 23 b6 83 3c
       0.07343797 -0.09553504 -0.047892865 0.01607806
0001d0 d2 e6 d4 3d ab 7e 3d 3d cc 5e e4 bd f1 aa c8 3d
       0.10395588 0.046263378 -0.111508936 0.097982295
0001e0 5f 23 bc 3b cc 52 97 3c 72 1a 05 3e 72 77 f8 3d
       0.0057415213 0.018472098 0.1299837 0.121321574
0001f0 14 76 93 3d 90 92 f4 bd ba 40 ef bd 5f 75 61 bd
       0.07200256 -0.11942017 -0.116822675 -0.055043574
000200 e6 b8 b7 3c 4b 4d 44 bb 16 42 65 3d b0 52 1c 3d
       0.022427034 -0.0029953297 0.055971228 0.038164794
000210 8b 13 fc bd 24 84 23 3d 10 5e 39 bd 15 85 fa bc
       -0.12308415 0.03992094 -0.04525572 -0.030581037
000220 df 85 0a 3d 43 56 df 3c d7 d9 ee bd c4 e5 04 3d
       0.033819076 0.027262812 -0.116626434 0.032445684
000230 67 0d 5d bd 06 34 d2 3d 25 2b dc bd 14 8b 7f 3d
       -0.05396786 0.10263829 -0.10750417 0.062388495
000240 fa a7 bd bd 70 2d 28 bb f8 17 7a bd 6a 20 da 3d
       -0.092605546 -0.0025661848 -0.061058015 0.10650714
000250 64 e4 eb 3d 3a 25 36 bd fd 52 7c bd 96 22 0d 3d
       0.115181714 -0.044469096 -0.06160258 0.03445681
000260 57 88 b2 3c 48 2f a1 3b cb bb 6d 3c c5 87 89 bb
       0.021793528 0.0049189664 0.014510105 -0.004197093
000270 37 57 6b 3d 5c df af bd aa bb 1e 3b cc fe 91 bc
       0.05745622 -0.08587524 0.0024220743 -0.017821692
000280 35 8c a3 3d c6 26 b9 bc a3 8c 42 3d ea 61 1a bc
       0.07985727 -0.022601496 0.047497403 -0.009422759
000290 35 ed 3a bd 75 ee 00 3d 35 c9 4e bc c3 67 bb 3d
       -0.045636375 0.03147741 -0.012621214 0.0915065
0002a0 21 04 e5 3d ca 54 e1 bd 52 af ab bd d7 6c 5a 3d
       0.11182428 -0.110025 -0.08383049 0.053326454
0002b0 00 87 be 3d cc 29 a4 3d 20 41 34 bd 90 17 bf 3d
       0.09303093 0.080157846 -0.04400742 0.09330666
0002c0 73 12 e0 3d d2 0f a4 3c 6d 7a 26 bd 58 6a 56 3d
       0.10941019 0.020027075 -0.040644098 0.05234751
0002d0 88 f7 37 3c 31 79 a1 bc 7c 26 92 3d 21 79 33 bd
       0.01122845 -0.019711109 0.071362466 -0.04381669
0002e0 ca 01 00 be c1 54 da bd b5 43 8f 3d 4b f4 d5 bd
       -0.12500682 -0.10660697 0.06995336 -0.10446986
0002f0 fb f0 7e bd 70 c2 c1 bd 77 e3 cf 3d b1 55 2a bd
       -0.062241536 -0.09460914 0.10150807 -0.041585628
000300 7d 6c 88 bc f2 8d 14 bd 71 fa 29 3d 77 47 e4 3c
       -0.016653294 -0.036268182 0.041498605 0.027866108
000310 71 ae 66 bd 76 03 84 bd 4b 3b e9 3d 17 cd 62 3c
       -0.056318704 -0.064459726 0.11388262 0.013842843
000320 26 77 ba 3d fb 40 c3 3d 79 75 79 bd e8 fb bc 3b
       0.09104757 0.095338784 -0.060903046 0.0057673343
000330 ae 51 8c 3d 10 c9 8d 3d 8d 30 03 bd d7 db ba 3d
       0.06851517 0.06923115 -0.032028724 0.091239624
000340 05 65 36 3c 41 62 4e 3d ef 35 ae bd 8d f3 f5 3d
       0.011132483 0.05038667 -0.08506381 0.12009344
000350 f5 83 ca bd 51 1a e1 3d 1e ab f8 bd c9 79 1d 3d
       -0.0988845 0.109913476 -0.12142013 0.03844622
000360 91 17 a6 bd 6b 13 a2 bd 9e e1 d0 bd 02 dc cc 3c
       -0.08109964 -0.0791386 -0.10199283 0.025007252
000370 41 63 f6 bd 2d c5 d4 bd 0c 84 fc bd 4a 12 78 3d
       -0.1203065 -0.10389171 -0.123298734 0.060564317
000380 80 51 d4 3d 29 b7 bf 3d a5 3e b4 bd 9a a5 ec 3d
       0.103671074 0.09361107 -0.08801011 0.115550235
000390 88 1a ba 3b 78 f7 7a 3d 10 b6 8e 3d d2 1a 09 bb
       0.0056794323 0.06127116 0.069683194 -0.0020920527
0003a0 51 71 9f 3d 9a 08 1f 3d 3b 04 b0 bc 5b 1e 03 3e
       0.07785285 0.038826562 -0.021486392 0.12804548
0003b0 c0 b1 af bd 16 43 88 3c a6 68 be 3d 5f 83 6f 3c
       -0.08578825 0.016633552 0.09297304 0.014618724
0003c0 8d 25 b9 3d bc c1 4c bd 23 01 d5 3c b6 b4 b7 bc
       0.09040365 -0.049989447 0.026001519 -0.022425037
0003d0 b7 b0 a3 bd 3a a0 2d 3d 59 b9 b3 bd 28 b2 90 bc
       -0.0799269 0.042389132 -0.08775587 -0.017663077
0003e0 a8 36 a6 3d 9d 77 ef bd a8 cb 3b 3c 34 de 13 3d
       0.081158936 -0.11692736 0.01146213 0.03610058
0003f0 41 5a f1 bc 42 26 93 bd 51 33 b3 3d da 1c 8d bd
       -0.029461982 -0.071850315 0.08750022 -0.068902686

lstm.bias_ih_l1 f4 [256]
000000 e7 e3 3e bd e7 c7 d7 bd 49 46 31 3d b2 9d f0 bc
       -0.046604063 -0.10536175 0.04327992 -0.02937207
000010 90 bb be 3c 55 23 e7 3c 94 40 d8 3c 87 77 d5 3d
       0.023282796 0.02821509 0.02639798 0.10423189
000020 de ad 4e 3d 97 f6 82 bd 42 93 52 3d de 5f 24 3d
       0.05045878 -0.063946895 0.051409967 0.04013049
000030 2a 40 ee 3d 16 f1 ba 3d 2f b3 00 3c fe 37 b2 bd
       0.11633332 0.09128015 0.007855221 -0.08702086
000040 f1 ba b1 3d aa 51 3b 3d a2 52 e4 3c 60 99 9a bd
       0.08678234 0.045732178 0.027871434 -0.07548785
000050 de a2 41 3d 4a 10 80 bd fb 41 05 be a4 aa bd bc
       0.047274463 -0.06253107 -0.13013451 -0.023152657
000060 90 b9 98 bc c8 04 35 bd 11 dd 11 bc 52 cd 22 3c
       -0.01864317 -0.044194013 -0.008902804 0.0099366475
000070 68 ef e2 3d d6 44 c3 bd eb 7c fb bd e4 83 0a be
       0.11080819 -0.09534614 -0.122796856 -0.13526875
000080 e6 2c 5e bd 12 a8 a6 bd 1a 98 be bd 24 f1 2f 3d
       -0.054242037 -0.081375256 -0.09306355 0.04295458
000090 a9 5c b0 bd bd 12 cf bd 22 a2 12 be 36 1e b6 bd
       -0.086114235 -0.10110996 -0.14319661 -0.08892481
0000a0 6a 77 ea bd d1 26 9c bd 56 9c 63 bd 7a 28 eb 3d
       -0.11448558 -0.07624591 -0.055569015 0.1148233
0000b0 22 72 6e 3d 3a aa 87 3c 3f 61 e0 bd 39 ab d3 bd
       0.058214314 0.016560663 -0.10956048 -0.103353925
0000c0 9e 4d 7e bd f6 05 6a 3d 75 f1 9f 3d e6 ac 04 be
       -0.06208574 0.05713459 0.07809726 -0.1295658
0000d0 40 04 3e 3d df 2f f9 3d 48 18 00 bd 74 23 2a 3c
       0.046390772 0.12167334 -0.031273156 0.010384429
0000e0 12 d8 c1 bd 99 09 fd bc 59 69 b5 bd 03 57 f0 bd
       -0.0946504 -0.030888366 -0.08857984 -0.11735346
0000f0 3c 1c a5 3d b9 1b 7b bd 97 aa da 3c cf 60 ff bc
       0.08062026 -0.061305735 0.026692672 -0.031174092
000100 b5 48 f9 bb a6 68 f7 bc 8e 90 65 bd fb 2b 89 bd
       -0.0076075443 -0.030201267 -0.05604606 -0.06697842
000110 85 63 34 3d 3d 66 92 bd 2a 70 21 bc 33 b2 f3 3d
       0.04404022 -0.07148407 -0.009853402 0.11899223
000120 dc eb 5e bd bc 73 dd bd e4 47 f6 bd 19 34 3b bd
       -0.05442415 -0.1081309 -0.12025431 -0.04570398
000130 38 f9 79 bd 4c 45 f6 3c ae 29 52 3d 97 74 34 bb
       -0.06102869 0.03006234 0.05130928 -0.0027535313
000140 48 0b ce 3d eb f9 af 3d eb 6d 44 3d be ae 6b bd
       0.100607455 0.0859259 0.04795639 -0.057539694
000150 e3 4e 91 3d 31 36 34 3b 38 9a 4c 3d 3b 98 77 bd
       0.070951246 0.002749812 0.049951762 -0.060447913
000160 14 05 ea bd 40 3d f4 bd 77 e9 c9 3c 0c 52 c8 bd
       -0.1142675 -0.11925745 0.024647458 -0.09781274
000170 de 70 ed 3d c3 ed 5e bd 6c 7b f4 bd 1c 19 67 bd
       0.11593793 -0.054425966 -0.11937603 -0.05642043
000180 76 a7 c2 3c 2e 7b 4e 3d 0b 1f ac bb 93 52 95 3d
       0.023761492 0.050410442 -0.005252724 0.072911404
000190 e8 fe fb bd 2b 2b c3 3d 13 a9 78 bd 97 dd ab bd
       -0.12304479 0.09529718 -0.060708117 -0.08391874
0001a0 d0 d3 8f 3d f7 33 ca 3d a3 1d e4 3d fa 93 6d bd
       0.07022822 0.09873193 0.11138465 -0.05800245
0001b0 f0 d8 69 bd ea 3a 63 39 ff be d1 3d c7 38 49 3d
       -0.057091653 0.00021670354 0.10241508 0.049126413
0001c0 0a b9 e8 3d dd d5 c1 3d 57 5c 05 be e5 98 b8 bd
       0.113634184 0.09464619 -0.13023506 -0.09013537
0001d0 3b 3b 06 bc b7 62 ed bd bf 23 b0 bd 49 6a 36 3d
       -0.008192833 -0.11591094 -0.08600568 0.044534955
0001e0 1f ff a3 bd 84 82 f4 3d d8 d2 e8 3d 55 ef 33 3d
       -0.08007645 0.119389564 0.1136834 0.043929417
0001f0 03 6e 51 bd 42 93 8d 3d c3 27 a9 3c f4 3d 73 bd
       -0.051130306 0.06912853 0.020648843 -0.059385255
000200 0e 8d e1 3d 63 be b8 3d c8 49 79 bc 96 66 c7 bd
       0.11013232 0.090206884 -0.015215345 -0.097363636
000210 12 b6 1e 3d ff ec cb bc 47 20 de 3b b2 a4 e3 3d
       0.038747855 -0.024893282 0.00677875 0.111153975
000220 9a 67 b8 3c 65 33 f8 3d 15 c3 81 3d 68 14 29 b9
       0.022510339 0.12119178 0.06336037 -0.00016124698
000230 e8 b1 f3 bd 29 13 b9 bd 89 53 32 bd ec 47 5c bd
       -0.11899167 -0.09036858 -0.043536697 -0.053779528
000240 18 28 ba bc 44 a7 e2 3d 73 b6 03 bd e4 ae 2f 3b
       -0.022724196 0.1106706 -0.03215642 0.0026807124
000250 66 6a 7a 3c e9 81 b4 bc 46 5e b0 3d 02 47 5d bd
       0.015284156 -0.022034602 0.08611731 -0.054022796
000260 24 ef c0 bd 18 ea 17 bd 55 28 6c bd d2 7c c5 3c
       -0.094206125 -0.037088484 -0.05765565 0.02410737
000270 06 3b f9 bd 66 b5 da 3d 61 d5 e0 3d 8f 8a 3c 3d
       -0.12169461 0.1067913 0.10978199 0.046030577
000280 5c fa 2c bc 45 63 e0 3d c3 2b fb bc 19 dc 9f 3d
       -0.010557737 0.10956434 -0.030660516 0.07805652
000290 aa 87 cd 3d 2f c2 ae bc 9d 5c cc bd 8e 45 ad 3d
       0.100356415 -0.021332828 -0.09978602 0.08460532
0002a0 1f 10 9e 3d 35 39 82 bd c9 5e 5b bd 36 44 9a bd
       0.077179186 -0.063585676 -0.05355719 -0.075325415
0002b0 18 52 de bd 5b bb 18 bc e0 76 04 3d 51 35 2a bd
       -0.10855502 -0.009322013 0.03233993 -0.041554753
0002c0 d2 e2 e3 3d cd 34 01 bd 08 a5 de bd 34 81 97 3b
       0.11127247 -0.031544495 -0.10871321 0.0046235565
0002d0 48 1a cb bd b3 00 2c 3d a6 8f 1b bc a2 43 b7 3d
       -0.09917122 0.041992854 -0.009494698 0.08948447
0002e0 0b fc 08 3d b9 a4 de bc 83 24 a0 bd c7 cf 7b bd
       0.033443492 -0.027178155 -0.07819464 -0.06147745
0002f0 96 8b f3 bd c4 52 bf 3d 49 e8 ef 3d 57 b1 f0 bd
       -0.11891858 0.09341958 0.11714227 -0.11752575
000300 91 4d 93 3d dc e3 85 3d 72 bf 66 3d a4 68 43 bb
       0.07192529 0.06537601 0.05633492 -0.002981701
000310 ce 4d de bd 4c f2 95 3d b3 97 05 bd 44 ee 03 be
       -0.10854684 0.07321605 -0.032615375 -0.1288386
000320 dc 5c dd 3d 3e 7a dc 3d 02 b1 32 3c e1 3d 01 bd
       0.10808727 0.10765503 0.01090646 -0.031553153
000330 12 90 46 bd 6c 63 c1 bd 99 29 26 3d 40 ad 8a bd
       -0.04847724 -0.09442791 0.040567014 -0.06771326
000340 fb 12 00 be 3c 95 72 bc 7d b1 2b 3d fd eb e4 bd
       -0.1250724 -0.014806088 0.041917313 -0.11177824
000350 1a 1e 99 bd 59 0b 46 bd 58 10 8f 3c ff cf ee bd
       -0.074764445 -0.048350666 0.017463848 -0.11660766
000360 7c 8a f8 3b ce b6 ca bd 66 f4 88 3d 51 a6 da 3a
       0.007584868 -0.098981485 0.0668724 0.0016681646
000370 6f cf 66 3d 9a 28 e9 3d bb 17 8b 3d 61 01 fa 3c
       0.056350168 0.11384697 0.067916356 0.030518236
000380 c9 29 d4 3d 6c b2 d0 bd f7 66 cf bd 08 1a d4 3d
       0.103595324 -0.10190281 -0.10127061 0.103565276
000390 24 56 9c bd 47 5e 69 bd fc 53 92 bd 3f 20 22 3d
       -0.076336175 -0.056974676 -0.07144925 0.039581534
0003a0 bb 56 10 bd c4 6f e5 3c 81 fe b5 bd 2b 7c 4c bd
       -0.035238963 0.028007396 -0.088864334 -0.049923103
0003b0 40 c5 94 3d 9c ba 93 bd 3c 08 9d 3c d4 69 b3 3d
       0.07264185 -0.07213327 0.019168966 0.087604195
0003c0 99 da 94 3d dc 39 78 3c 95 ad bc bd ad 34 68 bd
       0.07268257 0.0151505135 -0.09212796 -0.05669086
0003d0 6d c5 a9 bc 0a c7 e5 3d c9 cf e8 3a 32 b5 90 bc
       -0.020724023 0.11219604 0.001776212 -0.017664526
0003e0 94 5e a4 3d 24 64 30 3d 17 c9 b3 bd 92 97 fd bc
       0.08025852 0.04306425 -0.08778589 -0.030956063
0003f0 45 9e 02 be 45 94 54 3d 6b 2e fb bd 3b 86 3d bc
       -0.12755688 0.051899213 -0.12264713 -0.011567648
