reports/day3/LSTM.pt (torch, 205397 bytes, 9 tensors)

lstm.weight_ih_l0 f4 [256, 1]
000000 9b 36 1b 3d 99 3b e1 3c f2 cb 67 3d 8a 1a f0 bc
       0.037893873 0.027494239 0.05659098 -0.02930953
000010 7f 2e a5 3d 84 77 98 bd 10 51 99 bd ff 3d ea bd
       0.08065509 -0.07444671 -0.074861646 -0.11437606
000020 8b 72 1b bb 50 0a b0 3d 4d e6 a2 bc e2 8c 78 3d
       -0.0023719396 0.08595717 -0.019885207 0.06068123
000030 e2 ce ba 3c 18 06 09 bd 4a 96 af bc 69 46 b1 bd
       0.022803728 -0.033453077 -0.021433968 -0.08656008
000040 2f 7d d9 bd 05 fe 02 3d 7c 36 58 3b d4 bf fe bc
       -0.1061958 0.031980533 0.003299146 -0.03109733
000050 c9 04 0a 3b 15 00 8e 3d 8e e6 4d 3d a9 f4 c8 3d
       0.002105998 0.069336094 0.050268702 0.0981229
000060 b7 6b 8b bd 7b 97 05 bd e6 06 96 3d 7c 2d 74 3d
       -0.06807654 -0.032615166 0.073255345 0.05961369
000070 39 90 34 3d 30 e6 86 bd ea 73 8a 3d 94 d2 93 bd
       0.044082854 -0.065868735 0.0676039 -0.07217899
000080 d1 76 93 bd 6b 47 a9 3d ff 03 77 3c a7 33 a1 bd
       -0.07200397 0.08265575 0.015076636 -0.0787118
000090 13 59 ba bd 71 0d aa 3c f8 6e 51 bd 73 07 c3 bd
       -0.09099021 0.020758362 -0.05113122 -0.09522905
0000a0 c1 ab ca bc ab ed e1 bd 65 28 a1 bc 41 75 19 3d
       -0.024740102 -0.1103166 -0.019672582 0.037465338
0000b0 9e 7b 99 3d d0 0a 44 3d 39 0a 9b bd 4c a6 f6 3c
       0.07494281 0.047861874 -0.07570309 0.030108593
0000c0 00 1b e0 3b af 35 cd bd 8b 42 45 bd 7a 97 81 3a
       0.006839156 -0.10020005 -0.048159163 0.0009887062
0000d0 f9 a1 c6 3c 7d e5 39 3d 06 ce e5 3d 78 f3 95 3d
       0.024247156 0.045384873 0.112209365 0.073218286
0000e0 29 a7 31 3d 36 21 42 bc 1c e4 f8 bd 86 2f 73 3d
       0.043372307 -0.011848738 -0.121528834 0.059371494
0000f0 88 1f e3 bc 42 61 a8 bb 46 0c 8b 3d bc 05 1c bd
       -0.027724996 -0.005138547 0.0678945 -0.038091406
000100 d9 5c b6 bd 2c 39 1d bd 51 c5 98 3c 4e 78 d6 bd
       -0.08904428 -0.0383846 0.018648775 -0.10472165
000110 f1 49 8c bd 3e e4 84 bd e1 f2 c9 3d 50 55 c5 bd
       -0.06850041 -0.06488846 0.098607786 -0.09635413
000120 84 49 cd bd 17 3e a8 3d 14 22 c4 bd e2 80 b6 bc
       -0.100237876 0.08214968 -0.095768124 -0.022278253
000130 05 0f a5 3c 4e f7 0f bd 1c 37 11 bd 2d 21 b0 3d
       0.020148763 -0.035147958 -0.035452947 0.08600078
000140 12 6e 99 3d f9 4c bb 3d dd fa c5 3d 80 fd 01 3a
       0.07491697 0.09145541 0.09666989 0.0004958734
000150 d0 65 4f 3d aa a1 0b be e2 1c c1 3d a1 c7 bc bd
       0.050634205 -0.13635889 0.09429337 -0.09217764
000160 b5 23 27 3d 9d 6b cd bd ae 68 c9 3d 5a af 6a 3c
       0.040805537 -0.10030291 0.09834419 0.014324034
000170 f0 3c 89 3d de fc b4 3d d2 91 a1 bd d2 71 ce 3d
       0.06701076 0.08837293 -0.07889141 0.10080303
000180 88 d8 cb 3d dd 42 ac bd 9e 66 b1 3c f5 1f 26 3d
       0.099534094 -0.08411191 0.021655377 0.04055782
000190 8f 2d 9f bd 6a 31 d1 3d 7b 9f 51 bd 26 8c 0f 3e
       -0.077723615 0.10214503 -0.051177483 0.14018306
0001a0 56 39 02 bd 71 73 aa bd 23 c5 b8 bd 28 69 ac 3d
       -0.03179296 -0.083228 -0.09021976 0.084184945
0001b0 77 11 cb 3d 3e 14 81 3d af 1d c2 bc 4b 0f 50 bb
       0.099154405 0.06302689 -0.023695795 -0.0031747397
0001c0 9d bf b3 bd 93 75 10 be 89 c8 e4 3d 03 b1 bd bd
       -0.08776782 -0.14107351 0.111710615 -0.09262278
0001d0 6f 01 7e 3c 71 eb da 3d c1 b7 01 bd d7 90 36 bd
       0.0155032715 0.10689438 -0.031669382 -0.044571724
0001e0 39 03 9c 3d 7b 8d 3b 3d f3 6a f9 3d b4 bf 93 bd
       0.07617802 0.045789223 0.12178602 -0.07214299
0001f0 60 9b b1 bc 0c 03 b9 bd 5a 2f 91 3b 12 61 ea bc
       -0.021680534 -0.09033784 0.0044306936 -0.02861074
000200 90 76 b7 bd 94 1f a0 3d 4b 2e c5 bd a8 82 80 3d
       -0.08958161 0.07818523 -0.0962797 0.06274921
000210 bf be 81 bb 57 67 69 3d e0 fd a7 3d 43 e4 5b bd
       -0.0039595063 0.05698332 0.0820272 -0.053684484
000220 35 d7 ca 39 dc 7d 4c 3d ab 68 38 3d fe ca 02 3d
       0.00038688784 0.049924716 0.045021694 0.03193187
000230 9e 45 71 bd 9f 17 30 3d c5 8d b4 3d af 76 43 3d
       -0.058904283 0.042991277 0.08816103 0.047720607
000240 1e c3 c2 bd 4b b9 d5 3d 6f 22 a0 3c 6d 34 03 3e
       -0.09509872 0.104357325 0.01954767 0.12812968
000250 c4 ea 8f bb 6e 05 89 3d 1c e4 5a bb 66 f3 60 bd
       -0.004392 0.06690489 -0.0033400124 -0.054919623
000260 30 df 87 bc ea 4c bd bd 62 f8 b6 bc 42 94 73 bd
       -0.016585916 -0.09243186 -0.022335235 -0.05946756
000270 2a 07 0f bd b3 d3 f4 3d fb 56 47 3c 9c d6 53 3d
       -0.03491894 0.11954441 0.012166734 0.05171834
000280 ce 5a 26 bd 6d e9 b9 3d 5e 58 73 3d eb 0c 87 bd
       -0.04061394 0.090777256 0.059410445 -0.06594261
000290 4c 7c d8 3d bf 62 eb 3d 55 2d 21 bd aa e5 83 3d
       0.10570583 0.11493444 -0.039349873 0.06440289
0002a0 b6 bf f5 bc 08 44 bb 3d 26 96 23 3d f5 ac af bd
       -0.029998641 0.09143835 0.039938115 -0.08577911
0002b0 4c 34 47 3d 40 ca e0 bd ba 3e 00 be 34 a8 ee bb
       0.04863386 -0.10976076 -0.12523928 -0.007283235
0002c0 0c e3 b2 3c 42 de 5e bc c3 fe f7 bd bc 4f 55 bd
       0.02183678 -0.013602795 -0.12109139 -0.052077994
0002d0 24 12 c5 3d bc e7 e9 3d 66 f6 91 3d 18 8d 48 bc
       0.09622601 0.11421153 0.07127075 -0.012240671
0002e0 ef c3 f3 bd 24 72 db 3d 79 d7 0e 3d f6 29 c2 bd
       -0.11902606 0.1071513 0.03487346 -0.0948066
0002f0 43 97 87 3d 70 90 ec 3b 06 0d b9 3d b3 ee bd 3d
       0.06620648 0.0072193667 0.09035687 0.09274044
000300 7c b2 a2 3b 15 f3 d4 3b 3d ce bf bc e7 28 c7 bd
       0.0049651247 0.006498704 -0.023413772 -0.097245984
000310 50 a9 ab bd a8 a3 27 bc 0c e8 6f bd 86 d3 86 3c
       -0.08381903 -0.01023189 -0.058570907 0.016458284
000320 28 cb 03 3d 21 10 16 bd f3 87 6e 3d be a1 ba 3d
       0.032176167 -0.036636475 0.05823512 0.09112881
000330 a7 b8 9f 3d 6f 75 45 bd fd ee b8 3b 6c 76 26 bd
       0.077988915 -0.048207697 0.005643724 -0.04064028
000340 64 ce d6 3c 45 25 58 bd d7 4b e8 bb 83 ed 2e 3c
       0.026221462 -0.052769918 -0.007089119 0.010676744
000350 53 64 8c 3d 30 73 b7 3d bc a4 a5 3c 5b fe b5 bb
       0.06855073 0.08957517 0.020220153 -0.005554003
000360 64 ce d4 bd ea 63 44 bd ad dd 35 3d 51 6d 57 bd
       -0.103909284 -0.047946848 0.04440086 -0.052594487
000370 f8 5b d3 bc dc e1 c6 bc 61 ff 29 3d e6 1d c8 bd
       -0.02580069 -0.02427762 0.041503314 -0.09771328
000380 26 47 c8 3d 9e 6b d0 3d 31 23 96 bd da 22 0d bd
       0.097791955 0.10176776 -0.07330931 -0.034457065
000390 30 fd b6 bd 8f 0b 99 3d 46 1f 2d bd 30 c1 a8 bd
       -0.089350104 0.07472908 -0.042266153 -0.082399726
0003a0 fc ad 56 3c b5 c2 ae 3c de 4c ac bc 2b cd 8d 3d
       0.013103005 0.021333078 -0.021032747 0.06923898
0003b0 e1 67 0b bc 82 4d b2 bc dc 06 8b 3a 2a 19 6c bc
       -0.008508653 -0.021765474 0.0010606903 -0.014410296
0003c0 f4 4a b9 bd f5 89 7a 3d 9d cd b5 3d dd 40 75 3d
       -0.09047499 0.061166722 0.08877108 0.05987631
0003d0 c3 25 57 3d 4c ee c4 3d ba 53 ec bd 03 48 ab 3c
       0.052526247 0.09615764 -0.11539407 0.020908361
0003e0 b3 f6 77 bd 24 24 80 3d 41 f5 e0 bc fe 31 ee ba
       -0.060538005 0.06256893 -0.027460696 -0.0018172858
0003f0 d1 3f c3 bc 0f 19 a0 3d 95 b4 18 3d cc 38 89 3c
       -0.023834141 0.078172795 0.03728159 0.016750716

lstm.weight_hh_l0 f4 [256, 64]
000000 49 cf 41 bd 29 e8 06 3e 7b 65 f6 3b 4f 58 8d 3d
       -0.047316823 0.131745 0.0075194216 0.06901609
000010 69 2c 07 bd 43 0e f8 3d 85 7f ba 3c e4 4e 57 bd
       -0.033001337 0.12112095 0.022765884 -0.05256547
000020 a8 81 77 bd 6a e9 f5 3c af b9 ea bd 27 3d 85 3c
       -0.060426384 0.030018527 -0.114611976 0.016264511
000030 bf 4a 37 3d 65 75 ac 3d 1d 11 65 bd 14 1a 79 3d
       0.044749018 0.08420829 -0.055924524 0.060815886
000040 ad b0 c3 3d 61 15 0b 3e e2 9c d2 bd d8 8c 97 3d
       0.095551826 0.13582374 -0.10283829 0.07399911
000050 3d 85 6a bd 25 98 c8 3d c5 59 ef bd ea 4a c9 3d
       -0.057255972 0.09794644 -0.11687044 0.09828742
000060 49 17 6e bd 72 df c9 3d 41 88 ac bb d5 43 8e 3d
       -0.058127675 0.09857072 -0.005265266 0.06946532
000070 69 d8 ad 3b 24 11 ea bc f4 47 af bd b1 a8 ea 3d
       0.005305339 -0.028572626 -0.08558646 0.114579566
000080 81 06 01 be ad cc ec 3d 2c 5f ad 3c bb a7 02 be
       -0.12600137 0.11562476 0.021163546 -0.12759297
000090 60 d2 59 bd 6c 28 a0 bd ca 4b 6a 3c d0 b3 d4 bc
       -0.053179145 -0.0782021 0.014300296 -0.025964648
0000a0 06 b6 9c 3d bd b7 77 bd a2 60 ea bd bb d4 e8 3d
       0.07651906 -0.06047796 -0.114442125 0.113687
0000b0 48 95 b4 bc b2 62 cb bc 4b 8c 39 bc 26 3d 96 bd
       -0.02204384 -0.024827335 -0.011324952 -0.07335882
0000c0 ca 9a dc 3d e6 34 97 bd 52 7a 68 bd 7a 7f da 3d
       0.10771711 -0.073831365 -0.05675728 0.106688455
0000d0 f1 56 62 3c b3 34 4e 3d bd 58 83 bd 0b d2 64 bc
       0.013814674 0.050343227 -0.0641341 -0.013966094
0000e0 d2 cf c3 bd d0 27 04 3e 6e 08 a2 3d 23 87 02 be
       -0.09561123 0.12905812 0.07911764 -0.12746863
0000f0 ed e6 ff 3b 00 f7 ef bd f1 66 28 3c 5e a2 49 3d
       0.007809511 -0.117170334 0.010278449 0.04922711
000100 c6 e5 62 bd 53 1d e8 bd 07 68 8c 3c 05 f6 bb 3c
       -0.05539491 -0.11333718 0.017139448 0.02294446
000110 88 01 27 3d 54 c9 d8 bd 95 d7 98 3d cc dc 64 3d
       0.040772945 -0.10585275 0.07462994 0.05587463
000120 31 cf 0c 3b bb d2 f2 bd 5d d1 8b bd 53 c6 9d bd
       0.00214858 -0.118566 -0.06827042 -0.07703843
000130 b9 01 40 3d 6e 27 03 3e 56 7a 7e bc 38 65 b2 bd
       0.046876643 0.1280801 -0.015532097 -0.08710712
000140 3a 1d 6f bd f2 8c 46 3c 44 ec d3 3c fb c7 d0 bd
       -0.058377482 0.012118565 0.025869496 -0.10194393
000150 08 33 46 3d 28 44 f2 bd 71 dd 26 3d 97 8d ef 3d
       0.04838851 -0.11829406 0.040738527 0.11696928
000160 8a af df 3d 6a dc 50 3c 33 67 4c 3b e3 b0 ad 3d
       0.10922153 0.012747863 0.0031189441 0.08481004
000170 2a 10 e7 bc 9b cb d1 bd 30 1e 28 3b f4 10 e8 3d
       -0.02820595 -0.10243913 0.0025652759 0.113313586
000180 56 9b 16 3d e2 67 c8 3d c6 8f ec bc 8e 57 bf 3d
       0.036769234 0.09785439 -0.02887715 0.093428716
000190 fc 6a 90 bd 94 91 ad bc d3 6e 3e bd b2 a4 c9 bd
       -0.07051656 -0.021187581 -0.04649241 -0.09845866
0001a0 87 66 b8 bd 7c 1d 0e 3c ca d6 c4 bd e1 b9 95 3d
       -0.090039305 0.008674022 -0.0961128 0.07310844
0001b0 a9 1d b4 3d 88 78 6a bd 10 52 b2 3a 09 77 e3 3d
       0.0879472 -0.057243854 0.0013604779 0.111066885
0001c0 09 d5 6f 3d 98 94 af bd ce ac f8 bd 87 63 c8 bd
       0.058552776 -0.08573264 -0.12142335 -0.09784608
0001d0 b4 ae a4 3d 71 3c c0 bd 17 9e d0 3d c6 be 8f bc
       0.080411345 -0.09386528 0.10186403 -0.017547023
0001e0 0f f7 a9 3d 04 b5 ba 3d 6b 0c ca bd 08 10 de 3d
       0.08299076 0.09116557 -0.0986565 0.108429015
0001f0 1d 8c c8 bd 49 b6 1d bd 1a 9d ed bd 5d b7 a5 bd
       -0.097923495 -0.03850392 -0.1160223 -0.080916144
000200 fd 3d 38 3b 2b c0 dd 3d 28 4d 3e 3d 5c cc ba bc
       0.002811312 0.10827669 0.0464603 -0.022802524
000210 27 b4 0c 3c f1 1c fb bd fb f6 e3 bd 8a 91 86 bd
       0.008587874 -0.122613795 -0.11131092 -0.06570728
000220 dc 9b 2f ba 3b 16 ad 3c 50 81 9f 3d 22 f3 d0 3d
       -0.0006698945 0.021128764 0.07788336 0.10202624
000230 f0 c7 8b 3d bf 5c c1 bd 5e 26 ec bd 54 a3 b1 3d
       0.068252444 -0.09441518 -0.115307555 0.086737305
000240 2e 74 a4 bd 22 89 a9 3c 38 10 61 3b 8d a1 74 3d
       -0.08029972 0.020695273 0.0034341943 0.05972438
000250 c7 ce 82 3d 8b f5 8e 3d bc b2 d5 bd 9b 96 e7 3d
       0.06387096 0.06980427 -0.104344815 0.113080226
000260 ca 9f c1 bb 7c fb 77 bd 53 81 cc bd 65 bd d9 3b
       -0.005908941 -0.06054257 -0.09985604 0.006644892
000270 29 37 f4 3d 5c f0 06 be 6c 0f ca 3c 62 c1 09 bc
       0.119245835 -0.13177627 0.024665557 -0.008407922
000280 05 de 23 bd 7b 56 7a bc 6e ed 89 3d d7 d8 28 3d
       -0.040006656 -0.015279408 0.06734739 0.04122242
000290 aa 3f ad 3d 9f 57 5f bd 35 82 12 3e 14 0f 91 3c
       0.084594086 -0.05452692 0.14307483 0.017707385
0002a0 38 8c 05 3e f2 58 36 3d 0c 41 93 3d 36 25 84 bd
       0.1304177 0.04451842 0.07190141 -0.0645241
0002b0 d9 55 52 bd ee a8 15 3d a8 43 99 3d 65 08 99 3d
       -0.051351402 0.036538057 0.074836075 0.07472304
0002c0 d6 30 63 bd 2d 76 9a bd d8 7d 0c 3e 95 0f 85 bd
       -0.055466495 -0.075420715 0.1371988 -0.06497113
0002d0 17 b4 9a 3c a5 30 0d 3e f0 01 a7 3b c0 03 f0 3c
       0.018884702 0.13788088 0.0050966665 0.029298663
0002e0 e2 0b 3c 3d 77 c2 4b 3d f5 ab 9d 3d e4 3f d5 3d
       0.04590977 0.049746003 0.07698814 0.10412577
0002f0 6e 85 19 b9 a4 b0 32 3d 5b 27 c5 bd 78 f5 80 bd
       -0.00014640923 0.04362549 -0.09626647 -0.062968194
000300 ac f7 dc bd 18 63 b2 3d 6f 82 a2 bd 54 ed 1f bc
       -0.10789427 0.08710307 -0.079350345 -0.009761173
000310 25 ef 81 bd 2d df bb bd 5d 15 8f bd 84 1b 00 bd
       -0.06344441 -0.09173427 -0.069864966 -0.03127624
000320 74 91 28 bd b4 f8 60 3d bb a9 f5 3d 32 ae d6 bd
       -0.04115434 0.05492468 0.11995264 -0.10482444
000330 73 5c bf bd da 77 a5 bd 98 c7 f1 3d 61 05 e0 3d
       -0.09343805 -0.080795005 0.118056476 0.10938526
000340 95 41 2a bd 1d 2a 47 3d 90 18 d2 3d 05 f9 ef bd
       -0.04156645 0.048624147 0.10258591 -0.117174186
000350 99 50 a5 3d 1a 7a 83 3d 31 75 f1 3d 58 bf ac bd
       0.080720134 0.064197734 0.117899306 -0.084349334
000360 29 c8 20 3b ce fa 88 3d 05 c6 cf 3d ec 86 e6 bd
       0.0024533367 0.06688462 0.10145191 -0.11256203
000370 8f e4 76 bd 2d df ec 3d 41 f5 e5 3c c7 0a c0 bd
       -0.060276564 0.11566005 0.028071048 -0.093770556
000380 1b f9 51 3d 78 98 51 bd 3f 9d d4 bd bf cd fe bc
       0.051262956 -0.051170796 -0.10381555 -0.031103967
000390 69 93 f8 bd ee ef df 3d 92 fb 93 bc c8 fb 73 bd
       -0.12137491 0.10934435 -0.018064294 -0.05956629
0003a0 71 38 fb 3d 41 86 8a bd 06 42 9a bd 55 7c 26 bc
       0.12266625 -0.06763888 -0.07532124 -0.010161479
0003b0 10 c6 a5 3d 66 1e cb 3d bc 7a cb 3d 1d 49 9e 3d
       0.08094418 0.099179074 0.09935519 0.07728789
0003c0 71 45 f8 bd c0 ab 20 3d 17 3a 88 3d ea 26 98 3d
       -0.1212262 0.039226294 0.06651705 0.07429297
0003d0 00 b2 a8 bd 8a fe b4 3d 9d f3 fa ba cd 78 c5 bd
       -0.08237076 0.08837612 -0.0019146089 -0.096421815
0003e0 2c 9e 38 bd c1 77 30 bb bd d0 de bd 3d 1f 89 3c
       -0.04507272 -0.0026926848 -0.108796574 0.016738528
0003f0 08 e4 ef 3d cf c3 8b bd ed 02 c0 bd 82 6b f4 bd
       0.117134154 -0.06824457 -0.09375558 -0.11934568

lstm.bias_ih_l0 f4 [256]
000000 92 58 af 3d 8f ab e2 bd 67 4b aa 3d 5a 86 c2 3d
       0.08561815 -0.110678785 0.08315163 0.09498282
000010 09 70 c2 bd 09 3a 8a 3d fe 2d 57 3d 85 3b 54 bd
       -0.09494025 0.067493506 0.052534096 -0.051814575
000020 e0 f1 8c bd 8f bd 9c 3c 20 0f 07 3d cd 8f 8b bd
       -0.068820715 0.019133357 0.03297341 -0.06814537
000030 cd 6d dd bd 8b 47 71 3d aa d2 e8 3b 12 b7 50 3d
       -0.108119585 0.05890612 0.0071051912 0.05095584
000040 50 20 7b bd 1b 52 ce 3d 79 54 c2 3d 2d f0 74 3d
       -0.061310112 0.10074254 0.09488768 0.059799362
000050 ab f0 b6 3d 7e ee cf bd b8 33 89 bd 40 2e d1 3d
       0.089326225 -0.10152911 -0.06699318 0.102138996
000060 c0 fd 73 3c f9 0a 19 bd ad c0 c1 ba 5a 8a a6 bd
       0.014892042 -0.03736398 -0.0014782153 -0.08131857
000070 f6 11 c2 bd 54 03 03 be f0 8a d3 bd 9f 5a 3e bd
       -0.09476082 -0.12794238 -0.103292346 -0.04647314
000080 1a e1 20 3d a8 14 d3 bd 22 48 a4 bd 5c a8 b2 bd
       0.039277174 -0.10306674 -0.08021571 -0.08723518
000090 99 9a 30 3c 26 76 b8 bd db 5f ff 3c c4 17 5e bd
       0.010779046 -0.0900691 0.031173637 -0.054221883
0000a0 21 3b 01 bd d4 12 94 bd c5 3e 8e 3b 85 d1 f8 3d
       -0.03155053 -0.07230154 0.004340979 0.12149338
0000b0 8c fb 01 be b5 7e 00 3d ea 96 9a bd c3 6f ea 3d
       -0.12693614 0.031370837 -0.07548316 0.11447098
0000c0 96 9f ff bc 40 b7 6b bb 74 73 85 bd 94 17 af bb
       -0.031204026 -0.003596738 -0.065161616 -0.005343387
0000d0 f0 ae f3 bd 89 24 ec 3d 29 f6 ee 3d ad e7 a9 3b
       -0.11898601 0.11530406 0.11668045 0.0051850886
0000e0 84 35 44 bd a2 a3 39 bd e9 93 a2 3d 7c 73 49 3d
       -0.0479026 -0.045322068 0.07938368 0.0491824
0000f0 09 cb de 3d d9 a0 ac 3d 75 22 e6 bb be 0a 80 bd
       0.1087857 0.08429117 -0.0070231506 -0.06252049
000100 9e cc 37 bd 2d 1b 04 bd 45 b8 4e 3d e0 7e e5 3c
       -0.044872873 -0.03225248 0.050468702 0.0280146
000110 3d a0 c8 3d 02 08 99 3d 35 2f fa bd 30 67 27 bd
       0.09796188 0.074722305 -0.12216035 -0.04086989
000120 ab 0d f8 bd b7 cf e5 3c 93 4f bb 3d 59 c3 b0 bb
       -0.12111982 0.028053148 0.09146037 -0.005394381
000130 b6 d4 39 bc 4f c5 45 3d 72 36 73 3d 83 ec 81 bd
       -0.011342218 0.04828387 0.059378095 -0.06343939
000140 96 ea 26 3d 08 b5 8c 3d cf 11 6f 3d c8 14 91 3b
       0.040751062 0.068704665 0.058366593 0.004427526
000150 e9 08 ee 3d 81 e9 a8 bd 38 70 c8 bc e1 d0 a3 bc
       0.11622793 -0.08247662 -0.024467573 -0.019997062
000160 ba 54 b7 bd 80 a0 dd 3d 78 37 a1 bc 7c f9 e3 bd
       -0.08951707 0.108216286 -0.01967977 -0.1113157
000170 d1 b3 53 bd ba e4 1f 3b fc c3 c7 3d e3 ae 31 3c
       -0.05168516 0.0024397806 0.09754178 0.010844919
000180 4f da be bd 9b a8 41 bd 2f 0c cc bd dd 0a 08 be
       -0.09318983 -0.047279935 -0.09963261 -0.13285394
000190 2f 21 74 bd fa df 0b be 6a 8b c5 3c f9 ed 4a bd
       -0.05960196 -0.13659659 0.02411433 -0.049543355
0001a0 81 86 8c 3d bd 22 80 bc 8d e5 e0 bd cb b5 86 bc
       0.06861592 -0.015641565 -0.10981283 -0.016444108
0001b0 21 b5 80 3d 2f c5 a6 3b a1 19 80 3d 43 d0 ea ba
       0.062845476 0.005089424 0.06254888 -0.001791485
0001c0 19 8f 70 bd 2f 50 4e bd e2 43 33 bc 5a 06 cd bd
       -0.05873022 -0.050369438 -0.0109414775 -0.10010977
0001d0 5a 76 c9 bd ae fd 95 bd ed da ef bd d9 ae 27 bd
       -0.09837027 -0.07323776 -0.11711679 -0.040938232
0001e0 b7 ff 0c bd fa 02 b2 bd 27 0a 57 bd cb 7f 56 bd
       -0.034423556 -0.08691974 -0.052499916 -0.052367967
0001f0 bc 58 c5 bc 49 e3 ba 3d e9 31 99 bd bd e3 21 bd
       -0.024090163 0.091253825 -0.07480223 -0.03952383
000200 7b 55 b8 3c 9e 88 97 bc b4 40 b6 3a bf 3f dc 3d
       0.022501698 -0.018497761 0.0013904781 0.10754346
000210 d3 49 86 3d ce 08 cb bd 48 d0 c9 3d 44 eb ea bd
       0.065570496 -0.09913789 0.098541796 -0.114706546
000220 72 d1 9c 3d 96 10 bc 3d 89 7b 52 bd 3d 18 64 bb
       0.07657136 0.09182851 -0.051387344 -0.0034804486
000230 1a 79 79 3d e1 c6 ca bd 1c 0a b4 bd f7 03 7f bb
       0.060906507 -0.099012144 -0.08790991 -0.0038912275
000240 9c 6f 1b 3c 75 27 c3 bd e2 6a 4c bc 24 dc d1 bd
       0.009487059 -0.0952901 -0.012476655 -0.102470666
000250 f4 22 10 3d 48 39 98 3d 12 aa b5 3d 23 83 ad 3d
       0.035189584 0.074328005 0.08870329 0.08472278
000260 a2 a3 2b 3d 3b 0f d8 bd 43 9a 24 bd 62 e8 37 3d
       0.0419041 -0.1054978 -0.040186178 0.044899352
000270 85 56 24 3d f5 d3 37 3d 24 ca cf bc 09 0d 42 3d
       0.040121574 0.044879872 -0.025364943 0.047375713
000280 9f eb 82 bd 88 06 bc 3d 05 e5 90 3d 6b 50 69 3c
       -0.063925974 0.09180933 0.07074932 0.014240365
000290 49 c9 08 bd f6 e1 98 bd ca e2 f6 bd 73 35 0e bd
       -0.033395085 -0.07464974 -0.12054975 -0.034718942
0002a0 fe fb 45 bd 59 9d 02 bd 40 18 af 3d 8f 93 b3 3d
       -0.04833602 -0.03188834 0.08549547 0.08768379
0002b0 ea 50 3d 3d ce b2 a7 3d d2 90 ee bd c9 03 c3 3d
       0.046219744 0.08188401 -0.11648716 0.09522206
0002c0 9c 1c a5 3d ac 2b b8 bc 2e 39 cb 3d b2 9d d4 bd
       0.080620974 -0.022481762 0.099230155 -0.103816405
0002d0 e8 61 e5 bd 05 28 48 bd 48 3d f0 bd dc 86 ef 3d
       -0.11200315 -0.04886629 -0.117304385 0.11695644
0002e0 d5 b6 8d bd 12 56 fc bd da 41 98 3d 8c f7 5e 3d
       -0.06919638 -0.12321104 0.07434435 0.054435298
0002f0 c1 7f 9e bd 13 ed b0 3d 03 8c 36 bd a4 d2 cb 3d
       -0.07739211 0.08638968 -0.04456712 0.09952286
000300 96 81 dc bd 40 02 00 be f4 de 97 3d 4a 24 f6 bd
       -0.10766904 -0.12500858 0.07415572 -0.1201864
000310 0e d9 f4 bd 34 0d 3b bd e4 56 7e bd f0 f9 53 bd
       -0.119554624 -0.04566689 -0.062094584 -0.05175203
000320 5a 74 bb bd 7e 82 b8 3d 60 30 ad 3d 71 d5 33 3d
       -0.09153052 0.090092644 0.084564924 0.043904725
000330 32 ce c7 bd fb f1 c0 bd db b5 8b bd e9 b9 4b 3d
       -0.097561255 -0.09421154 -0.068217956 0.049737845
000340 e8 a7 6e 3d e9 c3 a7 bd c2 eb c7 bd 14 0a 82 3c
       0.058265597 -0.08191664 -0.09761764 0.015873946
000350 82 f6 ed bd 5f ca 34 bd 6b f2 31 3d 85 ad c4 bd
       -0.11619283 -0.04413831 0.04344408 -0.09603409
000360 74 2e f8 bd 36 cb b7 bb ec f9 04 be 6d 11 c5 3d
       -0.12118235 -0.0056089414 -0.12985963 0.09622464
000370 4b 4e 71 3c ee 09 a3 3d 2a c7 22 3d 83 c1 64 3d
       0.014728139 0.07960878 0.03974072 0.05584861
000380 c6 1e e6 bd b6 e6 b3 3d 0c 1f b7 3c 79 5e a0 bd
       -0.11236338 0.08784239 0.022353671 -0.07830519
000390 06 b5 bc 3d 2d a8 0f 3d 39 2f 6c bb 39 36 81 bd
       0.09214215 0.035072494 -0.003603889 -0.0630917
0003a0 ba 0a d0 3d 1c a4 bf bd 47 b0 6a bd f0 47 96 bc
       0.10158296 -0.09357473 -0.057297017 -0.01834485
0003b0 69 1a bf bd cb ba 84 3d 2d b1 6e bd ce 56 ea 3c
       -0.09331209 0.064809404 -0.058274437 0.028605845
0003c0 af 58 c9 3d 3b 1e 92 bd 14 b7 39 bd de 99 03 bc
       0.09831368 -0.07134672 -0.045340613 -0.00803229
0003d0 9b 72 c4 3d 70 08 25 3d 8a 8d c2 bb ce 9a fb 3c
       0.09592172 0.04029125 -0.005937283 0.030713465
0003e0 44 2d e2 3d 24 af ec bd df 9b 8e bd 30 f6 b5 bd
       0.1104379 -0.11556843 -0.06963324 -0.08884847
0003f0 5f c2 c5 3d 00 f0 03 be b0 b3 54 bd 72 56 30 3d
       0.09656214 -0.12884521 -0.051929176 0.04305119

lstm.bias_hh_l0 f4 [256]
000000 5f 80 38 3d 1c b1 b3 bc 2d 22 54 bd fe f5 a5 bd
       0.0450443 -0.021935038 -0.051790405 -0.0810356
000010 73 c8 a3 bc 8d 10 2d 3d db 35 2a bd c4 0e c6 3d
       -0.019993043 0.042252112 -0.041555267 0.09670785
000020 57 44 40 bd bb 2b 2f 3c a6 22 01 bb 3e 45 03 be
       -0.046940174 0.0106915785 -0.001970449 -0.12819383
000030 6f 00 8f 3d d6 bb ca 3c 43 bb 8c 3c 02 a9 e8 bd
       0.069825046 0.02474777 0.017179137 -0.11360361
000040 9c 5e ee 3d b1 e6 c7 3d 7d 53 d7 bd af 04 41 bd
       0.11639139 0.09760798 -0.10513971 -0.047123607
000050 70 82 56 bd 55 e2 58 3a fa a7 ef 3c e2 c0 dc bd
       -0.05237049 0.0008273472 0.029254902 -0.10778977
000060 c4 d5 71 bc 22 f6 a4 bd 11 ba de 3d b7 df c6 bc
       -0.014760438 -0.080547586 0.10875333 -0.024276597
000070 d8 f5 8d 3d d1 10 ac bb 0a 28 c7 3d 30 0a f5 3d
       0.069316566 -0.005251028 0.09724434 0.11964834
000080 ef e9 d1 bd 67 92 ed bb e0 ed cf bd 57 49 36 bd
       -0.102496974 -0.0072501185 -0.10152793 -0.044503536
000090 52 10 5b bd 90 6a cb bc 85 a2 cb 3d dc 54 67 3d
       -0.05348236 -0.024831086 0.099431075 0.056477413
0000a0 65 61 8c 3c 4c 59 0f 3a 87 1e 48 bd ad 80 f1 bd
       0.017136285 0.00054683234 -0.04885724 -0.11792121
0000b0 4b f7 68 bd b5 b4 ac 3d 8c d9 8a 3c 03 0f 8d 3d
       -0.056876462 0.08432905 0.016949438 0.06887629
0000c0 61 87 87 3d 32 a6 a2 bd c0 83 bb bd 7f cf e8 bc
       0.06617618 -0.079418555 -0.09155989 -0.028419254
0000d0 f3 4a b4 3d 28 13 02 bd 62 86 36 bc 0e 68 f4 bd
       0.08803358 -0.03175655 -0.011140438 -0.11933909
0000e0 a5 88 00 bd 41 d1 8f 3d 4d 86 c2 bd 07 4a b8 3d
       -0.031380314 0.07022334 -0.09498272 0.089984946
0000f0 4d f4 92 bd 29 87 a9 3d 87 70 8f bd 4d a4 90 bd
       -0.07175503 0.08277733 -0.07003885 -0.07062588
000100 aa b4 23 bd a4 4d 5d 3d fb f5 df 3d 88 d5 1f 3d
       -0.039967217 0.054029122 0.10935589 0.039022
000110 a7 9c 9e 3d 78 2a c0 bd 0f 9e 89 3d bd 58 8a bd
       0.07744723 -0.093831 0.067196004 -0.06755207
000120 d9 1b 89 3d b5 f6 96 3d e0 38 e6 3c 37 08 21 bd
       0.06694765 0.073712744 0.028103292 -0.039314475
000130 d9 c4 ce 3c 19 a0 29 bc 48 ed 8f bd 5e 0f d4 3d
       0.025240349 -0.010353112 -0.0702768 0.103544936
000140 c0 de 04 be 39 d8 f9 bd 46 20 cd bd b2 af 9b bd
       -0.12975597 -0.12199444 -0.10015921 -0.076018706
000150 97 0f 8e bd 9e d0 61 3d c9 56 96 bd 12 9d c6 3d
       -0.06936567 0.055130593 -0.07340772 0.096979275
000160 90 14 26 3d 40 c6 af bd 85 28 f2 3c 35 a0 e2 3c
       0.040546954 -0.08582735 0.029560337 0.027664283
000170 16 6c 0a be 88 ee 1a 3d 8c 57 30 bd 5c 60 e5 3d
       -0.13517794 0.037825137 -0.04305224 0.1120002
000180 0f 46 92 bd c2 c4 0b 3c c8 32 0a 3d 90 47 e0 bd
       -0.07142269 0.008530797 0.033739835 -0.109511495
000190 3e e7 fa bd 75 37 85 3c 96 f5 06 3d c1 a3 f4 bd
       -0.12251137 0.016261796 0.032949053 -0.11945296
0001a0 4b dc b2 bd 81 3b cc 3d 62 59 7c bd e6 62 ba 3d
       -0.08733424 0.09972287 -0.06160868 0.09100895
0001b0 7a 99 f7 bb b1 44 8a bd b8 34 32 bd a1 0d 68 bd
       -0.0075561376 -0.06751383 -0.043507308 -0.056653623
0001c0 8e 8b ff 3c 46 9a c0 bd 94 35 f4 bd c2 31 e6 bd
       0.031194475 -0.09404425 -0.11924282 -0.11239959
0001d0 1a 76 88 3c a0 e7 b6 bd 90 3d b6 3d a5 29 c4 3d
       0.016657878 -0.08930898 0.08898461 0.095782556
0001e0 12 18 05 bc 64 37 84 3d 2f 57 18 bb 06 5c 02 3b
       -0.008123415 0.064558774 -0.0023245325 0.0019891276
0001f0 ca 0e 4b bd d7 3b c6 3c 66 41 10 bd fd b0 83 3d
       -0.04957465 0.024198456 -0.03521862 0.06430242
000200 84 0d cf 3d 37 b7 94 bd 47 55 80 bd 8b 40 9e 3d
       0.1011 -0.07261508 -0.06266265 0.07727154
000210 e1 76 b3 bd 84 94 9f ba c0 6f 9d 3d 3a 8e 95 3b
       -0.08762909 -0.0012174998 0.0768733 0.004564074
000220 62 b6 3b bc 55 ed 43 3d 15 1b ff 3c 95 97 8c 3d
       -0.011457058 0.04783376 0.031140843 0.068648495
000230 e1 42 96 bd 02 f5 34 bd 84 3b 5c 3d e0 8e cd bd
       -0.07336975 -0.04417897 0.053767696 -0.10037017
000240 d5 d7 3a bd 49 cb e8 3d db 81 ea bd 69 84 03 bd
       -0.04561599 0.113668986 -0.11450549 -0.032108698
000250 20 cc 77 bd 34 16 34 3b df 62 f7 3c 27 74 4a bd
       -0.060497403 0.0027479054 0.030198513 -0.049427178
000260 b2 7e b4 bd 25 2f 4a bd c3 6e 36 bd 32 98 14 3d
       -0.08813228 -0.049361367 -0.044539224 0.036277957
000270 23 96 88 bd a0 5e b0 3d f2 02 f3 3c a9 8b 88 3d
       -0.06669261 0.08611798 0.02966449 0.06667263
000280 fa c0 df 3d 03 3a 8f bc 04 60 4d 3d 72 3f 22 3b
       0.10925479 -0.017483717 0.050140396 0.0024757055
000290 6c a6 fd bc de 2a c3 bd 7a 2b 49 bd 93 78 a1 3c
       -0.030963145 -0.09529661 -0.049113728 0.019710815
0002a0 e6 4a 38 bd dd ce df 3d 36 5f 29 bd da b5 f2 3c
       -0.044993304 0.10928128 -0.041350566 0.02962773
0002b0 06 4e a5 b9 1e 97 77 bd e9 76 f6 bd c9 69 55 bc
       -0.00031529384 -0.06044685 -0.12034399 -0.013025709
0002c0 f4 45 63 bd 2e 09 be 3d 02 8d e6 bd 11 39 29 3c
       -0.055486634 0.09279095 -0.11257364 0.010328547
0002d0 7c 28 11 bd 57 b7 5d bd dd ff 74 3d 46 1c 70 bd
       -0.035439 -0.054129925 0.059814323 -0.058620714
0002e0 45 b9 b1 3c 78 7f a7 bd a7 7e 00 3d 8c 6d b2 3d
       0.021694789 -0.081786096 0.031370785 0.08712301
0002f0 d6 da df bd 2d d3 f2 bd 81 5e ed 3c 5e fc d8 3d
       -0.109304115 -0.11856685 0.028975727 0.1059501
000300 ee 0e b8 bd 52 3c e9 3c b4 01 94 3d 69 e9 52 bc
       -0.089872226 0.028471146 0.07226887 -0.012873032
000310 4f 84 d5 bc 48 ee 50 bd 07 db 0d 3d 8e b2 d8 3d
       -0.026064066 -0.051008493 0.03463271 0.105809316
000320 d0 0b de bd f9 bc d1 bc 0b cb 65 3d bb 0a 4d bd
       -0.10842097 -0.025602804 0.05610184 -0.05005906
000330 1c cd f1 bb f3 26 e9 3d c3 25 a3 bd 11 fb a9 3d
       -0.0073791873 0.11384382 -0.07966187 0.0829984
000340 a2 b9 80 bd 77 48 65 3d 70 33 0e 3d 06 cd e7 bd
       -0.06285407 0.05597731 0.034717023 -0.11318402
000350 02 89 63 bd a2 83 f7 bd 2a a0 ea 3d 97 c7 f5 3d
       -0.055550583 -0.12085654 0.1145633 0.12000959
000360 3c e9 88 3d 4d bb 04 3d 0f 2c f7 bd f1 86 c0 bd
       0.06685111 0.032405186 -0.120689504 -0.09400738
000370 a9 4e ea 3d bf 13 75 bd ac 72 b4 3c 1f 13 24 bc
       0.114407845 -0.059833284 0.022027336 -0.010014324
000380 18 c2 ea 3d 81 6a ac bd d0 ba c2 bd 33 f5 72 bd
       0.11462802 -0.084187515 -0.09508288 -0.05931587
000390 ae 94 5b 3c 92 b7 15 bc 29 3c 7d 3d f7 8c c3 bd
       0.013402147 -0.009138005 0.06182495 -0.09548371
0003a0 94 91 a5 bd e1 2e 2c bd af f2 14 bb b8 0d 17 3d
       -0.080844074 -0.042036895 -0.0022727659 0.036878318
0003b0 0c 08 ea bd cf 5a 83 bd c0 bc e7 3c 45 ca b2 3c
       -0.11427316 -0.06413805 0.028288245 0.021824965
0003c0 a4 34 9c 3c c3 46 ef bd c5 87 90 bd 3a c2 86 bd
       0.01906807 -0.116834186 -0.07057146 -0.065800145
0003d0 fc cc bd 3c e0 e8 1f 3d 9e ed 15 bd 6a 99 41 3d
       0.023169033 0.039040446 -0.036603563 0.047265448
0003e0 3c 78 90 bd b9 2e 2a 3d f1 88 c1 3d b7 af 91 bc
       -0.07054183 0.041548464 0.094499476 -0.017783983
0003f0 08 ef 58 3c db 47 23 bd 36 45 d1 bc 9a f8 67 bd
       0.013240583 -0.03986345 -0.025545698 -0.05663357

lstm.weight_ih_l1 f4 [256, 64]
000000 c0 f4 cd bd d2 40 20 3b 4e 6f 33 bc b0 8d d0 3d
       -0.10056448 0.0024452698 -0.01095183 0.10183275
000010 44 68 d6 3d f9 48 74 3d 21 f4 97 bd a2 0e a8 bc
       0.10469106 0.059639905 -0.07419611 -0.02051479
000020 b6 96 40 3b 97 de 98 bd 7e b3 5e bd e8 04 f6 bc
       0.0029386706 -0.07464331 -0.054370396 -0.030031636
000030 a9 bd 63 bd 1d df af bd 6e 21 d7 bd b4 ff 85 bd
       -0.055600796 -0.08587477 -0.10504423 -0.06542912
000040 4b 6b 59 bc 07 67 75 bd 42 d2 16 bd bc 86 c1 3d
       -0.01327021 -0.059912708 -0.03682161 0.09449527
000050 d9 0c 9f bd 65 a4 5c 3d 57 7e 09 bd 25 37 e2 3d
       -0.07766122 0.053867716 -0.033567753 0.11045674
000060 e1 a0 a3 bd c8 38 3d 3b 4e 1f 2a 3c e9 18 76 3d
       -0.079896696 0.0028872956 0.01038344 0.06008235
000070 5c 79 d2 bd 4d 6f aa bc 66 a9 6a 3c fa d7 cc 3d
       -0.10277054 -0.020805025 0.014322614 0.10002132
000080 4c 61 1e 3d d9 7a b9 3d 53 f3 2d bc ab 90 9b 3d
       0.03866701 0.090566345 -0.010617095 0.075959526
000090 de 41 c4 bd fd 6b 3b 3d 87 3b a2 3d 91 95 78 bd
       -0.09582876 0.045757283 0.0792151 -0.060689513
0000a0 0e f9 c2 3d e0 d4 29 bc 92 8b 7a 3d 66 2a bf 3a
       0.0952016 -0.010365695 0.06116826 0.0014584779
0000b0 6c 55 d8 3d 32 bd c9 3d f4 79 8a 3d e7 57 e3 bd
       0.10563168 0.09850539 0.06761542 -0.111007504
0000c0 6e 71 bc bd 9c 95 a8 3c 54 7d b7 3d c7 85 e5 3d
       -0.092013225 0.020579152 0.08959451 0.11207157
0000d0 8f 0d dc bc c3 68 c9 bd 7c 8e f4 bb 38 7b d1 3d
       -0.026861934 -0.09834435 -0.0074632745 0.1022858
0000e0 a0 ca 3e 3b 29 18 97 bd 1d 24 ae 3d e5 b9 68 3d
       0.0029112473 -0.07377655 0.08502982 0.056817908
0000f0 16 90 2e 3d 92 6c 24 bd 8f f7 f0 3d 56 72 01 be
       0.04261788 -0.040142603 0.11765968 -0.12641272
000100 19 70 19 3d 88 6e 81 3c d3 5f b0 bd ee 39 df 3c
       0.03746042 0.015799776 -0.08612027 0.027249303
000110 09 28 e7 bb 0e 81 cb 3d 46 5a 30 3d c3 63 c4 3d
       -0.007054333 0.099367246 0.04305484 0.095893405
000120 e7 37 9c 3c cd fa 92 3c ea 05 52 ba 0d 90 d6 bd
       0.019069625 0.017941857 -0.00080117455 -0.10476694
000130 c7 ee 8b 3d 56 2c 3a 3d ff 93 03 3e a9 5f cf bd
       0.068326525 0.04545244 0.12849425 -0.101256676
000140 76 cc 13 bd ec 85 02 3e 4f 55 00 3e 49 60 d6 bd
       -0.03608366 0.127464 0.12532543 -0.10467584
000150 cd b4 9f 3c 52 2c df bd b6 b7 b6 bc 23 8b d1 3d
       0.019495392 -0.10897125 -0.022304397 0.10231616
000160 e2 0d d2 3d a7 97 b6 bd f2 02 03 3d 4c ef 9c 3d
       0.10256554 -0.08915644 0.03198523 0.0766283
000170 7c 19 8d 3d 1e 4e 82 bd 93 73 cf bd 5e cc bd 3d
       0.068896264 -0.06362556 -0.10129466 0.092674956
000180 71 11 86 3d c3 5f 6f 3d 31 89 f1 bd cc c1 ae bd
       0.065462954 0.058440935 -0.11793745 -0.085330576
000190 7f 22 48 3d 27 ba 23 bd 06 2d 04 bd 6c 51 49 3d
       0.048861023 -0.03997245 -0.0322695 0.049149916
0001a0 86 bb f6 bc 4d 2f 3c bd eb 40 e4 3d 6c b3 f9 bd
       -0.030118715 -0.045943547 0.111451946 -0.12192425
0001b0 03 75 de bc 71 d7 9f bd b3 de e8 3b c4 d8 9d 3d
       -0.027155405 -0.07804764 0.007106626 0.077073604
0001c0 6c ef b8 bd 91 2e eb bd da 36 b7 bd 35 06 aa bc
       -0.09030041 -0.11483491 -0.08946009 -0.020754913
0001d0 af df ba bd aa d0 20 3d 3e 18 53 bd 6c 1b 91 bd
       -0.091246955 0.039261498 -0.05153679 -0.070853084
0001e0 2b ab b7 bd 83 b8 50 3d 66 5c da bd cd 04 17 3d
       -0.089681946 0.050957214 -0.10662155 0.036869813
0001f0 5d a8 d2 bd 25 b4 1f 3d f4 16 4e 3d 18 9e 4b 3d
       -0.10286019 0.03899016 0.05031486 0.049711317
000200 9d e7 f8 bb 7d 88 ae bd b5 cf ae 3d f1 c0 05 be
       -0.00759597 -0.08522127 0.08535711 -0.13061883
000210 0e a0 09 bd 23 82 87 bd 8f 20 22 bb 6c 8b 44 3d
       -0.033599906 -0.066166185 -0.0024738645 0.047984526
000220 16 df 4d 3d d2 00 10 bd e7 c8 c4 3d 20 65 03 3d
       0.05026158 -0.035157032 0.096086316 0.032078862
000230 e8 b9 9c bd 19 71 f0 3c f0 53 f4 bd 57 7b a7 3d
       -0.07652646 0.029350804 -0.11930072 0.08177822
000240 52 91 05 3e 78 7f dd 3d d4 63 da 3d fd db 8f bd
       0.13043717 0.10815328 0.10663572 -0.07024381
000250 10 1c d5 bc 15 6c 86 bd 7f 2e 9f 3c 4d 8c c5 bc
       -0.026014358 -0.06563584 0.01943135 -0.024114752
000260 21 14 ae bd c7 3b 9d 3d 13 f9 d7 bd cb ef db bd
       -0.08499933 0.07677417 -0.10545554 -0.10739096
000270 00 ea a1 bd 67 60 4f 3c e6 eb 9a bd 9e 59 90 3d
       -0.0790596 0.012657261 -0.07564525 0.07048343
000280 b0 c3 68 bc 2a ca 67 bd a5 18 e7 3c 28 7f cb bc
       -0.014206812 -0.056589283 0.028209994 -0.024840906
000290 74 68 2c bd 32 74 47 bd b8 82 11 bd 04 f4 04 be
       -0.0420918 -0.048694797 -0.035525054 -0.1298371
0002a0 e6 f0 d7 bd 2d 84 c0 bd 47 30 99 bd a6 df b8 bd
       -0.105439946 -0.094002105 -0.07479911 -0.090270326
0002b0 04 ab e1 3c b9 c2 02 be c8 d9 a9 bd 4c 34 32 bb
       0.027547367 -0.12769593 -0.082934916 -0.0027191816
0002c0 c7 dc 2e bc 97 a7 95 3a 17 58 92 bc 17 eb 02 3e
       -0.010672755 0.0011417744 -0.01786427 0.12784992
0002d0 0d 42 d6 3d 2d b2 18 bd 0b c3 bd 3d a7 ae 87 bd
       0.10461817 -0.037279297 0.09265717 -0.06625109
0002e0 c4 9e 4e 3d af fc 25 bd 8a 13 c6 3d 6e d9 f2 bd
       0.05044438 -0.04052418 0.096716955 -0.11857878
0002f0 74 d1 ab 3b 0c a8 c7 bc 3b 34 98 3d 41 1b ea bd
       0.0052434746 -0.024372123 0.07431837 -0.114309795
000300 cc 59 78 3d 1a 5d de 3d e3 ec f8 3c e4 2e 8c bd
       0.060632512 0.108576015 0.030386394 -0.06844881
000310 a2 a2 25 3c 9a b8 ea 3c 36 99 74 bd 11 68 9e 3d
       0.010109575 0.028652478 -0.059716426 0.07734693
000320 c4 c7 13 3c c2 0e c0 3d 08 28 d3 3d 55 be 48 bd
       0.009019796 0.09377815 0.1031037 -0.04900964
000330 ef 12 cc bd 4b e3 f2 3c 36 b8 a0 bd 2d 44 58 3c
       -0.09964549 0.029649397 -0.078476354 0.013199848
000340 ad c9 92 bd 8e 7d f2 bd 97 3c 9b 3d 44 45 97 bd
       -0.07167373 -0.11840354 0.07579916 -0.07386258
000350 7d e9 08 3b 00 e7 74 3c e0 05 0b 3d 1c e1 ef bd
       0.0020891123 0.014947653 0.03394115 -0.11712858
000360 1b 76 e8 3d e6 7b 85 bd 29 da 74 3d 10 a4 dd 3d
       0.11350652 -0.065177724 0.059778366 0.10822308
000370 80 75 98 bc dc 30 41 bc 2a c3 8a bc 7b be 92 3d
       -0.018610716 -0.011791434 -0.016938765 0.071652375
000380 ab 47 3b bd 63 ab b4 bd e9 10 bc 3d b6 79 d0 bd
       -0.045722645 -0.08821752 0.09182913 -0.101794645
000390 18 ad 02 bd 28 d5 00 be eb 3d 93 3d 23 53 9f 3d
       -0.031903356 -0.12581313 0.07189544 0.07779529
0003a0 50 a9 a9 3d 16 ac a3 bd 0e 52 61 3b 6d a4 ee bd
       0.08284247 -0.07991807 0.0034381184 -0.116524555
0003b0 25 30 80 bd 48 e9 66 3d d8 ae e3 3d 38 2a f9 39
       -0.06259183 0.056374818 0.11117333 0.00047524436
0003c0 ea ad c7 3d 23 5d 16 3d cf 69 d2 bd 36 d8 8a 3b
       0.09749968 0.036709916 -0.10274088 0.0042372
0003d0 15 3a f6 bc b3 a3 c1 bd 2f 6b c6 3d 63 4c a7 3d
       -0.030056993 -0.09455051 0.096884124 0.081688665
0003e0 38 75 83 bc b4 4e de 3d 11 48 3c 3d cb 82 f8 bb
       -0.016047105 0.10854855 0.045967165 -0.007583951
0003f0 f4 7c 63 3d 44 12 5b bd 7e 7e 60 bd 80 44 cd bc
       0.055539086 -0.053484216 -0.054808132 -0.025057077

lstm.weight_hh_l1 f4 [256, 64]
000000 b6 47 0a bb 5c fd 99 3d c3 fb dc bd 84 30 82 3d
       -0.0021099872 0.075190276 -0.10790207 0.0635691
000010 c7 62 d5 bd 41 63 be 3c cb c2 00 ba f2 ad f4 bd
       -0.10419231 0.023240687 -0.0004911839 -0.1194724
000020 57 53 e7 bd 80 90 be bc c5 2b ce bd bb 43 cc 3d
       -0.11295193 -0.023262262 -0.10066942 0.09973856
000030 d8 71 73 bd e5 10 0b 3d 75 8b 8f 3d 39 fa 69 bd
       -0.05943474 0.03395166 0.07009021 -0.057123397
000040 e9 76 c6 3d 3d 14 c5 bd af 44 be 3d ba ba 9a bd
       0.09690649 -0.09623001 0.09290444 -0.075551465
000050 6a 47 ae 3d 3c 26 74 3d 0e 19 91 bd fc d8 77 3d
       0.08509715 0.059606776 -0.07084857 0.060509667
000060 e3 91 b3 3d 78 08 3c bd 44 32 81 3d 05 60 b7 bd
       0.0876806 -0.045906514 0.063084155 -0.08953861
000070 96 95 07 be 64 4b 8c 3d ed 43 ae bd 90 f1 9b bd
       -0.13240656 0.06850317 -0.085090496 -0.07614434
000080 f6 d9 cf 3d 84 66 5e 3c 3a a6 50 bd bc 10 32 bd
       0.101489946 0.013574246 -0.050939776 -0.04347299
000090 c5 c7 82 bd 0d 23 05 bd 91 77 a8 3d 59 65 6d bd
       -0.06385759 -0.03250413 0.082259305 -0.05795798
0000a0 45 e4 6c 3d e7 14 58 bd 1b 88 d9 3c ab b7 c0 3d
       0.057834882 -0.05275431 0.026554158 0.09410032
0000b0 0b bf d5 3d f8 19 82 bd 39 0b f9 bd 68 88 98 bd
       0.10436829 -0.063526094 -0.12160344 -0.074478924
0000c0 66 d8 0d 3d d6 f6 28 bc 2d 47 79 3a 33 29 ca 3d
       0.0346302 -0.0103127565 0.0009509202 0.098711394
0000d0 64 18 eb bd dc 9e 01 3d 8b 88 c9 3b 79 de 65 3d
       -0.114792615 0.03164564 0.0061503104 0.05612037
0000e0 8a 34 73 3d 86 25 8d bd 63 b7 87 bc 7d 29 e7 bd
       0.059376277 -0.06891923 -0.016566938 -0.1128721
0000f0 27 8e e6 bd 02 54 3f 3d 1e 5d a3 bd a1 af b4 bc
       -0.11257582 0.046710975 -0.07976745 -0.022056403
000100 ff d7 d7 3c 50 c6 b7 3d e8 d7 e0 3d b9 bc 40 bd
       0.026348112 0.08973372 0.10978681 -0.04705498
000110 fe 37 a8 bd 27 a9 ef bd cf 0c 4c ba 57 62 64 bd
       -0.08213805 -0.11702185 -0.0007783891 -0.055757847
000120 59 84 d4 3d 5b bb 9e bd 7a 2d 8b bc c6 27 a4 bd
       0.10376806 -0.07750579 -0.016989458 -0.08015399
000130 3c 34 00 3e 80 31 0a 3e a5 a2 f1 3d aa 2d aa bd
       0.12519926 0.13495445 0.117986 -0.08309491
000140 d9 6a e6 bd 62 1f d9 bd 0d 69 2b 3d d8 7c ad 3d
       -0.11250848 -0.10601689 0.04184823 0.08471078
000150 ab b1 d7 bc ae 63 36 bd 0c 26 fd 3a 06 01 f1 3d
       -0.026329836 -0.044528656 0.0019313707 0.11767773
000160 73 7e 98 bd f7 0f 63 3d 7b 4d 4f 3d 22 c1 01 3d
       -0.07445993 0.055435147 0.050611 0.031678326
000170 78 41 aa 3d 5e a5 ce bd ae 1b 03 3d 25 4e a3 3d
       0.083132684 -0.10090135 0.03200882 0.07973889
000180 7b db e5 3d 99 2c cf bd 3b 71 df 3d b2 10 06 3d
       0.11223503 -0.10115928 0.10910269 0.032730766
000190 69 67 a7 bd 2a 05 4e 3d e4 fc 6e bc 9c 0a a1 bd
       -0.08174021 0.050297894 -0.014586661 -0.07863352
0001a0 a9 a9 26 bd d9 29 22 bd 7d 41 85 3d b5 e0 2c 3d
       -0.040689144 -0.03959069 0.065066315 0.042206485
0001b0 4a 5e 3e 3d bd 2d b6 bd 13 5c 04 3e c1 09 9d bb
       0.04647664 -0.08895443 0.12925749 -0.0047924225
0001c0 10 cd ea bd bf 01 7b 3d f0 6c d3 bd 3c f0 8d 3d
       -0.11464894 0.061280962 -0.103235126 0.06930587
0001d0 24 4f 0e 3d b7 41 5e 3c 93 8e 65 bc 9f 15 9d 3d
       0.034743443 0.013565472 -0.014011043 0.076701395
0001e0 9a f6 80 bb 00 d8 9d bd 7d 04 85 3d c4 70 f3 bd
       -0.003935647 -0.07707214 0.06494997 -0.11886743
0001f0 bf 70 95 3d 57 03 c8 bd 32 aa 0e bd d0 04 4d bd
       0.07296895 -0.09766262 -0.03483028 -0.050053418
000200 2f ff 28 bc 9c 95 ac 3d 5d a1 65 bd 3e 27 92 bd
       -0.010314747 0.08426973 -0.05606209 -0.07136391
000210 98 69 d0 bd d3 86 36 3d 22 52 ae bd 65 81 42 bd
       -0.101763904 0.044562172 -0.08511759 -0.04748668
000220 4f 6d aa bd 09 b1 e5 3c 63 e3 3d 3c a0 22 eb 3d
       -0.0832163 0.028038519 0.011589858 0.114812136
000230 64 88 f9 bc 5c 1c f7 3d 37 ba 41 3c 92 0a dc 3a
       -0.030460544 0.12065956 0.011824182 0.0016787818
000240 b0 d1 00 3d 82 ea dc bd ac f5 af bb f3 26 f9 3d
       0.031449974 -0.10786916 -0.0053698625 0.12165632
000250 ff f2 bb bb 84 21 41 bc e0 d0 69 3d ff c5 9c 3d
       -0.0057357545 -0.011787776 0.057083964 0.07654952
000260 db dc ed 3c 79 83 a2 3d 06 56 95 bd 35 a3 05 be
       0.029035976 0.07935233 -0.07291798 -0.1305054
000270 04 18 4f bd fe 23 06 3d 1f 58 8f bc d9 9b 05 3e
       -0.050560012 0.03274917 -0.017498074 0.13047732
000280 9f 17 80 3d 83 8b 0b bd 61 ab 96 bd a8 bf ac 3d
       0.06254505 -0.034068596 -0.07356907 0.08434993
000290 5b 42 f6 bc ed 9a ab 3d 04 9e 8d bd 1a ea bd 3c
       -0.030060938 0.08379159 -0.06914905 0.023182917
0002a0 b8 86 d4 3d 17 e3 2d bd 9d 37 03 3e 4b ff 32 bd
       0.10377258 -0.042452898 0.12814184 -0.043700498
0002b0 6a 1a c0 3d f1 40 81 3d fc 1e 34 bd 87 1f bf bd
       0.09380038 0.06311215 -0.04397486 -0.09332185
0002c0 7a 46 c0 bd 83 8e 9d 3d 8e c2 7c 3d 56 ad 64 bc
       -0.09388442 0.076931976 0.06170898 -0.013957342
0002d0 1d 70 d2 bd 00 56 08 3d 8e 7c c8 3c b8 57 da bd
       -0.1027529 0.03328514 0.024473455 -0.10661262
0002e0 c1 b2 b5 3d d8 5d 84 bd a2 8b b6 bd 69 16 00 3d
       0.08871985 -0.06463212 -0.089133516 0.031271372
0002f0 8a 79 c2 3a 16 8f b3 3b c4 f5 e8 b9 03 47 d6 3d
       0.0014837247 0.0054797037 -0.00044433598 0.10462763
000300 0d 60 e9 bc ff 8a be 3d 1a 61 93 bd b0 6e 61 3d
       -0.028488183 0.09303855 -0.07196255 0.0550372
000310 1f 12 92 3d d3 72 0e bc bf 0e 95 bd 99 44 a9 3b
       0.071323626 -0.008694368 -0.07278203 0.005165648
000320 e8 72 1d 3d 32 18 f8 bd dc 64 66 3d a6 ce e2 bd
       0.03843966 -0.1211399 0.05624853 -0.11074571
000330 81 25 95 ba 4f c8 b9 3d 75 36 60 3b 60 29 14 bd
       -0.0011378975 0.09071409 0.0034212146 -0.03617227
000340 42 f2 1a bc c8 ce f9 bb 9b 2a 75 3d a0 a6 3c 3d
       -0.009457173 -0.007623527 0.059855085 0.046057343
000350 a5 b1 88 3d 04 37 d0 bd 64 46 a2 3d 64 dd ee 3c
       0.06674508 -0.101667434 0.07923582 0.029158302
000360 35 c9 67 3d 0d 49 b1 bd 82 bf 12 3d de 15 ec 3c
       0.05658837 -0.086565115 0.035827167 0.02881902
000370 a1 1d 5c 3c 8a 9b 66 3d bd c5 ed 3d 9e 7a d7 3d
       0.013434798 0.056300677 0.11609981 0.10521434
000380 4d d5 69 3d 26 a0 12 3d 78 4e f5 3d ce 90 ba bc
       0.057088185 0.03579726 0.11977857 -0.022774126
000390 81 40 98 3d f0 ec 4a 3d eb be 57 bd da 7e 09 3c
       0.07434178 0.049542367 -0.052672308 0.00839206
0003a0 c3 03 05 3e fd df ae 3d e8 a5 ee bd c1 1d d7 3c
       0.12989716 0.08538816 -0.11652738 0.026259305
0003b0 f7 b5 e7 bd 59 5a 8e bd b1 94 ea 3c e6 c7 cc 3d
       -0.11314004 -0.06950826 0.028635355 0.09999065
0003c0 c9 89 c2 3b a8 8b ad bd 00 eb 24 3d 09 4b 71 3d
       0.0059368354 -0.08473903 0.040263176 0.05890945
0003d0 ec 0e 30 bd 10 a6 3c 3a de 5f aa 3d b7 cf 2f bd
       -0.04298298 0.0007196376 0.083190665 -0.0429227
0003e0 34 48 f5 bd 44 18 6c bd 88 7b f4 3d 98 71 14 bd
       -0.11976662 -0.05764033 0.11937624 -0.036241144
0003f0 ec c9 cd 3d 44 ea a0 3c 69 3f d2 3d 3d 8b d6 3d
       0.10048279 0.019642957 0.10266001 0.10475776

lstm.bias_ih_l1 f4 [256]
000000 a1 69 34 3d 5d 66 73 bd 32 fa 96 3d be 82 e4 3d
       0.044046048 -0.059423793 0.0737194 0.111577496
000010 12 21 13 bc e5 cd 99 bc d6 49 ad 3d f6 5b 8f bd
       -0.008980053 -0.018774936 0.08461349 -0.06999962
000020 88 4f 70 3d 75 e5 ec bc 80 79 80 3d 62 04 39 3d
       0.058669597 -0.028918007 0.06273174 0.045170195
000030 5c 26 d8 bc 6c 18 f9 bc 94 dc 71 bd 3c a9 77 3d
       -0.026385479 -0.030407153 -0.05904825 0.06046413
000040 05 fd da bd c8 36 ed 3d 8c 6f bf 3d a9 f7 e1 3c
       -0.10692791 0.11582714 0.09347448 0.027583914
000050 7f 23 0b bd e9 a7 b5 bd be 59 cf bd f6 4c ce bd
       -0.0339694 -0.08869917 -0.10124539 -0.10073273
000060 6d 45 41 3b 6d fe fe bd a5 91 85 bd 37 cd 4e 3d
       0.0029490844 -0.124508716 -0.0652192 0.050488677
000070 8b 3c a3 3d d9 e7 a8 bd d7 4b 1c bb 1b 1f e7 bd
       0.07970532 -0.082473464 -0.0023848915 -0.1128523
000080 68 65 bd 3c 3a 73 2e bc d6 ae cb 3d 23 14 85 bd
       0.023119643 -0.010647589 0.09945457 -0.064979814
000090 c0 75 e8 3d da ee c2 3d c5 69 0b 3d bf 91 ce bd
       0.11350584 0.095182136 0.034036417 -0.100863926
0000a0 b8 7d ca bd 23 40 c9 bd 53 32 c1 3d 62 9e 7d 3d
       -0.0988726 -0.09826686 0.09433427 0.061918624
0000b0 75 d0 c4 bb 35 a5 1a bc 62 73 f4 bd 95 b2 b8 3c
       -0.0060062953 -0.0094388025 -0.1193607 0.022546092
0000c0 f3 71 f5 3c 3c 9c 4c 3c 9a 35 d0 3d 11 b8 68 bd
       0.029961562 0.012488421 0.10166474 -0.056816164
0000d0 04 fb 52 3d e6 f5 d8 bd 65 14 d9 bd 57 79 47 bd
       0.05150892 -0.105937764 -0.10599593 -0.048699703
0000e0 b6 dd 41 bd 1f 49 c0 bd 07 37 fa 3c 7e 1a c3 bd
       -0.04733058 -0.09388947 0.030543817 -0.09526537
0000f0 bb da c1 bd f0 c3 f4 bd 00 41 8c bd d3 3d 77 3d
       -0.09465548 -0.119514346 -0.06848335 0.060361695
000100 ad 10 c6 bd d1 b3 02 be 5b b7 83 bb 15 95 82 bd
       -0.096711494 -0.12763907 -0.0040196604 -0.063760914
000110 f0 b1 ae 3c 62 2c f7 bd 33 15 f9 bd 0c 56 c6 3d
       0.021325082 -0.12069012 -0.121622466 0.09684381
000120 b2 c7 f2 3d 94 9b e5 3d d4 94 d5 bd b7 b4 b0 3d
       0.11854495 0.11211315 -0.10428777 0.086282186
000130 b7 07 2b 3d 22 77 d1 3d d5 4e 3d bd 64 c3 d0 3d
       0.041755404 0.10227801 -0.04621776 0.10193518
000140 2d 62 ba bd 4a 0a 88 3d 2d 8a 80 bd 15 a8 b9 3d
       -0.09100757 0.066425875 -0.06276355 0.09065262
000150 86 e0 83 bc 07 08 98 bd 57 42 a2 3d 68 82 fd 3c
       -0.016098272 -0.07423406 0.079228096 0.030945972
000160 b4 b2 01 be f5 25 03 bc cf dd 95 bc ea 0c 1b bd
       -0.12665826 -0.008004655 -0.018294243 -0.037854113
000170 fc 45 04 be d1 51 21 bd 62 ce 0d bd 6f 49 28 3d
       -0.12917322 -0.039384667 -0.03462065 0.041085657
000180 12 17 f2 bb 55 f1 02 bd 13 cf 69 3d c7 68 0b 3d
       -0.007388004 -0.031968433 0.057082247 0.03403547
000190 c7 80 ec bd 95 7e 6e 3d 4a 29 f8 3d bd 29 c0 3d
       -0.11548 0.058226187 0.1211725 0.09382961
0001a0 1a c4 89 3d c0 fe 62 3d d2 35 e1 bc 96 49 f0 3c
       0.067268565 0.05541873 -0.027491484 0.029331964
0001b0 1f bd c8 3d 24 52 7a 3c b5 95 3a bd 9a b5 df 3d
       0.09801697 0.015278373 -0.045552928 0.109233096
0001c0 f5 4d d4 3c 6b e0 a9 3d 4f 82 c5 bc 14 7d 1a bb
       0.025916079 0.082947575 -0.024109988 -0.0023573088
0001d0 26 22 d0 3d 2e cc 82 bd 4b 8e c0 3d c0 d2 c4 3d
       0.10162763 -0.063866004 0.0940214 0.0961051
0001e0 c2 8a ca bd 90 e4 d6 bd ec 62 92 3d 1a 95 f3 bd
       -0.09889747 -0.104928136 0.07147774 -0.11893673
0001f0 51 07 f5 3d 4c c8 b9 bd 5e 38 a4 3d ea 09 e0 bd
       0.11964286 -0.09071407 0.08018564 -0.10939391
000200 cc c6 d8 bd 3b b2 92 bc 1b 15 da 3c 91 e6 ce bd
       -0.105847925 -0.017907253 0.026621392 -0.10102571
000210 8d 13 c8 bd f2 a9 fa bb b1 4b b3 bd 81 84 d8 3c
       -0.09769354 -0.0076496536 -0.08754671 0.02643037
000220 a5 0a 38 3d b9 cc 5d 3d 0a 87 bb 3d fe 15 a1 bd
       0.044932026 0.054150317 0.09156616 -0.07865523
000230 99 9f 67 bd 91 41 ac bc 2e 98 bd 3d f0 6f ed bd
       -0.05654869 -0.021027358 0.092575416 -0.11593616
000240 e7 c8 cf bc 7e 76 3a bd c6 eb ba 3d a8 eb 59 bd
       -0.025364352 -0.04552316 0.091270015 -0.053203255
000250 31 8b 93 3a 4a 7c 80 bd 10 e3 d2 3d 78 8c ba 3a
       0.0011256692 -0.06273706 0.10297215 0.0014232537
000260 bd e2 af bd 2c 22 9e 3d 25 3d ce bc bf 4e 8a 3c
       -0.08588169 0.077213615 -0.02517564 0.016883252
000270 e8 c0 cf 3d b6 f7 d5 bd df b8 88 bc 4a aa f3 bd
       0.10144216 -0.10447638 -0.016689716 -0.118977144
000280 33 e3 9c 3d 3d 17 82 bd 98 21 c6 bd 7c 42 c0 3d
       0.07660522 -0.063520886 -0.09674376 0.09387681
000290 2e a4 eb 3d d1 bf e4 bd cd 48 40 3a ff 88 73 bd
       0.11505924 -0.111693986 0.0007335067 -0.05945682
0002a0 28 6b 99 bd 6d 65 f0 bd 08 43 2b bd 45 d6 cf bc
       -0.074911416 -0.117380954 -0.041811973 -0.025370726
0002b0 60 cf c7 bd 4f 69 60 3d 2c 0e ff bd 77 ee c6 3d
       -0.097563505 0.05478793 -0.12453875 0.09713452
0002c0 24 f8 c3 3d 5b c5 40 3d c4 2e 99 bd b7 fc 93 3d
       0.095688134 0.047063213 -0.07479623 0.07225936
0002d0 b5 43 72 bd f7 e4 ff bd 3c 1f 34 bc 9f 1b a8 3d
       -0.0591466 -0.124948435 -0.010993775 0.08208393
0002e0 f4 8f dc 3d 2c e7 54 3c 8d 79 e7 bd fe b3 ca 3d
       0.107696444 0.012994569 -0.11302481 0.09897612
0002f0 29 c2 98 bd 00 77 f2 bc db ee 8b bd 04 2a 98 bd
       -0.07458908 -0.02959776 -0.068326674 -0.07429889
000300 b6 aa 9d 3d 5c 84 90 3d d4 3f a2 3d b9 27 d8 3d
       0.07698576 0.070564955 0.079223305 0.105544515
000310 3f ea 93 bd c1 90 a6 3d 0d 6f 9b 3d 4b 2e 32 3d
       -0.07222413 0.08133078 0.07589541 0.04350118
000320 cb 68 0c 3c 65 aa 1c 3c 31 e9 e7 bd e8 3a bf bd
       0.0085699065 0.00956211 -0.113237746 -0.09337407
000330 bd f8 68 bd 7c 4c 7b bd 04 0f e6 3d bf b6 19 bd
       -0.05687784 -0.061352238 0.11233333 -0.037527796
000340 e2 43 f2 bd 4b b2 8d bd 2a da be bb 0c 5f 96 3d
       -0.11829354 -0.06918772 -0.005824347 0.073423475
000350 a0 c6 d1 3d fd 2a 99 bc 7b 36 d9 3d 45 37 70 3d
       0.10242963 -0.018697256 0.106060944 0.05864646
000360 e6 65 8d 3d 44 e8 d1 3d 12 ef a2 bd cd 0f 4a bd
       0.06904201 0.10249379 -0.07955755 -0.049331475
000370 0c d4 4a 3d a0 28 0f bd 66 7e 87 3b 37 4c 29 bc
       0.04951863 -0.034950852 0.004134941 -0.010333112
000380 56 11 ee bd ca 49 d4 3d 0c 50 92 3d 20 8f d2 bd
       -0.116244 0.10365637 0.07144174 -0.10281205
000390 73 63 b4 bd 8a c9 39 bb 1a c0 c5 bd 07 81 6c bd
       -0.08808031 -0.0028348886 -0.09655781 -0.057740238
0003a0 36 e2 f6 bd bf 7f 55 bd 88 35 f9 bd 40 56 fe 3d
       -0.12054865 -0.05212378 -0.121684134 0.12418795
0003b0 c6 d5 85 3d 03 8f bf 3d eb 26 02 be 66 44 c3 bd
       0.06534915 0.09353449 -0.12710159 -0.0953453
0003c0 01 1e 9b 3d b0 07 f0 bb 85 c5 39 bd 6e c9 84 3d
       0.07574082 -0.007325135 -0.045354385 0.06483732
0003d0 69 27 9a 3b 05 b5 a4 3c 00 3b 2d bd b8 f2 91 3d
       0.004704405 0.020105848 -0.042292595 0.07126373
0003e0 8e d1 0b be f7 3f c5 3d a1 c2 bb bd 04 5a 81 bc
       -0.13654158 0.09631341 -0.09167982 -0.015789993
0003f0 ba 5a 28 3d c2 0f aa 3d 23 f5 42 3c 98 50 72 3d
       0.04110215 0.08303787 0.011899265 0.05915889
