reports/day3/RNN.pt (torch, 54085 bytes, 9 tensors)

rnn.weight_ih_l0 f4 [64, 1]
000000 51 44 45 bd 81 1b 88 3c 08 ba af bc f7 32 a1 bc
       -0.048160855 0.016614677 -0.021451011 -0.019677622
000010 06 b8 9e bd 70 d7 c6 bc ff 22 af 3b f8 aa 51 bd
       -0.077499434 -0.02427265 0.005344748 -0.05118844
000020 e3 86 d3 3c a5 9a 99 bc b0 d6 ce 3c f2 10 b0 3c
       0.025821155 -0.018750498 0.025248855 0.021492455
000030 41 de 40 bc 81 98 cc bd de b1 6b 3d 6f 8c 67 bd
       -0.011771739 -0.09990025 0.057542674 -0.056530412
000040 fa 76 ae bb e4 8c 50 3d 7f 4e e6 3c 70 c0 81 bd
       -0.0053242417 0.050915614 0.028113602 -0.06335533
000050 19 73 84 bc 03 c9 73 bc 93 96 8e bd d1 d0 c0 bc
       -0.016168164 -0.014879468 -0.069623135 -0.023537071
000060 5e 94 8f bd 34 bc 56 bd e5 98 12 3d bb 56 db bb
       -0.07010721 -0.05242558 0.035790343 -0.0066936887
000070 e6 05 48 3d cb b0 16 bd 89 99 25 bd da 45 d3 3c
       0.04883375 -0.036789697 -0.040429626 0.025790144
000080 24 b0 7d 3d 58 5d 84 3d 47 c7 17 3d f8 84 f5 bc
       0.06193556 0.064631164 0.03705528 -0.029970631
000090 11 a3 41 3d bb e4 37 3d 81 83 14 3d 73 62 9e 3d
       0.047274653 0.04489587 0.036258224 0.077336214
0000a0 35 33 59 bd f7 af ea 3c 0f 4a 23 bd 4b fd 92 bc
       -0.05302735 0.02864836 -0.03986555 -0.017943045
0000b0 58 f9 68 bc 94 03 4d bc 86 b1 62 3d 85 01 f9 bd
       -0.014219604 -0.01251306 0.05534508 -0.12158493
0000c0 69 ac af 3c 60 b4 37 bd 70 5b 0e bd ab 26 27 bc
       0.021444516 -0.044849753 -0.03475517 -0.01020209
0000d0 56 d8 49 3c 34 f3 b8 3a 2c 08 4e 3b 73 7f 4e bd
       0.012319645 0.0014110566 0.0031437976 -0.050414514
0000e0 f0 99 5c 3d fc 6a 0d be 84 9a 51 bd dd 25 56 bd
       0.053857744 -0.13810343 -0.05117275 -0.052282203
0000f0 14 60 10 3d 4d 74 b2 bc 50 f7 8e bd 71 c7 28 3d
       0.035247877 -0.021783972 -0.06980765 0.041205827

rnn.weight_hh_l0 f4 [64, 64]
000000 5e 95 2c bd 21 ab af bd 1f db 80 3d 38 cf 96 3d
       -0.042134635 -0.08577562 0.06291794 0.073637426
000010 ac 7d ae bd 3a f6 08 3e ad eb e3 3d de 2e b7 bc
       -0.08520064 0.13375178 0.11128936 -0.022361215
000020 f1 d8 5a 3d 1b 7f 44 3d 11 ba 48 bd 03 bb e0 3d
       0.053429548 0.04797278 -0.04900557 0.1097317
000030 ef b2 e0 bd 20 43 93 bd c8 d0 b8 3d 93 a9 81 bd
       -0.10971629 -0.071905375 0.09024197 -0.06331172
000040 0d 07 54 bc b6 7d 6c bd 5c 4e b3 3c b1 60 9b bc
       -0.012941134 -0.057737075 0.02188795 -0.018967004
000050 c0 c2 e3 3d 36 4f 22 3d 89 b9 00 3e cf 02 7d 3d
       0.1112113 0.039626323 0.12570776 0.061770257
000060 74 6e c9 3c df 08 df 3d 37 de 98 bd 77 e5 dc 3d
       0.024588801 0.10890364 -0.07464259 0.107859544
000070 f0 b7 a2 bd b9 a3 83 3d b1 5b 82 bd 74 cd fe bd
       -0.079452395 0.06427712 -0.06365145 -0.12441531
000080 47 2a b9 3d f5 68 30 3d f3 eb 60 3d 00 c7 a9 3d
       0.09041267 0.043068845 0.05491252 0.08289909
000090 cf 63 2f bd 1b 09 9f 3d b8 fa a3 3c 1e b9 07 bd
       -0.042819794 0.077654086 0.020017013 -0.033135526
0000a0 47 63 81 3d 3e d5 a7 bd dc 57 5b 3d f7 bb 21 3d
       0.06317764 -0.081949696 0.053550586 0.039485898
0000b0 26 c0 87 bd 60 70 b2 3c 76 32 b5 3d d8 43 bd 3d
       -0.06628446 0.0217821 0.08847515 0.09241456
0000c0 d1 60 f6 3d f1 1d ec 3d 6b 43 bd bd 2f 99 ee 3d
       0.12030185 0.11529148 -0.092413746 0.11650311
0000d0 70 2d da bd f7 9c 40 bd 60 a2 b4 3d 3e 3b 0b 3d
       -0.10653198 -0.047024693 0.08820033 0.033992045
0000e0 a2 41 b4 3d 6d 35 86 bd 82 97 31 bd 23 d8 0f bd
       0.08801581 -0.06553159 -0.04335738 -0.035118233
0000f0 53 41 ef 3d de 61 ba 3d d0 11 22 bc 1e 80 b6 bd
       0.116823815 0.09100698 -0.009891942 -0.08911155
000100 e6 10 b3 bd 8b 83 8a bd 8b 4f ee 3d fa b4 f5 3c
       -0.087434575 -0.06763371 0.11636265 0.029993523
000110 cc 13 c0 3c 6a d3 f4 3d 5a 41 c1 bd 6c 15 90 bd
       0.02344694 0.119543865 -0.09436293 -0.07035336
000120 be 26 a0 3c 45 a1 c6 bc 1e 3d 93 bd 60 bc 36 3d
       0.019549724 -0.024246821 -0.071893916 0.044613242
000130 54 3a 9a bd 20 d4 cb 3b 04 96 9b bd d3 3d ca 3d
       -0.075306565 0.0062203556 -0.075969726 0.09875073
000140 dd d0 e1 bd 06 fc 66 bd 7d d5 d1 bd 66 b1 2c 3d
       -0.11026166 -0.056392692 -0.10245798 0.042161368
000150 d8 9a 9b bd 04 33 28 bc 3b 9b 30 3c 9d 7e 9e 3c
       -0.075978935 -0.010266069 0.010779197 0.019347483
000160 e6 99 0e 3d a7 80 ee bd 0f 29 a7 bc 8f 44 86 bd
       0.034814738 -0.11645632 -0.02040532 -0.06556045
000170 98 af a6 3d 89 c0 35 bd d2 92 4c 3c 3f 63 ad 3a
       0.081389606 -0.04437307 0.012486177 0.001322843
000180 a8 db b7 3d 76 cb 9c bd f7 80 b6 3d bd 5a 31 bc
       0.08977443 -0.076559946 0.08911317 -0.010824856
000190 e6 d0 7e bd 34 5f 15 3c 9c 2d ac bd 39 ee dd 3d
       -0.06221094 0.0091169365 -0.08407137 0.10836453
0001a0 3b 58 b0 bd 30 0a c7 3c ae 8b 47 3c 40 e0 aa bd
       -0.086105786 0.02429685 0.012179298 -0.083435535
0001b0 75 05 c1 bd f2 09 df bd 14 c5 a3 3d c0 12 84 3c
       -0.09424869 -0.10890569 0.07996574 0.016122222
0001c0 2e 85 a2 3c b6 f8 e1 3d e9 f2 95 3c 74 4f b2 3d
       0.019838896 0.11033766 0.018304305 0.08706561
0001d0 4a d9 6b bd a4 0a f8 bc 1e 1e b5 3d 3f 22 d3 3d
       -0.05758027 -0.030278511 0.08843635 0.10309266
0001e0 5b 9a dd 3d 5c 37 f3 bc c5 a6 94 bd e4 e8 ff 3d
       0.108204566 -0.029689483 -0.07258371 0.12495592
0001f0 75 d9 84 3d c0 6d 31 3c 19 c1 e4 bb 37 33 3c 3d
       0.06486789 0.010829389 -0.006981027 0.04594728
000200 34 f4 ca bd ea e8 8e 3c 4e 4b b8 3d 21 74 59 3d
       -0.09909859 0.017445046 0.08998738 0.053089265
000210 3f 50 11 3d 5b 1b ea bd c8 4f e0 3b b6 90 60 3d
       0.03547692 -0.11430999 0.006845448 0.054825507
000220 5a 22 b1 bd bb 8b 3d bd 7b ba 30 bd 8d ad b6 bd
       -0.0864913 -0.046275835 -0.04314659 -0.08919821
000230 11 7b 67 3d 9a bb d2 3d f8 8a 51 bc eb bb 61 3d
       0.05651385 0.102896884 -0.01278948 0.055110853
000240 7b 33 86 3c b1 6d dc bd 50 65 ed bc 1f b2 f6 bd
       0.01638197 -0.107631095 -0.028978974 -0.12045693
000250 0f 6f 23 bc 92 df 8e bd 99 31 92 3d 3d a4 77 3d
       -0.009975209 -0.069762364 0.07138366 0.060459364
000260 38 5e 88 bd b3 33 ab 3d d4 8f a9 bd 97 d3 4d bd
       -0.06658596 0.0835947 -0.08279386 -0.050250616
000270 04 bb 90 bb d8 38 c6 bd c2 fb df bd 08 7a 72 bd
       -0.0044168252 -0.09678811 -0.10936691 -0.05919841
000280 ef a3 a9 bd 39 96 2f bd 93 28 65 bc c5 e2 6b bd
       -0.08283221 -0.042867873 -0.013986724 -0.05758931
000290 be 43 77 bd b0 6e c9 3c 14 a2 a3 bd 1a 0b bc bd
       -0.06036734 0.024588913 -0.07989898 -0.09181805
0002a0 63 4e 80 bd 72 9e cf 3d 7b 34 bc 3d 07 0b ed bd
       -0.06264951 0.10137643 0.09189697 -0.11574369
0002b0 1e 11 eb 3b 77 51 c2 bd a2 49 9d bc 40 75 5e 3d
       0.0071736714 -0.094881944 -0.01920015 0.054311037
0002c0 a7 33 ba bd 0a 3d 88 bc 31 d7 97 bb 19 0e a9 bd
       -0.09091883 -0.016630668 -0.004633807 -0.08254642
0002d0 8d a3 bf 3c af dc 4f bd ef 84 87 3c e0 46 04 3d
       0.023393417 -0.05074757 0.01654288 0.032294154
0002e0 59 aa 77 3d 38 aa f4 bd 83 c9 00 3e 4d 2d 29 3d
       0.06046519 -0.11946529 0.1257687 0.041302968
0002f0 ea eb b0 3d 59 16 a3 bc 7a a9 db bd 15 01 95 bd
       0.08638747 -0.019908117 -0.107256845 -0.07275597
000300 0d 22 fe bb 87 c3 7e bd 79 f4 5d bd 68 2b 1a bc
       -0.007755524 -0.06219819 -0.054188225 -0.009409763
000310 7e ab 8c bd 1d 31 b9 ba 7e f1 92 bc 8c a4 20 3d
       -0.06868647 -0.0014129017 -0.017937418 0.039219424
000320 82 46 92 3c 4c f2 33 3d 20 f7 1f 3d a8 1f d5 3d
       0.017855886 0.043932244 0.039054036 0.104064286
000330 7a b2 82 3d a4 1a b3 bd 13 73 d2 bd 75 01 89 bd
       0.06381698 -0.08745316 -0.10275855 -0.06689731
000340 ca 84 bb bd cf 8b d0 bc 30 4c 31 bd 4d ad b6 bd
       -0.09156187 -0.025457291 -0.04328555 -0.08919773
000350 8b 4b 98 3c d4 f3 ef bc 0a 08 02 3e 06 4b e5 3d
       0.01859071 -0.029291071 0.12698379 0.1119595
000360 dd 5f 3d 38 15 55 a5 3d 4c b1 bf 3d 16 30 03 3d
       4.515039e-05 0.08072869 0.093599886 0.03202828
000370 3a c2 07 b8 b3 1f 26 3d 19 46 46 3c 22 94 96 bd
       -3.2367396e-05 0.040557574 0.0121016735 -0.07352473
000380 14 98 6f bd 49 d5 63 3d bd 14 d9 3d 83 e2 b8 3d
       -0.058494642 0.055623326 0.10599659 0.09027579
000390 b7 4e b7 3d 3b f5 de 3d d5 c4 c4 bd 5a fb ec 3c
       0.089505605 0.10886618 -0.09607855 0.028928448
0003a0 19 dd a8 bd 72 50 b9 bd 64 68 af 3c 81 9f fe 3b
       -0.08245296 -0.09048547 0.021412082 0.007770479
0003b0 29 c0 89 bd 73 04 ba 3d 5f 43 8c 3b ae c8 10 bd
       -0.06726105 0.0908288 0.004280492 -0.035347633
0003c0 40 c3 dd bc 4b 47 82 3d 00 08 ac 3d c8 cb 3f bd
       -0.027070642 0.06361254 0.083999634 -0.0468252
0003d0 f8 16 a5 3b 0c 43 0b bd be 81 c5 3d 4f 02 8f 3a
       0.0050381385 -0.033999488 0.09643887 0.0010910722
0003e0 82 74 95 bd c4 42 bc 3c 74 ac ed bd 29 a4 82 bd
       -0.07297613 0.022981055 -0.116051584 -0.06378967
0003f0 65 99 1b 3d 3d f9 b3 3c c4 2f 92 bd b2 2a 0a bb
       0.037988085 0.021969432 -0.07138017 -0.0021082577

rnn.bias_ih_l0 f4 [64]
000000 55 21 4c 3b 6e de 05 bc e5 c9 bb 3d de 55 57 3d
       0.0031147797 -0.008170707 0.09169368 0.052572124
000010 e0 55 e1 3d 40 2b 7c bc 87 92 ec 3d 8b fc 78 bd
       0.110027075 -0.015391171 0.115513854 -0.06078772
000020 94 6b 48 bd b8 8a 2b 3d 8a ca f9 3c 07 4a e5 3d
       -0.04893072 0.04188034 0.030492086 0.1119576
000030 57 ce 4e bd 95 cb 32 3d f3 bb bc 3d fd 11 83 3d
       -0.05048975 0.043651182 0.09215536 0.06399915
000040 70 7d ef bc f3 0c 56 bc 00 03 24 3d 54 d5 d8 3d
       -0.029234618 -0.013064611 0.040041924 0.10587564
000050 40 2f d8 3d 95 9c 09 3d e6 b5 98 bd 97 81 49 bd
       0.10555887 0.033596594 -0.074565694 -0.049195852
000060 44 6e ec 3d 67 fb af bd 88 23 68 3d ea 8b 9d bd
       0.11544469 -0.08592873 0.05667451 -0.07692702
000070 ab 6b 39 bd 62 0a 90 3d 79 9c 70 ba 06 1d 85 3d
       -0.045268696 0.0703323 -0.00091785897 0.064996764
000080 c2 32 72 3c dd ce 88 3d c0 f5 94 bd 09 98 63 3d
       0.014782609 0.06680081 -0.072734356 0.055564914
000090 7b b6 48 3d c5 45 84 3d 6a fd 23 3d 96 e5 ba bd
       0.049002152 0.0645862 0.040036596 -0.09125821
0000a0 a4 33 17 bc fc 6c 50 3d 8c d3 31 3d 9c b6 ca 3d
       -0.009228621 0.050885186 0.043414637 0.09898111
0000b0 3b 6e be bd f4 a8 b4 3d 0d 47 08 3d 8f 0f 1f 3d
       -0.092983685 0.08821288 0.033270884 0.038833197
0000c0 70 a4 39 3c aa 17 4c 3d ef 4a b3 bc 12 20 17 bd
       0.011330709 0.049827255 -0.021886317 -0.03689582
0000d0 65 91 9f 3d 11 40 ec 3d b3 6a b8 bd db 96 bf bd
       0.07791404 0.11535657 -0.09004726 -0.09354945
0000e0 a9 cf a7 3c 43 bc a1 3d 54 58 ff bb 08 b7 8b bc
       0.020484762 0.07897236 -0.007792512 -0.01705505
0000f0 f3 17 48 3a eb ba 82 3b 43 91 e0 3c 6b ae 0e bd
       0.0007632963 0.0039895675 0.027413016 -0.034834307

rnn.bias_hh_l0 f4 [64]
000000 0a 0b c3 bc 00 98 c5 bd f7 94 6d 3c 83 0a 91 3c
       -0.023808975 -0.09648132 0.014500848 0.017705208
000010 a4 1a c5 bd 54 77 5a bc a8 16 3e bd a5 4b fb bc
       -0.09624222 -0.013334114 -0.046408325 -0.030675719
000020 bc 7d b5 bd f7 28 b0 bd 67 37 c7 bd a4 cd 1e bd
       -0.088618726 -0.086015634 -0.09727364 -0.038770333
000030 7a 02 e0 bd d0 1d bd bd 2f 7b d4 bd a9 48 e6 bb
       -0.10937972 -0.09234202 -0.10375058 -0.0070277047
000040 c7 05 94 bc c0 97 c8 3d 1d 7d 5d bc 5a ec ba bd
       -0.018069161 0.09794569 -0.013518599 -0.09127112
000050 d2 b2 96 3d 3c b7 dd bd 92 59 35 bd b7 b4 eb bc
       0.07358326 -0.10825965 -0.044274874 -0.028772695
000060 81 de 28 3d ba 36 2f 3d 0b 92 83 3c bf bc a1 ba
       0.04122782 0.0427768 0.01606085 -0.0012339576
000070 fa 72 d6 3d c1 9f d5 bd 62 e4 9e bd 7f f7 e7 3d
       0.10471149 -0.10430861 -0.07758404 0.11326503
000080 9b 98 a7 3d 5b e0 4b 3d 16 68 26 3c 4b e6 d3 bc
       0.08183404 0.04977451 0.010156652 -0.025866648
000090 55 4b d6 3d 5f 56 8b 3d 21 40 9a bb d3 52 be bd
       0.10463587 0.06803583 -0.004707352 -0.09293141
0000a0 56 7c 53 bd 7e 85 95 3b 91 31 f6 3d 7d 01 b1 3d
       -0.051632248 0.0045630326 0.12021173 0.08642862
0000b0 76 98 e1 bd 82 9e 2d 3d 31 03 3d 3d 11 cc 9c bd
       -0.11015408 0.042387493 0.04614562 -0.0765611
0000c0 1e b5 a4 bd 6f 4a 93 3d b0 60 8e 3d 05 85 0b 3d
       -0.08042358 0.071919315 0.069520354 0.034062404
0000d0 9a 14 34 bd 32 b3 8a bd 18 95 b2 3b 16 d4 c2 3d
       -0.04396496 -0.0677246 0.0054499023 0.095131084
0000e0 b3 68 83 bd 23 d3 a0 3d 8e c7 cc bd 4c de 1a 3d
       -0.06416454 0.07852771 -0.099989995 0.037809655
0000f0 5e f6 65 3d 20 09 32 bd 91 f8 d0 3d 3d 6f 6c 3d
       0.056143157 -0.043465734 0.1020366 0.057723273

rnn.weight_ih_l1 f4 [64, 64]
000000 a6 a1 2f bd 2f 84 88 bc 23 c6 2b bc 76 f4 c1 3d
       -0.04287877 -0.016664593 -0.010484251 0.09470455
000010 aa f9 9c 3d a4 3b 50 bd 2c d0 f9 bd 30 fd bc bd
       0.07664807 -0.050838128 -0.12197909 -0.09227979
000020 3a 3c bc bc 4c a5 1e 3d e3 a7 78 bd fa e4 b7 3d
       -0.022977937 0.038731858 -0.060706984 0.08979221
000030 6b b7 97 bd 07 f0 a2 bd 32 e7 b8 bd 00 96 9e bd
       -0.07408031 -0.07955938 -0.09028472 -0.07743454
000040 3c 72 3c 3d 9a 6c 90 bd be f7 71 3d ad 4d d4 bb
       0.04600738 -0.07051964 0.059074156 -0.0064789862
000050 87 a2 f1 bd 29 ed 5c bc a0 c5 1c bd 21 6e 98 3d
       -0.11798578 -0.013484278 -0.038274407 0.074428804
000060 fe 1f 5b bd b2 3d c0 bd 68 28 80 bd 70 91 de bd
       -0.053497307 -0.093867674 -0.06257707 -0.10867584
000070 bb ec dd 3b 08 b1 29 3d 18 68 b6 3c 6a dd e7 3d
       0.0067726052 0.041428596 0.022266433 0.11321528
000080 c3 b4 91 3d a0 53 92 bd 8c 25 5a bd eb 2b c6 3d
       0.07114556 -0.071448565 -0.053258464 0.096763454
000090 c2 f6 d5 bd fb 67 56 3d 45 bc bb bc 63 0e 96 3d
       -0.10447456 0.052345257 -0.022916922 0.07326963
0000a0 b4 86 c2 3d 5e ad 45 bd 5b d2 51 bc 83 46 ca bb
       0.09498349 -0.04826104 -0.0128065 -0.0061729564
0000b0 95 75 f3 3d 57 fe 4f bd 3c ad 2f bd fa 0a ad bd
       0.11887661 -0.050779667 -0.04288982 -0.08449359
0000c0 1a c7 77 bd 6a c6 d1 3d 95 ab a4 bd a8 c7 83 3d
       -0.060492612 0.102429226 -0.08040539 0.06434566
0000d0 fa 11 ce 3c ec 26 3e 3d da 33 f0 bc 4a e2 ac bd
       0.025155056 0.046423838 -0.0293216 -0.08441599
0000e0 ab 90 f1 bc 04 5d 92 3d 31 92 72 3d a6 c9 17 3a
       -0.029487928 0.071466476 0.05922145 0.0005790241
0000f0 9f 63 db bd 5a 4d e4 3c ff db 04 3d d2 d2 92 bd
       -0.107123606 0.027868915 0.032436367 -0.07169117
000100 82 fe d0 3d ba da df bd 5f d7 4b bd be f3 a5 3d
       0.102047935 -0.10930391 -0.04976594 0.08103131
000110 d5 06 a8 bd fc b6 6d 3a 1e 43 b3 bd ce 40 31 bd
       -0.08204428 0.00090680993 -0.08753036 -0.043274693
000120 0d 16 99 3d 57 9a 9e 3d 2c 1b 47 bc 98 5b 04 bd
       0.07474909 0.07744282 -0.012152474 -0.032313913
000130 17 ec 7e 3d 25 65 e8 bd 8f a2 ce bd f4 8b f9 bd
       0.06223687 -0.11347417 -0.10089599 -0.12184897
000140 ae f6 84 bb dc bc 76 3c f4 47 c2 bd 02 e8 91 3d
       -0.004057727 0.015059676 -0.0948638 0.0712433
000150 c4 35 83 bd 3b 97 9b 3d c9 6b a1 3d 4d 1b 47 bd
       -0.06406739 0.07597204 0.078818865 -0.04861002
000160 82 0b e7 bd 54 af d3 3d df 30 c4 3d 8d be 60 bc
       -0.11281492 0.103361756 0.09579634 -0.013717306
000170 66 ef e3 bd ae 3c 58 b9 39 a9 d3 bc 76 f1 6a 3d
       -0.11129646 -0.0002062197 -0.025837528 0.05735918
000180 08 b7 e1 3c 85 fa 0a 3d 3e 9d d7 3b c9 e5 d1 3c
       0.027553096 0.03393032 0.006580024 0.025622265
000190 00 c7 a4 3d eb fa f4 3d 07 02 dd 3c bf 6e be bd
       0.08045769 0.11961921 0.026978506 -0.09298467
0001a0 0d d0 49 3c 27 72 c9 bc f1 17 f5 bd c3 aa 9e bd
       0.01231767 -0.024590565 -0.11967457 -0.07747414
0001b0 06 af 81 3d 1b 6c ee 3d de 81 1f bc 47 fa df bd
       0.06332211 0.11641713 -0.009735553 -0.109364085
0001c0 bc ac fc bc d6 51 a7 bd bd 3b 9f 3d b9 41 b5 bd
       -0.030844085 -0.08169906 0.07775066 -0.08850426
0001d0 5b 1c f8 bc e8 16 32 bd 25 26 a8 bc 53 e0 81 3d
       -0.030286958 -0.043478876 -0.020526001 0.063416146
0001e0 3c 93 a7 3d 78 95 4c 3d da 13 75 3d c7 61 ac 3d
       0.081823796 0.049947232 0.059833385 0.08417087
0001f0 4a 13 9c bd f5 d2 bc 3d 98 d6 33 3d 90 41 91 bd
       -0.076208666 0.09219924 0.043905824 -0.07092583
000200 f7 54 ab bd a5 5c e1 bd 43 cb b6 bd 4a 43 36 bc
       -0.08365815 -0.11003999 -0.08925488 -0.011124441
000210 20 fb c0 3d 35 2c 8b bc 3e 7f a7 3d e1 e5 c0 bd
       0.09422898 -0.016988853 0.081785664 -0.09418846
000220 18 b3 93 3d fb 93 e5 3d db 77 a8 bd 71 84 f1 bc
       0.07211894 0.11209866 -0.082259856 -0.029482098
000230 62 47 c4 bd a6 91 f9 3d c5 af cc bd b3 8c 51 3c
       -0.09583928 0.12185983 -0.09994463 0.012789893
000240 60 c9 c2 ba 57 ec f5 3c b9 db 2f 3d 49 b3 b3 bd
       -0.001486104 0.030019922 0.042934153 -0.0877443
000250 5e 3f 9b bd 8f 78 21 bd 04 05 d7 bd f4 c7 fe 3d
       -0.07580446 -0.039421614 -0.104990035 0.12440482
000260 69 c3 bd 3c 62 c3 e1 3d 37 90 d3 3d 2c ed aa 3d
       0.023164468 0.110235944 0.10330241 0.08346018
000270 39 78 88 3d ee 78 e0 3d f9 97 8c bd e9 f1 f3 3d
       0.06663556 0.109605655 -0.06864924 0.11911375
000280 3c b5 10 3d d1 ef 1e bd 30 60 84 bd e7 50 8a bd
       0.03532909 -0.038802925 -0.06463659 -0.06753712
000290 66 c5 bc 3d 7c 08 d6 bd a1 04 05 bc 42 7b 99 bd
       0.09217338 -0.10450837 -0.008118779 -0.07494213
0002a0 3b e1 e3 bd 55 1a a2 bd d2 24 5f bc a2 0d 04 3d
       -0.11126944 -0.07915179 -0.0136196185 0.032239564
0002b0 a1 51 47 bd 7c 45 8b 3d 2a c6 ee 3c f5 48 76 3d
       -0.04866183 0.068003625 0.029147226 0.06012817
0002c0 fb 78 eb 3c 85 bd 29 bd 7c 39 25 bd c5 06 11 3c
       0.028744211 -0.041440506 -0.040338024 0.008851712
0002d0 f8 5f 7d bd 8b 5c 9b bc c4 0a c6 bc d8 69 44 3c
       -0.0618591 -0.018965026 -0.024175055 0.011988126
0002e0 52 09 a9 bd bf db fd 3d 22 95 d7 3b fa 3e 94 bd
       -0.08253731 0.12395429 0.0065790573 -0.07238574
0002f0 df c1 8c 3d e5 07 38 3d f4 c1 6f 3d d8 e7 51 3d
       0.068729155 0.044929404 0.058534577 0.051246494
000300 2e ca f4 bd 48 e4 99 bd 96 dc 1d 3d 5f 05 6a bd
       -0.11952625 -0.07514244 0.038540445 -0.05713403
000310 bb f2 a1 3c 2a 19 9c bd 3c 27 74 3b 8a 76 9c bd
       0.019769063 -0.07621987 0.003725483 -0.07639797
000320 3a 41 37 3d 39 2d c6 3d c4 88 c9 bd 93 c8 93 3d
       0.04473994 0.09676594 -0.09840539 0.07215991
000330 fd 06 ac 3a 49 b0 c6 bd 7a a5 60 bd c5 3a 9f bd
       0.0013124641 -0.097015925 -0.05484531 -0.07774881
000340 ba 0f 3e bd 44 99 5f bd 6a 3c c9 3d 0a 29 f7 bd
       -0.046401717 -0.054589525 0.09825976 -0.120683745
000350 06 87 9f 3d 1b 57 f0 3d db 52 eb 3d 0f 4e 9d 3d
       0.077894256 0.11735364 0.11490413 0.07680904
000360 c4 f0 97 3c 9c 10 70 bc ff 27 d2 bd f1 a3 5c 3d
       0.018547423 -0.0146523975 -0.10261535 0.053867284
000370 24 f6 82 3d 3f a3 bf bd 70 9b 80 bd 90 a3 23 bd
       0.06394604 -0.093573086 -0.06279647 -0.039950907
000380 7f bd b8 3d f7 38 6d bd 2e e2 34 bd 65 85 05 3d
       0.090205185 -0.057915654 -0.044161014 0.032597918
000390 d7 b5 a4 bb 65 26 33 3d 48 35 26 3c 47 58 8b bd
       -0.00502656 0.043737788 0.010144539 -0.06803947
0003a0 5d f1 e7 3d ee 78 d3 bd ff 76 f4 3c bf 53 47 bd
       0.11325333 -0.103258 0.029841898 -0.04866385
0003b0 dd 17 5c bd a0 83 2c 3d 4f 25 f5 bc 08 b1 b0 3d
       -0.053733695 0.042117715 -0.029925017 0.08627516
0003c0 8e 67 01 bd 06 7f 99 3d 9e 05 8d bd 67 df 90 bd
       -0.031592898 0.07494931 -0.06885837 -0.070738606
0003d0 bb 30 9b bd 51 13 3a bd 01 d6 0e 3b 8e c6 e0 3b
       -0.07577654 -0.045428578 0.0021795037 0.006859607
0003e0 98 c7 c1 bd e3 63 02 3e b7 2a 1a bd b2 67 7b 3d
       -0.094618976 0.12733416 -0.037638392 0.06137819
0003f0 52 0a 26 3d 2d d6 9e 3d 92 93 14 3d 3a 0a 1d 3b
       0.040537186 0.077556945 0.036273547 0.0023962394

rnn.weight_hh_l1 f4 [64, 64]
000000 79 66 f9 3d 14 34 90 bd 95 c2 38 bd a6 2f 80 3d
       0.12177748 -0.07041183 -0.045107443 0.06259088
000010 06 04 fa 3d 99 72 50 3d 61 d0 78 3d 84 ae fc 3d
       0.12207799 0.05089054 0.0607456 0.12337974
000020 1d 7f ac 3d 40 87 81 bc cd 97 cf 3d 77 89 de 3b
       0.084226824 -0.015811563 0.101363756 0.0067912894
000030 7b ac 8b bc 33 ad f9 bd 37 bd e3 bd fa b0 81 bd
       -0.017050019 -0.12191238 -0.11120074 -0.06332584
000040 a2 9c 2e 3b f9 b4 a6 bd 3a 0d d5 bd b3 d9 96 3d
       0.0026643653 -0.081399865 -0.104029134 0.073657416
000050 6d ab 1b bd 7d c0 88 bd a1 f7 ed 3d 9e 19 50 bd
       -0.03800528 -0.06677339 0.11619497 -0.05080568
000060 6c d5 31 3d d5 19 4c 3d 84 c3 a9 3d 59 4a 01 bc
       0.043416426 0.049829323 0.08289245 -0.007891261
000070 1f f1 82 bd 15 fb 88 bd b0 b9 c7 bd 5c 26 b7 bd
       -0.063936464 -0.06688515 -0.09752214 -0.08942863
000080 fe bd ae bd ad 1e d5 3c 70 e5 04 be 8c 76 00 3e
       -0.08532332 0.026015604 -0.12978148 0.12545222
000090 9e c4 76 bd 9d af e8 3d 77 f6 fb bd ed 43 e9 bd
       -0.060246103 0.113616206 -0.12302869 -0.11389909
0000a0 29 11 4b bd 69 2f f9 3c de ec 0f bc a0 0c cf 3d
       -0.049576912 0.030418115 -0.008784501 0.1010983
0000b0 12 80 75 3d 5f 8a 22 bd 1b ff c3 3d bb e2 f9 3d
       0.05993659 -0.039682742 0.09570142 0.122014485
0000c0 6a 90 fe bd ba fa f4 3d 13 24 11 bd 25 f5 e7 bd
       -0.124298885 0.11961885 -0.035434794 -0.113260545
0000d0 65 72 92 3d 22 c7 83 bd bf ab 86 bb 59 5c 7e 3d
       0.07150725 -0.06434466 -0.004109829 0.06209979
0000e0 05 15 18 3d 15 d1 87 3d 6c a3 5d bc 98 d1 2d bd
       0.03712942 0.06631676 -0.013527732 -0.042436212
0000f0 9b 49 76 bd 2a 1d f8 3d 2c 00 0a be 1c 9b b4 bd
       -0.06012879 0.121149376 -0.13476628 -0.08818647
000100 85 ba ab 3d bb ba 78 bd e0 2f ac bd 3d 66 b8 3d
       0.08385185 -0.060724955 -0.08407569 0.090038754
000110 0a bd 01 be 81 8b a9 bd 40 b1 ca 3d 8f 79 b2 3b
       -0.12669769 -0.082785614 0.09897089 0.00544662
000120 3d 52 9b bd 08 df 2a bd a1 a5 85 3d cc 5a af bc
       -0.07584045 -0.041716605 0.06525732 -0.0214056
000130 3b 72 64 3d a6 5e 79 bd 75 10 16 bc 66 a7 e1 bb
       0.055773 -0.06088128 -0.009159197 -0.0068864105
000140 7a e8 bc bd b7 00 89 3d 60 8b 74 3d 1f e3 69 bd
       -0.09224029 0.066895895 0.05970323 -0.057101365
000150 0d b5 c2 3d ac 6f 6d 3d b5 1e b2 bc 0b 04 90 bd
       0.09507189 0.057967827 -0.021743158 -0.07032021
000160 4c de 9e 3d 7f dd 90 bd 9d f2 8c bd 5f 7f 9d bd
       0.077572435 -0.07073497 -0.06882212 -0.0769031
000170 6f df 34 3d fe 44 9c bc fd e2 a7 bd ad 22 81 bd
       0.044158395 -0.019075867 -0.081975915 -0.06305442
000180 d3 df 5b bd 64 2d b3 bd 20 3e 89 bc 6d d4 d2 3c
       -0.053680252 -0.08748892 -0.016753256 0.025736058
000190 3d d1 97 3d 82 d4 ad 3c f2 a5 be 3d 1b 3e a5 bd
       0.07412956 0.021219496 0.09308995 -0.08068486
0001a0 8a 90 53 bd e6 0f dd bd f3 62 c3 bb dc a5 e5 bc
       -0.051651515 -0.10794048 -0.0059627234 -0.02803319
0001b0 3b 0a 17 3d fc 33 89 bd 0e d0 fa 3b ec c3 87 3d
       0.03687499 -0.06699368 0.0076541966 0.06629166
0001c0 59 4c 8e bd 5e d8 9b bd 5c c7 9c 3d 71 44 7f 3d
       -0.06948156 -0.07609628 0.07655212 0.06232113
0001d0 e7 4a 76 3d 88 ca f6 bd 9d d6 d6 3d 98 b3 f5 bd
       0.060130026 -0.120503485 0.10490153 -0.119971454
0001e0 e8 32 d2 3d 1a 72 ca bd e8 5d e5 bd ec ce e6 bd
       0.10263616 -0.098850444 -0.11199552 -0.11269936
0001f0 ad c4 bb bb f8 fa 8f 3c 3c 80 8e 3c 3d db ca 3d
       -0.0057302327 0.017575726 0.017395131 0.09905098
000200 57 ce 7a 3d f2 80 b3 bd 39 1a 13 3c 44 8d e1 3d
       0.061231937 -0.08764829 0.00897842 0.110132724
000210 c3 f4 ec bd 6a cb eb 3c 59 1a a8 bd 87 52 b4 3d
       -0.11570122 0.028783519 -0.082081504 0.08804803
000220 ee 67 8d bc 43 1d 1d bd 29 31 dc bd e9 f3 fa bd
       -0.017261472 -0.038357984 -0.10751564 -0.122535534
000230 16 39 20 bd 55 26 b1 3b 5c d7 96 bd 26 95 76 3d
       -0.03911694 0.005406181 -0.07365295 0.060200833
000240 38 69 67 bd fb 63 20 bd eb 64 ec bb 1f 54 2c bc
       -0.05649683 -0.03915785 -0.007214179 -0.010518103
000250 d2 dd fb 3d 06 85 87 3d 7f 93 79 3d c5 71 cf 3d
       0.12298168 0.06617169 0.06093168 0.10129122
000260 22 d8 ca bc 05 8b ae 3d 47 51 c6 bc 93 26 1c bd
       -0.024761263 0.085226096 -0.024208678 -0.038122725
000270 39 de 84 3c bf ee b5 3d 61 55 ab bd 47 87 c2 3c
       0.016219245 0.08883428 -0.08365894 0.023746146
000280 8c da b1 3d 51 fc b5 bd fd 64 0f bc 53 8e 35 bd
       0.08684263 -0.08886016 -0.008752105 -0.044325184
000290 1d 25 23 bd 16 29 00 be 68 eb 9f bd 50 03 40 3d
       -0.039830316 -0.12515673 -0.07808572 0.04687816
0002a0 34 f2 3d bd f3 68 8c 3c cc b7 54 bd b4 98 0a be
       -0.04637356 0.017139887 -0.051933095 -0.13534814
0002b0 ca 44 f6 bc 60 dd 19 bb a3 61 3c bd 4e 84 83 bc
       -0.030062098 -0.0023477897 -0.04599155 -0.016054299
0002c0 f1 e6 f9 3c fe ca 56 3d 8d 33 b8 bd 8b b5 84 bd
       0.03050563 0.052439682 -0.089942075 -0.06479939
0002d0 10 76 84 3d f7 bd 71 bd ec 36 a3 bc 86 70 ed 3d
       0.06467831 -0.059019055 -0.01992365 0.11593728
0002e0 f2 48 39 bc 78 81 b1 bd 76 18 e9 bd d2 08 c0 3d
       -0.011308895 -0.08667272 -0.11381619 0.09376682
0002f0 d1 f5 21 bc 28 c4 c6 bd 46 0d c3 bd 00 02 04 be
       -0.009885267 -0.097053826 -0.09524016 -0.12891388
000300 5b b0 b8 3d ce be f8 3d f2 aa d6 3d 64 71 c0 3c
       0.09018012 0.12145768 0.10481824 0.023491569
000310 54 2f 9a bc e0 8f 89 3d a3 2b 97 bc 90 78 8a 3c
       -0.018821396 0.06716895 -0.018453425 0.016903192
000320 fb 82 f2 bd 2d 75 86 bd 2b 7f 97 3d 0e c7 24 bd
       -0.11841389 -0.06565318 0.07397302 -0.040228896
000330 c3 c0 2f 3b 31 88 e6 bc 38 fb b8 3d 8b f5 9a bd
       0.0026817776 -0.028141113 0.09032291 -0.07566365
000340 55 a7 f7 3d f0 a8 a6 3d 30 0e 85 3c c0 1f 63 bd
       0.12092463 0.08137691 0.016242117 -0.0554502
000350 a6 39 b3 3d 77 15 fd 3d cd 9d e5 bc 12 36 9e bc
       0.0875123 0.1235761 -0.028029347 -0.019312892
000360 90 3a bc 3d c1 57 58 bd eb 3d 99 bd 62 c3 f9 bd
       0.091908574 -0.052818064 -0.07482513 -0.121954694
000370 69 17 c1 bd 33 e4 da 3c 8d 2f 98 3d f5 21 cf 3d
       -0.09428293 0.026720142 0.074309446 0.10113899
000380 3a da e1 3d 85 93 c9 bd 1a a1 58 3d a8 5c f0 bd
       0.110279515 -0.0984259 0.052888013 -0.11736423
000390 da 3c 3f bd 44 7d e1 bd d6 4f 14 bd ab b9 3e 3d
       -0.046688892 -0.11010221 -0.03620895 0.046563786
0003a0 d3 08 f9 bd 06 be b0 bd f4 66 98 3d 67 fc ae bd
       -0.12159886 -0.08629994 0.07441512 -0.08544236
0003b0 2c 7d a9 bc 55 4e cf bc 29 e7 e0 3d 1b d0 d9 bd
       -0.02068957 -0.025305906 0.1098159 -0.10635396
0003c0 be 6e 84 bd c6 cc d4 bd 1f b1 de bd 83 ba 37 bd
       -0.06466435 -0.1039062 -0.10873627 -0.044855606
0003d0 7d a8 9f ba ce 23 c0 bd 86 b1 d8 bd 5f 49 da 3c
       -0.0012180951 -0.09381829 -0.10580735 0.026646314
0003e0 11 a8 f7 3c 29 db bb 3c 82 07 ec 3a 28 cd 9c bd
       0.030231507 0.022931652 0.0018007609 -0.07656318
0003f0 85 5c bb bd 6a 94 43 3d 48 ed ee 3c 55 bf 10 3d
       -0.09148506 0.04774896 0.029165879 0.03533872

rnn.bias_ih_l1 f4 [64]
000000 38 ff fc 3d e2 d0 80 bd 83 b3 d5 bd 64 41 81 3d
       0.123533666 -0.06289841 -0.1043463 0.063113004
000010 28 71 7d 3d ee d4 27 3d d5 cc 8c bd 72 78 82 bd
       0.061875492 0.04097455 -0.06875006 -0.06370629
000020 65 3f 00 bd 3d d3 f5 3d 03 c3 ca 3c 75 19 bf 3d
       -0.031310458 0.12003181 0.024751192 0.093310274
000030 6a 55 6e bd ca 56 0e 3d 16 5b c1 bd 85 cf f7 bc
       -0.058186926 0.034750737 -0.094412014 -0.03025032
000040 f6 01 a5 3d c7 33 dd 3d 48 56 f3 3d 32 6e 35 bd
       0.08057015 0.10800891 0.11881691 -0.044294544
000050 8e b1 9c 3c 0f f0 88 3d bf 06 98 3d ca 1b 75 bd
       0.019127633 0.066864125 0.07423162 -0.059840955
000060 fd 58 ff bd 59 94 5f bd a4 7e 8a bd c4 ce 8c bd
       -0.12468145 -0.054584835 -0.06762436 -0.06875375
000070 cd 87 ec 39 bf 59 ed ba 93 36 eb bd 14 e0 d4 3d
       0.00045114607 -0.0018108411 -0.114850186 0.10394302
000080 49 4e e6 bb f4 d6 c9 3d 1c ff d7 3c e3 f8 9b bd
       -0.0070283753 0.09855452 0.026366763 -0.07615831
000090 86 d1 af bd 37 d4 c1 3d ab bf ae bc 24 be c8 3d
       -0.08584885 0.09464305 -0.021331629 0.098018914
0000a0 72 f6 d2 3c 21 a9 9e bc 57 60 f6 3c 64 af 9c 3d
       0.02575228 -0.019367756 0.030075235 0.076506406
0000b0 0d a0 d3 3d 2f cc c1 3d cb e0 90 3d dd 30 06 3c
       0.10333262 0.09462773 0.07074126 0.008190361
0000c0 d9 63 a7 3c df 6b b8 bb fb c7 88 3c 47 62 13 bd
       0.020433353 -0.0056280936 0.01669692 -0.035982396
0000d0 22 a2 c7 bd cd 6a 55 bd 2f d3 5b 3d 16 12 e4 3d
       -0.09747721 -0.052103806 0.053668197 0.11136262
0000e0 00 17 6c 3b a2 52 96 3d d3 7f 5b bd 0a 37 84 3c
       0.0036024451 0.0733998 -0.0535887 0.016139526
0000f0 bf 57 c7 bd cb d6 c3 3d 8d 6e b9 bc 0e b2 6a bd
       -0.09733533 0.09562453 -0.022635723 -0.057298712

rnn.bias_hh_l1 f4 [64]
000000 11 3a d6 bd 98 71 35 3d ab a4 a7 3d 0a 42 e9 bd
       -0.10460294 0.044297785 0.08185705 -0.11389549
000010 90 03 f2 bd e9 ce 9b 3d 1b 06 d6 bd d8 15 4a 3c
       -0.11817086 0.07607824 -0.10450383 0.0123343095
000020 98 d9 dd 3c 3f 16 7c bd a8 f9 ca bd d1 51 74 bd
       0.027081296 -0.061544653 -0.099108994 -0.05964834
000030 26 a7 d4 3d b5 17 c6 3d 5b bb 10 3d d1 ba c7 bd
       0.103834435 0.096724905 0.035334926 -0.09752429
000040 2d 66 de bc 45 8e bf 3d b0 32 21 bd ac 01 9a 3d
       -0.02714833 0.09353308 -0.03935498 0.0751985
000050 78 35 6e bd 3e 0d 90 3d 7a c0 b3 3c 60 c4 fb bd
       -0.05815646 0.07033776 0.021942366 -0.12293315
000060 d0 d0 e3 3d e1 98 bf bd 0a 47 98 bd d2 00 ab 3c
       0.11123812 -0.09355331 -0.074354246 0.020874415
000070 23 54 06 bc 51 02 97 3d b2 b0 a2 3b 8a 69 9c bd
       -0.008198771 0.07373489 0.0049649114 -0.076373175
000080 35 43 b3 3d 7d 72 b7 bd e4 ca aa 3d 77 5b b6 bb
       0.08753053 -0.08957384 0.083394796 -0.0055651027
000090 66 41 a5 3d 0a 1f 92 3d 0a 8f d0 bc 7d 2d ec bc
       0.080691144 0.071348265 -0.025458831 -0.028830284
0000a0 07 90 ec bc c5 10 7f bc c1 b0 ea bd c8 f5 16 bc
       -0.028877271 -0.015567963 -0.114594944 -0.009213872
0000b0 e5 25 ec 3d 5b 0e f1 3d 9b c9 bd 3c f7 6c 80 3d
       0.11530665 0.11770316 0.023167422 0.062707834
0000c0 d5 69 1c 3d 17 87 33 3d 97 9d 97 3d 64 30 9c bd
       0.038186867 0.043830004 0.07403105 -0.07626417
0000d0 58 8e da 3d c5 84 74 3d c5 c7 e0 bd 27 21 06 bd
       0.10671681 0.05969693 -0.10975603 -0.03274646
0000e0 6f 59 d5 3d 5b 64 d6 3c 81 f3 72 bd e1 a1 b1 3d
       0.10417449 0.0261709 -0.059314255 0.08673454
0000f0 85 d8 d4 3d c2 2b 4b bc 6b ec f9 3d e8 53 08 3d
       0.1039286 -0.012400569 0.12203296 0.033283144

fc.weight f4 [1, 64]
000000 9f c0 5f 3c 47 09 fd 3c f6 13 03 bd c5 5b b2 bd
       0.013656764 0.030888213 -0.032001458 -0.0870891
000010 77 40 96 bd c7 e1 f1 3c 8b d8 18 bd 6d a5 c3 3c
       -0.073365144 0.029526604 -0.037315886 0.023882592
000020 1c 8f 70 bc 23 f0 a8 bd b2 de be bc f1 85 d9 3d
       -0.014682557 -0.082489274 -0.023299549 0.106212504
000030 32 8a 6b 3b b2 f4 da bd 1c 73 26 bc 33 6d 7e bd
       0.0035940525 -0.10691203 -0.01015928 -0.06211586
000040 65 bd 40 3d 4c cd 5d 3d d6 bd b5 bd d9 3d ac bd
       0.04705562 0.054150864 -0.08874099 -0.08410234
000050 9b a3 f9 bb 0c ef e4 3d db ac 05 bd 21 f9 8a 3d
       -0.0076183802 0.11178407 -0.03263555 0.06785799
000060 1e 30 21 3b bc 51 2b 3d 77 25 bf bd b1 c6 ab 3c
       0.002459533 0.041825995 -0.09333318 0.020968767
000070 6c fa f6 bc 59 c3 8d 3c 5d 07 61 3c a2 fb b0 3d
       -0.030148707 0.017305063 0.013734666 0.08641745
000080 fe c1 ec 3d 53 1f d7 bb fb 71 e4 3c a5 38 a2 bd
       0.115604386 -0.0065650134 0.027886381 -0.0792096
000090 c9 0d 83 3d f5 76 b0 3d 13 5b 27 3d 4a 81 e4 3c
       0.06399114 0.08616439 0.04085834 0.027893681
0000a0 db 78 80 3c 28 4b cf bd 2b 83 a0 bc b2 29 a2 3d
       0.015682628 -0.10121757 -0.019593796 0.07918109
0000b0 af 8b 88 3d 79 62 7e 3d a3 8c 72 bc bd c3 b0 bd
       0.066672675 0.06210563 -0.014804038 -0.08631084
0000c0 bd 3c 5b 3d d5 c8 ba bd 78 82 8b bd 4f 54 e2 bb
       0.05352472 -0.09120337 -0.06811994 -0.006907023
0000d0 2b f4 8c bc a3 bf 59 bc f6 45 91 bd d5 75 de bd
       -0.017206272 -0.013290319 -0.07093422 -0.108623184
0000e0 04 82 84 bc 3a 91 af 3d a7 4b ed bc 61 da d7 3c
       -0.016175278 0.08572622 -0.028966738 0.026349248
0000f0 67 2b 1f bc a2 5a 5b bd 5d 6a d7 bc 92 24 4a 3d
       -0.009714938 -0.05355323 -0.026295835 0.049351282
