reports/day3/RNN.pt (torch, 54085 bytes, 9 tensors)

rnn.weight_ih_l0 f4 [64, 1]
0	0x3d24c080	0.040222645
1	0xbca7d467	-0.020487024
2	0x3cfbf683	0.030757194
3	0x3ddb8774	0.10719195
4	0xbc32c4f3	-0.010911214
5	0xbc149cbd	-0.009070572
6	0x3d7aebb4	0.06125994
7	0xbd808808	-0.06275946
8	0xbdcafded	-0.09911714
9	0xbdb4a755	-0.088209786
10	0x3dc6d39a	0.097083285
11	0xbabb5570	-0.001429243
12	0x3db9de91	0.09075654
13	0x3c1010e4	0.00879309
14	0xbd319fa5	-0.04336514
15	0x3d6e8135	0.05822869
16	0xbda8aa2c	-0.08235583
17	0x3dc1f231	0.094700225
18	0xbd02f8be	-0.0319755
19	0xbde735b8	-0.11289543
20	0x3c0481eb	0.0080876155
21	0x3dbf9213	0.09354033
22	0xbdf4125e	-0.11917566
23	0x3da8ba21	0.08238626
24	0x3bca729c	0.0061782133
25	0xbcd3d985	-0.025860557
26	0xbd45adfd	-0.04826163
27	0xbd2c79e8	-0.042108446
28	0xbd687af9	-0.0567579
29	0xbd81ab8d	-0.06331549
30	0x3b1460c5	0.0022640687
31	0x3d1f5d4a	0.038907327
32	0xbd4a9723	-0.04946054
33	0xbd8da3ef	-0.069160335
34	0x3c5de59d	0.013543514
35	0xbdcf22cf	-0.10114061
36	0xbd69caed	-0.05707829
37	0xbd566042	-0.052337892
38	0xbd071e66	-0.032987975
39	0xbda1b55f	-0.07895922
40	0x3da42a3b	0.08015867
41	0x3d9a621c	0.07538244
42	0xbc6215a0	-0.013799101
43	0x3b83bd99	0.0040204045
44	0xbd98e43f	-0.074654095
45	0xbcd508ac	-0.026005112
46	0x3deba58c	0.11506185
47	0xbcdce106	-0.026962768
48	0x3ce6d41c	0.028177314
49	0x3d99196b	0.07475551
50	0xbdb05d2a	-0.0861152
51	0xbd8f521b	-0.06998082
52	0xbbabc2bf	-0.0052417214
53	0xbd420046	-0.047363542
54	0x3aa37027	0.0012469337
55	0xbdeff2d3	-0.11716237
56	0x3d648250	0.05578834
57	0x3cb0841e	0.021547373
58	0x3db3b816	0.08775346
59	0x3c41f4d1	0.011838154
60	0x3dacf72b	0.08445581
61	0x3def5eb1	0.11687983
62	0xbdf37ab2	-0.11888637
63	0xbda407d3	-0.08009305

rnn.weight_hh_l0 f4 [64, 64]
0	0xbdea21f6	-0.11432259
1	0x3c16f7bf	0.009214341
2	0xbd02c6f3	-0.031928014
3	0x3ccae80a	0.024768848
4	0x3ce9c345	0.028535495
5	0xbd5c2ed1	-0.053755585
6	0x3d8c6eb1	0.0685705
7	0x3c6c7dd9	0.014434301
8	0xbd9e9e0d	-0.077449895
9	0xbd04e68a	-0.03244642
10	0xbb7ebf43	-0.0038871325
11	0xbd6aac1e	-0.05729305
12	0x3dfdd21d	0.123935916
13	0x3c3774cb	0.011197279
14	0x3de8d1f0	0.113681674
15	0xbd81693f	-0.06318902
16	0x3d0e6d2c	0.034772083
17	0xbd668ed5	-0.05628856
18	0xbe04bba7	-0.12962209
19	0xbd5daed5	-0.05412181
20	0x3c5eba5b	0.013594235
21	0x3dd37196	0.10324399
22	0x3d9cd7a9	0.076583214
23	0xbb2f84cf	-0.002678204
24	0x3dbf24ad	0.09333167
25	0x3d6e648a	0.05820135
26	0x3dd0bc0f	0.10192119
27	0x3dda7d1f	0.10668396
28	0x3de3d848	0.11125237
29	0x3d31480d	0.043281604
30	0x3c9b5220	0.018960059
31	0x3d790542	0.06079603
32	0x3cfccf55	0.030860582
33	0x3dd69947	0.10478454
34	0xbcc3d30f	-0.023904352
35	0x3db07dfe	0.08617781
36	0x3dd3fd98	0.103511035
37	0x3bdb9f6e	0.006702355
38	0x3cf99ba6	0.030469727
39	0xbddee4ed	-0.10883508
40	0x3dba6289	0.09100825
41	0x3d079e7b	0.033110123
42	0x3d45b0d1	0.04826433
43	0xbd3138c5	-0.04326703
44	0xbdd5b488	-0.10434824
45	0x3d03511c	0.032059774
46	0xbcf1f928	-0.029537752
47	0x3d1649e2	0.036691554
48	0x3e012e26	0.1261526
49	0xbd1adbae	-0.03780716
50	0x3daa1f0e	0.083067045
51	0x3ccea1cf	0.02522364
52	0xbd605a04	-0.054773346
53	0x3c89e209	0.016831415
54	0x3dc388b2	0.09547557
55	0x3d834f7f	0.06411647
56	0xbdbba6dd	-0.09162686
57	0x3b492a22	0.003069528
58	0xbcd83ff3	-0.02639768
59	0xbdcfe13b	-0.10150381
60	0xbd23c963	-0.03998698
61	0x3c8b8e99	0.01703577
62	0x3d90a701	0.070631035
63	0xbc82231e	-0.015885886
64	0xbd7530ab	-0.059860867
65	0x3cba8c65	0.022772023
66	0xbdfa9c2d	-0.122368194
67	0x3da56a5b	0.08076926
68	0x3d883998	0.0665161
69	0xbd991924	-0.07475498
70	0x3cc83b85	0.024442444
71	0x3d87671a	0.06611462
72	0xbdb0ae8b	-0.086270414
73	0xbdcc3334	-0.09970704
74	0xbd062a0a	-0.032754935
75	0x3db8b4d2	0.09018864
76	0xbdc8f9ee	-0.09813295
77	0xbd9caa5d	-0.07649682
78	0x3dbb07f0	0.09132373
79	0xbcf2efbd	-0.029655332
80	0x3d9c51ce	0.076327905
81	0x3d637e5d	0.05554043
82	0xbd96d4f1	-0.07364834
83	0x3debb63b	0.11509367
84	0xbd8284f1	-0.06373013
85	0xbcf25708	-0.029582515
86	0xbde02a5e	-0.10945581
87	0xbcc56dc5	-0.024100194
88	0x3d74d394	0.05977209
89	0xbdd6caa5	-0.1048787
90	0xbcd6a413	-0.026201284
91	0x3d8e425b	0.0694625
92	0x3d1eb284	0.038744465
93	0x3c80b803	0.015712744
94	0x3d12644e	0.03574019
95	0x3dee7332	0.116430655
96	0xbce93bff	-0.028470991
97	0xbcc4ebd7	-0.024038238
98	0x3d0da814	0.03458412
99	0xbdb7c38a	-0.08972843
100	0xbdcdbcb1	-0.10045756
101	0xbd01a744	-0.031653658
102	0xbd658d8b	-0.05604319
103	0x3dcf548f	0.1012355
104	0xbd31ae55	-0.043379147
105	0xbdcf3a1b	-0.101185046
106	0xbcaee803	-0.021350866
107	0x3c7e1bd8	0.015509568
108	0x3d2123fb	0.039340954
109	0x3df03003	0.117279075
110	0xbaa51aa4	-0.001259644
111	0x3dff7912	0.12474264
112	0x3d94c3cd	0.072639085
113	0xbd88015f	-0.066408865
114	0x3d661ca2	0.05617965
115	0xbddb6c4d	-0.10714016
116	0xbd90d629	-0.07072098
117	0xbda59594	-0.080851704
118	0xbd882b8b	-0.0664893
119	0x3ddda263	0.108219884
120	0x3cb7b88e	0.02242687
121	0x3dcea1c6	0.100894496
122	0x3d1daa63	0.03849257
123	0xbd1cadce	-0.03825169
124	0xbc9de9c3	-0.019276505
125	0x3ce51bb1	0.027967306
126	0x3db0b5bf	0.08628415
127	0xbc5667ea	-0.0130862985
128	0x3d92dc7c	0.0717096
129	0xbdc7c9c6	-0.09755282
130	0x3ba5a4b4	0.0050550345
131	0x3dc775ca	0.09739263
132	0x3c553dae	0.013015194
133	0xbc675ae4	-0.014120791
134	0x398a79d2	0.00026412174
135	0xbd6fa05c	-0.05850254
136	0x3d9e9255	0.07742754
137	0xbd817556	-0.06321208
138	0x3de50934	0.11183396
139	0xbdb280d4	-0.08715978
140	0xbc30b4f9	-0.010785335
141	0xbd82f6c7	-0.06394725
142	0xbd94dc3f	-0.07268571
143	0xbd929667	-0.07157593
144	0x3d4d0d81	0.050061706
145	0xbdda9011	-0.1067201
146	0x3dbe2e54	0.0928618
147	0x3d8f51eb	0.069980465
148	0x3df8792f	0.12132489
149	0x3dac52e7	0.0841425
150	0x3da670cf	0.08126985
151	0xbc8623d3	-0.016374504
152	0x3d287f0c	0.041136786
153	0xbd67115e	-0.056413047
154	0x3dee05ad	0.11622176
155	0x3d871a33	0.06596794
156	0xbd85932c	-0.065222114
157	0xbde3c54d	-0.111216165
158	0xbd49236d	-0.04910605
159	0xbbeb1aa4	-0.0071748067
160	0x3cae3a57	0.021268053
161	0xbc5b7c0a	-0.013396272
162	0x3dd00b19	0.10158367
163	0x3d1ce047	0.038299825
164	0xbdbe7b40	-0.09300852
165	0x3dc7e78f	0.09760963
166	0x3dca99cc	0.09892616
167	0x3c3f8531	0.01168947
168	0x3cc119d8	0.023571894
169	0xbdbb6794	-0.09150615
170	0x3ddf78c7	0.10911708
171	0xbddf552b	-0.109049164
172	0x3d246e1a	0.040144064
173	0xbdb629e9	-0.088947125
174	0x3dc5ade9	0.09652311
175	0x3d11080c	0.035408065
176	0x3db85b83	0.090018295
177	0xbca2eb27	-0.01988752
178	0xbda4a7b8	-0.08039802
179	0x3d44078e	0.047858767
180	0x3cbf534c	0.023355149
181	0xbd29e031	-0.04147357
182	0x3de8dc76	0.113701746
183	0xbd663533	-0.05620308
184	0x3c9cbc61	0.019132795
185	0x3d3b6fef	0.045761045
186	0xbd08d415	-0.033405382
187	0xbd657475	-0.056019265
188	0xbd1bbe3c	-0.03802322
189	0xbd781195	-0.060563643
190	0xbab41ef0	-0.001374213
191	0x3dacf7d7	0.08445709
192	0xbda80f78	-0.082060754
193	0xbdb4ba51	-0.088245995
194	0xbd597aa4	-0.053095475
195	0xbd6f9231	-0.05848903
196	0xbd203165	-0.039109606
197	0x3dac688f	0.084183805
198	0x3c1f377b	0.009717817
199	0xbdc10614	-0.094249874
200	0x3dc6493d	0.09681938
201	0x3c54d099	0.012989187
202	0xbdd5f2ab	-0.10446676
203	0xbdd0b186	-0.1019011
204	0xbdcae61f	-0.09907173
205	0xbd51f3fc	-0.051258072
206	0x3dcb2fa2	0.099211946
207	0xbd487e5a	-0.048948623
208	0xbe00bdd1	-0.12572409
209	0xbdbdf33c	-0.09274909
210	0xbd853d89	-0.065058775
211	0xbdbe9578	-0.09305853
212	0x3dcb4028	0.09924346
213	0x3c97e80a	0.018543262
214	0x3defa2c0	0.11700964
215	0xbdcfae73	-0.101406954
216	0x3d2128c1	0.039345507
217	0x3dc626bd	0.096753575
218	0xbc948543	-0.01812995
219	0xbb3cfad4	-0.0028836029
220	0x3cb5527d	0.02213406
221	0xbdebd256	-0.11514728
222	0x3d918359	0.07105131
223	0x3d96bbea	0.073600605
224	0xbb518470	-0.0031969808
225	0xbd557fca	-0.052123822
226	0xbdc3430c	-0.095342726
227	0xbd17f9e7	-0.03710356
228	0x3b9be331	0.004757308
229	0xbccd6310	-0.02507165
230	0xbd64fa39	-0.055902693
231	0x3d6e0ea6	0.05811944
232	0xbce6143c	-0.02808582
233	0xbb6153ea	-0.0034382292
234	0x3b9ea3d2	0.0048413062
235	0x3cc367e3	0.023853248
236	0x3dad82ea	0.084722355
237	0xbc0608a6	-0.008180773
238	0x3dc8c0c0	0.09802389
239	0x3d7c7330	0.06163329
240	0x3d8e33a7	0.06943446
241	0x3c99e033	0.018783664
242	0xbdc3bb08	-0.09557158
243	0xbc3b45e9	-0.011430242
244	0x3d473c57	0.04864153
245	0x3d6370b3	0.0555274
246	0x3d9891f4	0.07449713
247	0x3df24063	0.11828687
248	0xbd5f6d41	-0.054547552
249	0x3d1f1fa6	0.03884854
250	0xba7e3ad5	-0.0009698098
251	0x3cc65e51	0.024214895
252	0xbd67cd56	-0.056592308
253	0x3dc5e544	0.096628696
254	0x3ca23603	0.019801145
255	0x3d801b79	0.0625524

rnn.bias_ih_l0 f4 [64]
0	0x3d97adb8	0.07406181
1	0xbd423cc7	-0.047421243
2	0xbdc932e7	-0.09824162
3	0x3caa242f	0.020769207
4	0xbc60766e	-0.013700111
5	0x3dde15de	0.108440146
6	0x3dd89cf5	0.10576812
7	0xbd956b60	-0.07295871
8	0x3d89c391	0.067267545
9	0x3d8740dc	0.06604168
10	0xbb793cf3	-0.0038030713
11	0x3dae72c8	0.085179865
12	0x3d92a8f9	0.07161135
13	0x3dcee8c9	0.10102994
14	0x3df53c53	0.119743966
15	0x3d863f36	0.06555025
16	0x3d9f8244	0.07788518
17	0xbdb9bf8a	-0.09069736
18	0x3c8df83e	0.017330285
19	0xbcb611fb	-0.02222537
20	0x3d6234ad	0.055226017
21	0x3cd7a565	0.026323983
22	0xbc59f9b0	-0.013304159
23	0xbcea96a3	-0.028636282
24	0xbc10010f	-0.008789315
25	0x3de4b174	0.11166659
26	0x3d48f060	0.049057364
27	0xbd1fbd8e	-0.038999133
28	0xbdd5b460	-0.104347944
29	0x3dd5e1ce	0.104434595
30	0xbd797719	-0.060904596
31	0xbcb34df6	-0.02188776
32	0xbd0b0949	-0.033944402
33	0x3c95171f	0.018199502
34	0x3ccdd03e	0.025123712
35	0x3d78332f	0.060595687
36	0x3d02f6fb	0.03197382
37	0xbd083b99	-0.03325996
38	0xbdd0d36e	-0.10196577
39	0xbdd8d959	-0.10588331
40	0xbd884449	-0.06653649
41	0x3d6b9d09	0.057522807
42	0xbd88f212	-0.06686796
43	0x3d523c18	0.05132684
44	0xbcdee12d	-0.027206982
45	0x3d4a441c	0.04938136
46	0xbc26a5d4	-0.010171372
47	0xbce557a3	-0.02799589
48	0x3d935ebc	0.071958035
49	0xbd978df4	-0.07400122
50	0x3d99f8c0	0.075181484
51	0x3dce4428	0.100715935
52	0xbdd61f2a	-0.10455163
53	0x3c672390	0.0141076
54	0xbd048ce8	-0.03236094
55	0x3b19d821	0.002347477
56	0xbdc2ca3c	-0.095112294
57	0xbd8c31d8	-0.068454444
58	0x3de89ab0	0.11357629
59	0x3d7dec4e	0.061992936
60	0x3d9d6271	0.07684792
61	0xbdd91f50	-0.106016755
62	0x3dd3c940	0.1034112
63	0xbc24ceb7	-0.01005905

rnn.bias_hh_l0 f4 [64]
0	0xbd05ded9	-0.032683227
1	0x3d8934a5	0.06699494
2	0xbd80b19f	-0.062838785
3	0xbdebc288	-0.11511713
4	0xbc64bee1	-0.013961525
5	0xbdba0480	-0.090828896
6	0xbdde4c39	-0.10854382
7	0x3df1193c	0.11772391
8	0xbdd9df9f	-0.106383555
9	0xbdf40eba	-0.11916871
10	0xbdf095d8	-0.117473304
11	0x3d5d2403	0.05398942
12	0x3dc2c5d9	0.09510393
13	0x3db8c7d1	0.09022487
14	0xbde749e3	-0.1129339
15	0x3d57bd6d	0.052670885
16	0xbd6f5b2e	-0.058436565
17	0x3d635ff2	0.055511422
18	0xbde1c715	-0.110243
19	0x3bd70be0	0.006562695
20	0x3cc1b59e	0.023646172
21	0xbdc068d7	-0.093949966
22	0xbcc276cd	-0.02373829
23	0x3de5478c	0.11195287
24	0xbd8b82b6	-0.068120405
25	0x3d9c87a1	0.07643057
26	0xbd495f5c	-0.049163207
27	0xbd76661e	-0.06015598
28	0xbbe70a6f	-0.0070508043
29	0x3d9df62d	0.0771297
30	0xbda1e2f1	-0.07904614
31	0x3deea984	0.11653426
32	0x3c941099	0.01807432
33	0xbd232ab9	-0.039835665
34	0x3ce6b226	0.02816112
35	0x3d8f6cf2	0.070032015
36	0x3c67c0b7	0.014145068
37	0xbc4cf4f4	-0.012509573
38	0xbdc15dd6	-0.09441726
39	0x3b8e2b94	0.004338691
40	0xbd2d44f5	-0.04230209
41	0xbc41bf06	-0.011825329
42	0x3d3ba224	0.045808926
43	0x3d9e16ec	0.07719216
44	0x3b538f2a	0.0032281377
45	0xbcbef86d	-0.023311818
46	0xbda9a99e	-0.08284305
47	0xbd99af04	-0.07504085
48	0xbc58a64d	-0.013223243
49	0xbd37adb4	-0.04484339
50	0x3d1b5ec2	0.037932165
51	0x3de553d4	0.111976296
52	0xbd512c39	-0.051067565
53	0xbda60c27	-0.081077866
54	0xbd7dc64e	-0.061956696
55	0x3dadb798	0.08482283
56	0x3d12d7e5	0.035850424
57	0x3d845d92	0.064631596
58	0x3cfe0d4b	0.031012198
59	0x3d01c2d9	0.03167996
60	0xbd89ff57	-0.06738155
61	0xbce29ee0	-0.027663648
62	0xbd8d1486	-0.0688868
63	0x3dc68652	0.09693588

rnn.weight_ih_l1 f4 [64, 64]
0	0xbdb71ea1	-0.08941389
1	0x3d1b1078	0.037857503
2	0x3da1298f	0.07869255
3	0xbd3007b7	-0.042976107
4	0xbd837c9c	-0.06420252
5	0x3d8928a5	0.066972055
6	0x3d82d1a4	0.06387642
7	0xbd572b48	-0.05253151
8	0x3d3f5af2	0.04671759
9	0x3db02394	0.08600536
10	0x3dfcea0a	0.12349327
11	0x3db17d50	0.086664796
12	0x3daf400b	0.08557137
13	0xbcd8d3e2	-0.026468221
14	0xbd803b18	-0.06261271
15	0x3cebe7eb	0.02879711
16	0xbdc19a8e	-0.09453307
17	0xbc7f0ef9	-0.015567535
18	0x3dd68ac1	0.10475684
19	0x3d517f9f	0.0511471
20	0xbc6039d3	-0.013685661
21	0xbdba4785	-0.090956725
22	0xbdde2272	-0.10846414
23	0x3d3fa5f9	0.046789143
24	0x3dcd5ad3	0.10027089
25	0xbdb54b49	-0.0885225
26	0x3ddb9655	0.10722033
27	0xbd605249	-0.054765973
28	0xbd958b81	-0.07301999
29	0xbd0169ca	-0.03159503
30	0x3c0ba3aa	0.008522907
31	0x3c593383	0.01325691
32	0xbae7d600	-0.0017687678
33	0xbd635685	-0.055502433
34	0x3dd40fa9	0.103545494
35	0x3dbb4cf1	0.09145535
36	0xbc97c96c	-0.018528663
37	0x3d84309e	0.064545855
38	0x3db1c4fc	0.0868015
39	0x3c8c9913	0.017162835
40	0xbd9bb941	-0.07603694
41	0x3dbc1395	0.091834225
42	0x3df3afca	0.118987635
43	0x3d6c0e3e	0.05763077
44	0x3db6c2a9	0.08923847
45	0xbdd8af45	-0.10580305
46	0xbd8db654	-0.06919542
47	0xbdae4f17	-0.08511179
48	0x3cc17257	0.023614092
49	0xbddd370f	-0.10801517
50	0xbd85158f	-0.064982526
51	0xbdb64e62	-0.08901669
52	0x3de336db	0.11094447
53	0x3d8c0df1	0.068385966
54	0x3d1fbaea	0.038996615
55	0x3dbf6e98	0.09347266
56	0x3d9a72d2	0.075414315
57	0xbcff34b6	-0.031153064
58	0x3d7bb593	0.06145246
59	0x3d8e883a	0.06959577
60	0xbd8068e7	-0.062700085
61	0x3c26387b	0.010145302
62	0x3c46985b	0.012121285
63	0xbbd49c30	-0.0064883456
64	0x3de90919	0.11378688
65	0xbd0c4d16	-0.034253202
66	0xbdb14f5a	-0.08657713
67	0x3da2e683	0.07954123
68	0x3d5d2336	0.053988658
69	0x3de017ae	0.109420165
70	0xbd642973	-0.05570359
71	0x3cca51af	0.024697153
72	0xbdc4b74b	-0.09605273
73	0x3df6922e	0.120396
74	0x3cb64cd6	0.022253435
75	0xbd980f1b	-0.07424756
76	0xbd8fa8a5	-0.07014588
77	0xbd368ed0	-0.04456979
78	0x3d850117	0.064943485
79	0x3c229304	0.009922747
80	0x3dce9f04	0.100889236
81	0xbcd709f3	-0.026249861
82	0x3d50fb80	0.0510211
83	0xbdb65783	-0.0890341
84	0x3de4d353	0.111731194
85	0x3d097534	0.03355904
86	0x3dde9ab5	0.10869352
87	0xbde1acd5	-0.11019293
88	0xbdb92f7e	-0.090422615
89	0xbc326e8b	-0.010890613
90	0xbcc86577	-0.024462445
91	0xbd7e5ef7	-0.062102284
92	0xbd314ddc	-0.043287143
93	0x3dafaad4	0.08577505
94	0x3dc2e500	0.095163345
95	0x3cddaa53	0.027058756
96	0xbd98e313	-0.07465186
97	0xbd8b852b	-0.06812509
98	0x3cdd6d2a	0.027029593
99	0x3c5652ff	0.013081311
100	0x3d93d3d4	0.072181374
101	0xbdc94a76	-0.098286554
102	0xbca22cbb	-0.01979672
103	0x3d396962	0.045266517
104	0x3d88de87	0.06683069
105	0x3de3b126	0.11117773
106	0x3c8183f3	0.015809989
107	0x3da4d81b	0.08049031
108	0xbb52b9a7	-0.0032154114
109	0x3d902195	0.07037655
110	0x3c783290	0.015148774
111	0xbda7026b	-0.08154758
112	0xbcf1b27a	-0.02950405
113	0xbc715dd4	-0.014731843
114	0xbdbe1433	-0.092811964
115	0x3d00bb5f	0.03142869
116	0x3d9468ab	0.07246526
117	0xbded35fe	-0.11582564
118	0xbca771be	-0.020439979
119	0x3dfc37c2	0.123153225
120	0x3d8024af	0.06256997
121	0x3d9a708d	0.075409986
122	0x3dfc8c2b	0.123314224
123	0x3dc5f184	0.09665206
124	0x3db17e28	0.086666405
125	0xbcf60218	-0.030030295
126	0x3db88ca0	0.09011197
127	0x3d9ea573	0.07746401
128	0xbd1f2f2e	-0.038863353
129	0xbd90de13	-0.07073607
130	0xbda9fc7e	-0.08300112
131	0x3d858628	0.06519729
132	0x3d1ce86f	0.038307603
133	0xbd8e7a0a	-0.06956871
134	0xbda02737	-0.0781998
135	0x3d9f3de6	0.07775478
136	0xbd2d3b1c	-0.0422927
137	0x3d725ef7	0.059172597
138	0xbd70ddf8	-0.058805436
139	0x3dfbac94	0.12288776
140	0xbdd76ad4	-0.10518423
141	0xbc932107	-0.017960085
142	0x3da3dd5f	0.080012076
143	0xbddf174c	-0.108931154
144	0xbde5b7f7	-0.11216729
145	0xbd64913d	-0.055802573
146	0x3dc15c49	0.0944143
147	0x3b964aa6	0.0045865355
148	0x3d4b4463	0.049625766
149	0x3d294b0a	0.04133133
150	0x3db3d8d1	0.08781589
151	0xbd942bcd	-0.07234917
152	0xbdd3248d	-0.10309706
153	0x3d69e8b6	0.057106696
154	0xbdfd4251	-0.123661645
155	0xbdc2df70	-0.095152736
156	0x3dca3067	0.09872513
157	0x3cee4538	0.02908574
158	0xbd962f7c	-0.07333276
159	0x3d7a6697	0.061132994
160	0x3d4ff84d	0.050773907
161	0xbd0c809a	-0.03430233
162	0xbca9ab3a	-0.02071153
163	0xbd8db17c	-0.06918618
164	0x3d9860a5	0.074403085
165	0x3df4bb16	0.11949746
166	0x3d02b375	0.031909425
167	0xbdeccb83	-0.11562254
168	0x3dccd8df	0.100023024
169	0x3d1bfde4	0.038083926
170	0xbdae332b	-0.08505853
171	0x3d90fb2f	0.070791595
172	0x3d80ddb8	0.062922895
173	0xbc8efc5b	-0.017454317
174	0x3d812259	0.063053794
175	0xbd682037	-0.056671347
176	0x3dbd60be	0.09246968
177	0x3ddce4cd	0.10785828
178	0xbc9bfd4e	-0.019041684
179	0xbd9747f4	-0.07386771
180	0xbde6f62e	-0.11277424
181	0xbc354753	-0.011064368
182	0x3d29c957	0.04145178
183	0x3d920d2b	0.07131418
184	0x3cd77f42	0.026305798
185	0xbd1f2dad	-0.03886192
186	0xbca3642f	-0.019945232
187	0xbd15f6b3	-0.036612224
188	0x3d9c80a9	0.076417275
189	0x3dce96d1	0.1008736
190	0xbda87866	-0.08226089
191	0x3d861c93	0.06548419
192	0xbda068d8	-0.07832497
193	0x3b4a94a2	0.0030911346
194	0xbdb5e5d8	-0.0888173
195	0xbd929421	-0.071571596
196	0x3dc0431e	0.093878016
197	0xbce70eb0	-0.028205246
198	0x3db407b0	0.08790529
199	0x3ba63685	0.005072417
200	0x3dcaba27	0.09898787
201	0xbd388906	-0.04505255
202	0x3d957deb	0.072994076
203	0x3d664a53	0.056223225
204	0x3ceea05c	0.0291292
205	0xbc699305	-0.014256244
206	0xbda1312f	-0.07870709
207	0xbdf7b77f	-0.12095546
208	0x3d990bc4	0.07472947
209	0xbd2e6ddb	-0.042585235
210	0x3dac5f56	0.084166214
211	0xbdfbd727	-0.122968964
212	0xbd56c3d9	-0.05243287
213	0x3db667fe	0.08906554
214	0xbd149d96	-0.0362831
215	0x3daf3120	0.08554292
216	0x3e0358b0	0.128268
217	0xbcdd13c3	-0.026986962
218	0xbd9128f1	-0.07087887
219	0xbdf8d0aa	-0.121491745
220	0x3dd8995d	0.10576127
221	0x3d62240c	0.05521016
222	0xbdf08ce7	-0.11745625
223	0xbbbf5795	-0.005839298
224	0x3d0ed758	0.034873337
225	0xbd04327a	-0.0322747
226	0x3de00f18	0.10940379
227	0xbd0290e6	-0.031876467
228	0xbdd75e76	-0.10516064
229	0x3d029f64	0.031890288
230	0x3d996ff7	0.07492059
231	0x3dc5f141	0.09665156
232	0x3c3aa37e	0.011391519
233	0x3cbb0473	0.02282927
234	0x3c8e3326	0.017358374
235	0xbdc50e5b	-0.09621879
236	0x3b6ff026	0.0036611645
237	0xbb6f21e9	-0.0036488718
238	0x3dd03000	0.10165405
239	0xbd64577f	-0.055747505
240	0x3dd884b2	0.105721846
241	0xbda99aea	-0.08281501
242	0x3c8abca9	0.016935663
243	0x3d3665e5	0.044530768
244	0xbddcc644	-0.10780004
245	0x3de7f0c9	0.11325223
246	0xbdc0eb7e	-0.094199166
247	0x3d84e5e0	0.06489158
248	0x3d93ad39	0.07210774
249	0xbde727e4	-0.112869054
250	0x3d5e2e83	0.054243576
251	0x3c777b73	0.015105116
252	0xbd8cc72b	-0.06873926
253	0xbd594bfc	-0.05305098
254	0x3de1a24f	0.11017286
255	0xbba9b1aa	-0.00517865

rnn.weight_hh_l1 f4 [64, 64]
0	0x3d7b9568	0.06142178
1	0xbd81b8fd	-0.06334112
2	0x3cffb079	0.031212078
3	0x3da845f8	0.082164705
4	0xbde2078a	-0.11036594
5	0x3dc7ed8d	0.09762106
6	0x3a5cf7b7	0.00084292464
7	0x3da97280	0.08273792
8	0x3de9decf	0.114194505
9	0x3c342c30	0.010996863
10	0x3d871cea	0.06597312
11	0xbce31445	-0.027719626
12	0xba84791c	-0.0010106894
13	0xbd3371ca	-0.04380969
14	0xbb6bc186	-0.0035973503
15	0x3d9a3d75	0.07531253
16	0xbdb8b007	-0.090179496
17	0x3d8e8bc3	0.06960251
18	0x3e069da8	0.13146079
19	0xbc7367c9	-0.014856287
20	0xbc3d84fb	-0.01156735
21	0x3da6f4c0	0.08152151
22	0x3d8a7f49	0.06762559
23	0xbcd0e555	-0.025499979
24	0xbd94cb80	-0.07265377
25	0xbcc414a2	-0.02393562
26	0xbce68777	-0.028140767
27	0xbcef1ceb	-0.029188594
28	0xbc1d18f0	-0.009588465
29	0xbda087cd	-0.07838402
30	0xbcc04b38	-0.023473367
31	0x3d7710a4	0.060318604
32	0xbc80707b	-0.015678635
33	0xbdd19a0e	-0.10234462
34	0xbda6a635	-0.0813717
35	0x3d89dc19	0.067314334
36	0x3dd77a94	0.10521427
37	0xbda2e24f	-0.07953321
38	0xbd8a0b9d	-0.06740496
39	0x3cfde72f	0.030994026
40	0x3d9a4b42	0.075338855
41	0x3d9e364d	0.07725201
42	0x3b2a3952	0.0025974107
43	0x3d350fee	0.044204645
44	0xbdf0e704	-0.11762813
45	0xbcbf60a6	-0.023361515
46	0xbcf5ea51	-0.030018957
47	0xbc06164b	-0.008184026
48	0xbc4b1a69	-0.012396433
49	0x3da15930	0.07878339
50	0xbdae6e57	-0.085171394
51	0x3c96924e	0.01838031
52	0xbde24863	-0.11048963
53	0x3de67804	0.1125336
54	0x3cb0d195	0.021584312
55	0xbd6f32fc	-0.058398232
56	0x3dae2315	0.08502785
57	0x3d998232	0.07495536
58	0xbdd30f92	-0.10305704
59	0xbd68b929	-0.056817207
60	0x3d81a7cd	0.063308336
61	0xbd884237	-0.066532545
62	0x3dff65ad	0.12470565
63	0x3dd0ed5d	0.102015235
64	0x3daaa7e7	0.08332806
65	0x3d13eec7	0.036116388
66	0xbd2975af	-0.041371997
67	0xbdb72600	-0.08942795
68	0x3d75bfe6	0.05999746
69	0x3dc37ccc	0.095452875
70	0x3d85b5a6	0.06528787
71	0xbdb739be	-0.0894656
72	0x3d811ec9	0.063047
73	0x3dc0a882	0.0940714
74	0x3e070ba1	0.1318803
75	0x3de8d9a7	0.11369639
76	0x3d9e4838	0.077286184
77	0xbd6e94ed	-0.058247495
78	0x3b66f82a	0.0035243132
79	0x3cc9c592	0.024630342
80	0xbc5e83c3	-0.013581219
81	0xbc2c22a1	-0.010506303
82	0x3daf9d90	0.085749745
83	0xbdb9128f	-0.09036743
84	0x3d7be992	0.061502047
85	0x3d193ed7	0.037413444
86	0xbc05e5fe	-0.00817251
87	0xbce8e61f	-0.028430043
88	0x3d0b6870	0.034035146
89	0xbd24d0d8	-0.04023823
90	0x3dac57aa	0.08415158
91	0xbdaca68a	-0.08430202
92	0x3e04db7a	0.12974349
93	0xbc74e552	-0.014947252
94	0xbcaba449	-0.02095236
95	0xbddf3883	-0.10899451
96	0x3d272dd6	0.040815197
97	0x3dad91e2	0.084750906
98	0xbda9a520	-0.08283448
99	0xbdbbe040	-0.09173632
100	0x3aecfb57	0.0018080276
101	0xbc4b9764	-0.012426231
102	0x3d4cd818	0.05001077
103	0x3ddf164f	0.10892927
104	0x3dc0905d	0.09402535
105	0x3dbfb1a2	0.09360053
106	0xbd9d5572	-0.07682313
107	0xbe05950a	-0.13045135
108	0x3d54ba6e	0.051935606
109	0x3d1be0d9	0.03805623
110	0x3cc9efe9	0.02465053
111	0xbe066b96	-0.13126978
112	0xbc45d208	-0.012074001
113	0x3dd7c731	0.105360396
114	0xbd5dcd51	-0.054150883
115	0xbd0ee3b7	-0.034885135
116	0x3cf54157	0.029938383
117	0x3da1448b	0.07874402
118	0xbe059b16	-0.13047442
119	0xbd17c972	-0.037057348
120	0xbddbb5d6	-0.10728042
121	0x3d43f517	0.047841158
122	0x3e0869af	0.13321565
123	0xbd740f6c	-0.05958502
124	0x3dab95e0	0.08378196
125	0x3da00e84	0.07815269
126	0x3d9a295d	0.07527421
127	0x3dccdf49	0.10003526
128	0x3d54a4b6	0.051914893
129	0x3a9418df	0.0011298916
130	0xbca8fa91	-0.020627292
131	0xbd956b81	-0.07295895
132	0xbc585600	-0.013204098
133	0x3d26d1af	0.040727314
134	0x3d68b88c	0.056816623
135	0xbb77f794	-0.0037836777
136	0xbd49ae2b	-0.049238365
137	0xbbf597f5	-0.0074949213
138	0xbd1b40f1	-0.03790373
139	0xbd1bd66d	-0.03804629
140	0x3dc80a43	0.09767582
141	0x3cccaa01	0.024983408
142	0xbdd931b6	-0.10605185
143	0x3d9f7be6	0.077873036
144	0x3dd998a5	0.10624818
145	0xbdd5de5c	-0.10442802
146	0x3d7ddb0f	0.06197649
147	0x3de8ebda	0.1137311
148	0x3d21bc90	0.039486468
149	0xbdb3275c	-0.087477416
150	0xbd94ba84	-0.072621375
151	0x3c493efa	0.012283081
152	0xbdf1eb79	-0.11812491
153	0xbc8dca0b	-0.017308256
154	0xbc019277	-0.007908455
155	0x3d877cca	0.066155985
156	0x3d763140	0.060105562
157	0xbdb23c07	-0.087028556
158	0x3c9d1ca4	0.019178696
159	0x3da031f3	0.07822027
160	0x3d222230	0.039583385
161	0x3d6da42e	0.058017902
162	0xbc430f32	-0.011905478
163	0x3d8f77c3	0.070052646
164	0xbc8ed170	-0.017433852
165	0xbc909407	-0.01764871
166	0x3ce9b473	0.028528428
167	0xbdad94dc	-0.08475658
168	0x3c2ccf32	0.010547446
169	0x3de57b26	0.11205129
170	0x3d9d594f	0.0768305
171	0x3d11f3ab	0.03563277
172	0x3d912f7e	0.070891365
173	0x3de4468d	0.11146269
174	0xbc9152ab	-0.017739614
175	0x3d63d510	0.055623114
176	0x3de6c7b6	0.112685606
177	0xbab75d79	-0.0013989649
178	0x3d139ae0	0.036036372
179	0xbd437ae8	-0.047724634
180	0xbca92e7f	-0.020652054
181	0xbdad8abc	-0.08473727
182	0x3c070c5f	0.008242696
183	0xbdf2d8b0	-0.11857736
184	0x3d829e84	0.06377891
185	0x3d2e1f9b	0.04251061
186	0x3d18239d	0.03714334
187	0xbdea354f	-0.11435949
188	0xbcc1dc56	-0.023664635
189	0xbdb1b08f	-0.08676254
190	0xbdf58036	-0.11987345
191	0xbd5778c1	-0.052605394
192	0x3d7e6d5c	0.062116012
193	0x3dcf1b8c	0.10112676
194	0xbca1f949	-0.019772189
195	0xbdce2608	-0.10065848
196	0xbdb3728f	-0.08762085
197	0xbdee198d	-0.11625967
198	0x3c0ffcab	0.008788268
199	0x3de55eab	0.11199697
200	0x3b35ecc9	0.0027759543
201	0x3da7482e	0.08168064
202	0xbd896feb	-0.067108
203	0x3d4faf30	0.05070418
204	0x3de07058	0.10958928
205	0xbdcd5fb2	-0.10028018
206	0xbd990065	-0.074707784
207	0xbdcd4a89	-0.10023982
208	0x3d042577	0.03226229
209	0x3d9405c3	0.072276615
210	0x3dd9f450	0.10642302
211	0xbd9f2cb9	-0.07772202
212	0xbdc7af90	-0.09750283
213	0xbdef2511	-0.11676992
214	0xbcdc169b	-0.026866248
215	0xbc9088e8	-0.017643407
216	0xbd8a8ab4	-0.06764737
217	0xbd7dffd3	-0.06201155
218	0xbd674fd6	-0.05647262
219	0x3ddcd95c	0.107836455
220	0xbcd2f547	-0.025751723
221	0x3db20e41	0.08694125
222	0x3d721298	0.059099764
223	0x3de29365	0.110632695
224	0x3d28913d	0.041154135
225	0xbda350fe	-0.079744324
226	0x3d76c5c2	0.06024719
227	0x3c989d25	0.01862962
228	0xbdcb2f76	-0.09921162
229	0x3dfb49cb	0.12269934
230	0x3cc10b8d	0.023565078
231	0x3dbc283b	0.09187361
232	0x3cae59bf	0.021283029
233	0xbddb2e32	-0.107021704
234	0x3cb0e9da	0.021595884
235	0xbdb5c8f2	-0.08876218
236	0xbdf1cabc	-0.11806247
237	0xbda4db3e	-0.0804963
238	0xbda8082b	-0.08204683
239	0x3d5478b8	0.05187294
240	0x3dfe2215	0.124088444
241	0x3df23bb7	0.11827796
242	0x3d8bad82	0.06820203
243	0xba34dfd1	-0.00068998063
244	0x3dd52be5	0.10408763
245	0x3d241ca8	0.04006639
246	0xbb23c00d	-0.0024986297
247	0x3df9f697	0.122052364
248	0x3d9561d3	0.07294049
249	0x3d410682	0.047125347
250	0xbcd13498	-0.025537774
251	0xbd85425d	-0.065067984
252	0x3dbc5f9e	0.09197925
253	0x3d3d0564	0.04614772
254	0x3d865b43	0.065603755
255	0x3dda757b	0.10666939

rnn.bias_ih_l1 f4 [64]
0	0x3dd5bcf2	0.10436429
1	0xbd7fb692	-0.062429972
2	0xbd843f6a	-0.06457408
3	0x3d9b8154	0.07593027
4	0xbcf089e3	-0.029362625
5	0xbd6965d4	-0.056981876
6	0xbde447b9	-0.111464925
7	0xbd728c2a	-0.059215702
8	0xbda4701f	-0.08029198
9	0x3d9692a7	0.073521905
10	0x3cb022c8	0.02150096
11	0xbc30fd78	-0.010802619
12	0x3df0cf15	0.11758248
13	0x3c842a8b	0.016133567
14	0xbdaf1bb2	-0.08550204
15	0xbd7a0043	-0.061035406
16	0x3c842430	0.016130537
17	0x3d8ccdde	0.068752035
18	0xbd2c0443	-0.04199625
19	0xbbab1c83	-0.0052219047
20	0x3cd12191	0.025528701
21	0xbd8651c9	-0.06558568
22	0x3dad41c6	0.08459811
23	0x3cd6c205	0.026215563
24	0xbd5d2fa6	-0.05400052
25	0xbdc72779	-0.09724326
26	0x3c8212ed	0.015878165
27	0x3d97f5c2	0.074199215
28	0xbdc431a0	-0.09579778
29	0x3dcc0e12	0.09963621
30	0xbda9f331	-0.08298338
31	0x3dd70259	0.10498495
32	0xbd2a1f4c	-0.041533753
33	0xbb50859b	-0.0031817916
34	0xbcc241be	-0.023712989
35	0x3cdd6342	0.027024869
36	0x3dfbf862	0.12303235
37	0xbd145a7f	-0.036219116
38	0x3dd785cd	0.10523567
39	0x3d4de2be	0.050265066
40	0x3d48f724	0.049063817
41	0x3dc55da6	0.09637003
42	0x3debaf89	0.1150809
43	0x3d63c68c	0.05560927
44	0xbd9d94bc	-0.076943845
45	0xbd42ddb1	-0.047574703
46	0xbdac92de	-0.0842645
47	0x3c4353f7	0.011921874
48	0x3d529eb2	0.051420875
49	0x3cf6db06	0.030133735
50	0xbd7d17c2	-0.061790235
51	0xbddd3fd1	-0.10803188
52	0x3d99a399	0.07501907
53	0x3dae5b0f	0.08513462
54	0x3d880aac	0.066426605
55	0x3c6e111f	0.014530449
56	0xbdf5f5f9	-0.12009806
57	0xbd52653f	-0.051366087
58	0x3cb38050	0.02191177
59	0xbda42db8	-0.08016533
60	0x3c0142d7	0.007889471
61	0x3df73e58	0.12072438
62	0xbc580843	-0.0131855635
63	0xbd7bab5b	-0.061442714

rnn.bias_hh_l1 f4 [64]
0	0x3df8e444	0.12152913
1	0xbca40466	-0.020021629
2	0x3d24b4f9	0.04021165
3	0xbdc5bd9c	-0.09655306
4	0x3de477c3	0.11155655
5	0x3d2d9910	0.0423823
6	0x3d0cb987	0.03435662
7	0xbd7c9ae3	-0.06167115
8	0xbdbe0bcd	-0.092795946
9	0xbd9f7f50	-0.07787955
10	0x3ccad3a9	0.02475913
11	0x3d59aba6	0.053142212
12	0x3d26e15d	0.040742267
13	0x3dc7789d	0.09739802
14	0x3da77470	0.081765056
15	0xbd6e1123	-0.05812181
16	0x3d010957	0.031503048
17	0x3cd14418	0.025545165
18	0x3d080a55	0.03321298
19	0x3dad9a95	0.0847675
20	0x3d900772	0.0703267
21	0xbccd08ff	-0.025028704
22	0x3dd3dea8	0.10345203
23	0x3c263dd5	0.010146578
24	0xbcb564cc	-0.02214279
25	0x3d6329ea	0.055459894
26	0x3c9a08d4	0.018803038
27	0xbcac824a	-0.02105822
28	0x3d8d7dd0	0.069087625
29	0xbdc67cf8	-0.09691805
30	0xbc397b79	-0.011320942
31	0x3d87b3b3	0.06626072
32	0x3db84cbc	0.08999011
33	0x3cfca330	0.030839533
34	0xbd902dfb	-0.0704002
35	0x3dacf41b	0.08444997
36	0xbd9aaa4a	-0.07552011
37	0x3d461e69	0.048368845
38	0x3ddebb2d	0.10875545
39	0xbbb12dd2	-0.0054070735
40	0x3d317e38	0.043333262
41	0xbc92a6a9	-0.017901735
42	0xbc59535b	-0.013264502
43	0xbd869d3a	-0.06572957
44	0xbda0a6e8	-0.07844335
45	0xbd8bee8d	-0.06832609
46	0x3db155ce	0.08658944
47	0x3c9889e5	0.01862044
48	0xbc1f43c5	-0.009720747
49	0xbd1822a5	-0.037142415
50	0x3ddb6459	0.10712499
51	0x3d8f8751	0.070082314
52	0xbd9bbea7	-0.076047234
53	0xbca410f2	-0.020027611
54	0x3debd24f	0.115147226
55	0x3dfcc849	0.12342889
56	0x3d3c49c7	0.045968797
57	0xbd92664a	-0.07148416
58	0x3d968b0a	0.07350738
59	0x3d07e6a9	0.03317896
60	0xbd8805c9	-0.066417284
61	0xbd8cfdd4	-0.068843514
62	0xbd872f3d	-0.06600807
63	0x3c8eaa1f	0.017415104

fc.weight f4 [1, 64]
0	0xbd35f920	-0.044427037
1	0xbc2c327d	-0.010510084
2	0x3d88adff	0.06673812
3	0x3c4438ab	0.011976401
4	0x3de515bb	0.111857854
5	0xbd97ed95	-0.07418362
6	0x3da6bea4	0.081418306
7	0x3c46eb0d	0.012141001
8	0x3d40c2ae	0.04706066
9	0x3dd6d332	0.10489501
10	0xbcf9f281	-0.030511143
11	0x3d88e9d7	0.066852264
12	0xbcd388aa	-0.025822002
13	0x3c868a3f	0.016423343
14	0xbd7002af	-0.05859631
15	0x3dcbde7a	0.099545434
16	0xbc52ed93	-0.012874025
17	0x3cc83f01	0.024444105
18	0xbd4dfffa	-0.050292946
19	0x3de40b29	0.11134941
20	0x3d84b3e9	0.06479628
21	0xbc8e4649	-0.017367499
22	0xbdb361e7	-0.08758908
23	0x3d453b29	0.048152123
24	0x3dce9d83	0.10088637
25	0x3df57de4	0.11986902
26	0xbd63b523	-0.055592667
27	0x3d89dbbb	0.067313634
28	0xbd7e26a4	-0.06204857
29	0x3cf10532	0.029421423
30	0x3c1f0ebe	0.009708105
31	0xbc916e06	-0.017752659
32	0xbc654912	-0.013994472
33	0xbd1470f1	-0.03624052
34	0x3d270788	0.040778667
35	0xbdaa5897	-0.083176784
36	0xbcbf4bba	-0.023351539
37	0x3dbedc09	0.09319312
38	0xbd34c954	-0.044137314
39	0xbd1d1cae	-0.03835743
40	0x3d541002	0.05177308
41	0x3d62e998	0.055398554
42	0xbdf244b0	-0.11829507
43	0x3ae4792e	0.0017431134
44	0xbd3c8bb8	-0.046031684
45	0x3da5baa3	0.08092239
46	0x3db3c3b2	0.0877756
47	0xbd667f3b	-0.05627368
48	0xbdb282b5	-0.08716337
49	0x3dbdd165	0.092684545
50	0xbdaa70de	-0.08322309
51	0xbded6d3b	-0.115931
52	0x3dea3f72	0.114378825
53	0xbbf60579	-0.0075079766
54	0x3d0625b8	0.032750815
55	0x3d837f23	0.06420734
56	0x3ce72f95	0.028220931
57	0xbda5f958	-0.08104199
58	0x3db2ec62	0.08736493
59	0x3c0c83d0	0.008576348
60	0x3c118162	0.008880945
61	0xbdfab69b	-0.122418605
62	0x3d02729e	0.03184759
63	0x3dc8433e	0.097784504
