reports/lstm_best.pt (torch, 206053 bytes, 9 tensors)

lstm.weight_ih_l0 f4 [256, 1]
-0.06867296 0.10081224 0.12498982 -0.013558378 -0.038330775 0.047789127 0.09091969 0.04348836
0.053130865 0.08522361 -0.11597338 0.05613441 0.03693939 0.037486576 0.03066502 -0.030242592
-0.011722078 0.06480919 0.10369966 0.118132256 -0.051887892 -0.013989778 0.081730776 -0.08038855
0.10191499 0.054045197 0.059272055 -0.0625909 -0.10945166 0.026739612 0.032724496 -0.023838159
0.024239257 -0.12346906 0.07151668 0.05928618 0.08166962 -0.04001571 -0.08206226 -0.12410179
-0.096933134 0.03434921 -0.052043267 -0.03606972 0.010639127 0.10564153 0.054462995 -0.077470556
0.017815249 0.05336036 -0.05152584 -0.04821275 -0.068930894 -0.09700316 0.056740236 0.08600034
0.029529866 0.12544127 0.053353913 0.0069458066 -0.032033794 -0.036310542 0.034846324 0.10651664
0.11034177 0.119359374 0.029753363 -0.078033276 -0.07527048 -0.08852671 -0.03369984 -0.03652485
0.025767747 -0.11061838 0.042612806 0.026412044 -0.029489994 -0.05990125 0.06431603 -0.008497892
0.021942137 -0.1062071 -0.0023232144 0.08682788 0.0329103 -0.064671 -0.027607165 -0.07420301
0.07310196 -0.0806641 0.030301379 0.05692348 0.075400986 -0.06191672 -0.050027933 -0.019605514
0.03156735 0.05589132 -0.11295138 -0.00333705 -0.06698637 0.047136303 0.06884986 -0.06779791
0.010578588 -0.09932472 -0.012676236 0.043301333 0.0015967677 -0.07293998 0.00885586 -0.10880493
0.08324431 0.07345284 0.1052774 -0.09378432 -0.056033224 -0.051475123 -0.017724732 0.0041259755
0.073606454 0.054188736 -0.11009578 0.08802211 -0.097688384 0.1030612 0.116620176 0.06716106
0.025172167 0.022341436 0.08486028 -0.06275 0.12329545 -0.11089806 0.01186336 0.014542989
0.115473054 0.08053109 -0.08787008 0.001176212 -0.038072344 0.051192205 0.048858546 -0.09745627
-0.036755886 -0.075600676 0.005283048 0.025336456 -0.06614313 0.12065179 -0.08668688 0.08054685
-0.014298861 -0.039222863 -0.05294491 -0.027375884 0.014073404 0.07858196 0.083551496 0.08004562
0.0959902 0.056980975 -0.013834374 0.124122456 0.0114291515 -0.07217818 0.047201533 -0.04716625
-0.011190254 0.0061355694 -0.10970511 0.10842258 -0.06533697 0.07791687 -0.10598363 0.018891724
0.018871142 0.08421425 -0.106155664 0.09080583 -0.039126534 0.018209614 -0.061908096 -0.08277453
0.054385312 0.024762884 -0.012015168 -0.0489384 -0.036190376 -0.0575909 0.11034694 0.12660374
-0.011224607 0.018001046 0.0014194759 -0.06253588 0.014237115 -0.06855503 0.05157502 -0.12115392
0.066153616 -0.018025829 -0.11120338 -0.013552226 -0.12326905 0.07080932 0.105720215 0.0010553435
-0.11597391 0.06651517 0.072324924 0.049563378 0.07334069 0.016882028 -0.024009917 -0.03530996
0.07026666 -0.01286554 0.032255925 0.08583982 0.11597113 -0.04510068 0.072570905 0.09523093
-0.06374354 0.123200834 -0.0753382 -0.1256408 0.07607648 -0.059419736 -0.118716165 -0.045455612
0.03676104 -0.0084497845 -0.11083838 -0.054536212 0.05799125 0.02810236 -0.04431551 -0.031898495
-0.03966986 -0.088695146 -0.0754676 -0.11585788 -0.009170936 -0.002278533 0.032452505 0.063767
0.040290404 0.005010977 0.08221783 -0.12467881 -0.091734454 0.092607126 0.030993683 -0.10728958
00000000: 69a4 8cbd a676 ce3d aafa ff3d f623 5ebc
00000010: bb00 1dbd 88be 433d 1a34 ba3d da20 323d
00000020: c09f 593d b789 ae3d 7483 edbd 32ed 653d
00000030: c24d 173d 868b 193d 3535 fb3c 50bf f7bc
00000040: f50d 40bc aeba 843d 7d60 d43d 53ef f13d
00000050: 6688 54bd 6235 65bc 7762 a73d c1a2 a4bd
00000060: ceb8 d03d 7f5e 5d3d 41c7 723d a82f 80bd
00000070: 3128 e0bd 080d db3c 1f0a 063d 3e48 c3bc
00000080: 6891 c63c 59dd fcbd 5677 923d 11d6 723d
00000090: 6742 a73d 83e7 23bd 4210 a8bd 1429 febd
000000a0: e184 c6bd c2b1 0c3d 522b 55bd d8bd 13bd
000000b0: bc4f 2e3c 965a d83d 9714 5f3d e2a8 9ebd
000000c0: 49f1 913c 6590 5a3d c20c 53bd bc7a 45bd
000000d0: a42b 8dbd 98a9 c6bd 7368 683d f220 b03d
000000e0: 9ee8 f13c ad73 003e a289 5a3d a699 e33b
000000f0: de35 03bd 5dba 14bd 05bb 0e3d 6525 da3d
00000100: defa e13d b072 f43d 53bd f33c e9cf 9fbd
00000110: 6927 9abd 7e4d b5bd d808 0abd 159b 15bd
00000120: e216 d33c e48b e2bd c48a 2e3d 125e d83c
00000130: 0095 f1bc 035b 75bd 1fb8 833d be3a 0bbc
00000140: ffbf b33c 1c83 d9bd 1241 18bb d1d2 b13d
00000150: f3cc 063d 3b72 84bd 6c28 e2bc bff7 97bd
00000160: 7bb6 953d 3833 a5bd 993a f83c 9828 693d
00000170: d56b 9a3d 639c 7dbd 17ea 4cbd be9b a0bc
00000180: c44c 013d 4cee 643d 0e53 e7bd 69b2 5abb
00000190: 2630 89bd ff11 413d 2801 8d3d a1d9 8abd
000001a0: d051 2d3c c26a cbbd fdaf 4fbc bd5c 313d
000001b0: a24a d13a 8e61 95bd 2b18 113c 1ed5 debd
000001c0: fe7b aa3d 716e 963d ad9b d73d fe11 c0bd
000001d0: 1883 65bd 94d7 52bd 7533 91bc 3133 873b
000001e0: fbbe 963d 02f5 5d3d e579 e1bd f044 b43d
000001f0: d910 c8bd c011 d33d 8fd6 ee3d bd8b 893d
00000200: dc35 ce3c 6305 b73c 3acb ad3d 1283 80bd
00000210: 5382 fc3d 861e e3bd 8a5e 423c b845 6e3c
00000220: 237d ec3d 7ced a43d 3af5 b3bd 202b 9a3a
00000230: bff1 1bbd ebae 513d e61f 483d 2797 c7bd
00000240: 578d 16bd 87d4 9abd 6b1d ad3b 668e cf3c
00000250: 0d76 87bd 4918 f73d e488 b1bd bff5 a43d
00000260: c545 6abc 27a8 20bd c3dc 58bd 6443 e0bc
00000270: 2294 663c 94ef a03d 0c1d ab3d f5ee a33d
00000280: 8396 c43d e264 693d 92a9 62bc ea33 fe3d
00000290: 5641 3b3c 27d2 93bd 6556 413d 6631 41bd
000002a0: 5457 37bc e30c c93b 13ad e0bd a80c de3d
000002b0: 64cf 85bd e192 9f3d f20d d9bd d1c2 9a3c
000002c0: a797 9a3c 8578 ac3d 2468 d9bd 68f8 b93d
000002d0: 2543 20bd 542c 953c 5893 7dbd b185 a9bd
000002e0: 22c3 5e3d 88db ca3c 44db 44bc a273 48bd
000002f0: 5c3c 14bd 70e4 6bbd 94fd e13d 69a4 013e
00000300: 6ae7 37bc ee76 933c b50d ba3a d012 80bd
00000310: ca42 693c 9466 8cbd 5440 533d 8c1f f8bd
00000320: 8c7b 873d e7aa 93bc 99be e3bd 280a 5ebc
00000330: 7c74 fcbd 7a04 913d d783 d83d 7453 8a3a
00000340: bb83 edbd 1b39 883d 171f 943d f802 4b3d
00000350: a533 963d 2e4c 8a3c 72b0 c4bc 2da1 10bd
00000360: f7e7 8f3d fcc9 52bc ca1e 043d cacc af3d
00000370: 4682 ed3d 7ebb 38bd 0ea0 943d 6f08 c33d
00000380: f98b 82bd b850 fc3d ea4a 9abd fba7 00be
00000390: fccd 9b3d 1c62 73bd 7621 f3bd aa2f 3abd
000003a0: bf92 163d f770 0abc 3cff e2bd 5d61 5fbd
000003b0: 3c88 6d3d ec36 e63c 2e84 35bd ffa7 02bd
000003c0: dd7c 22bd cda5 b5bd c28e 9abd e546 edbd
000003d0: b241 16bc 7153 15bb ebec 043d 4698 823d
000003e0: 8d07 253d 1f33 a43b d261 a83d 9b57 ffbd
000003f0: 46df bbbd cea8 bd3d 77e6 fd3c a4ba dbbd

lstm.weight_hh_l0 f4 [256, 64]
0.10417409 0.09222636 0.041172285 -0.10769666 0.008859297 0.02713653 -0.071518876 0.037123952
-0.013840525 0.10887646 0.014415889 -0.10167333 -0.06308332 -0.0886448 -0.041344304 -0.1184349
-0.12992738 -0.04546241 0.04971144 -0.028048761 -0.018032406 0.086063035 0.016737785 -0.08097566
-0.04098096 -0.062370438 0.006227794 0.099310644 0.094404265 0.12180932 -0.090446174 0.008366943
0.058034033 0.06643604 0.049203202 0.038611814 0.009832359 -0.029115787 -0.064692914 -0.018075498
-0.01772854 -0.11784284 -0.07488448 0.09377174 -0.032492373 0.070983656 -0.09390727 -0.0069941413
0.022046305 0.054027107 -0.08135769 0.091024496 -0.0579469 -0.122681044 -0.095948614 -0.012943806
0.10529818 0.06790526 0.10576935 -0.09374344 -0.013271789 0.07682202 0.005329497 -0.07222499
0.106247224 -0.051365256 -0.041916583 -0.08003556 -0.034336917 -0.059156574 -0.08271603 0.07439055
0.059991412 -0.09066859 -0.054463625 -0.09037167 -0.034922604 -0.055839885 0.02958458 0.107556194
0.02613226 -0.04480668 -0.03406683 -0.065287665 -0.0005502004 -0.0067835315 -0.10987832 -0.11157919
-0.019276405 -0.0729555 0.008076389 -0.01270601 -0.11962792 -0.07420596 -0.099824026 -0.067673266
-0.07179721 -0.0818033 0.042906813 0.09544371 -0.0016267619 0.07322875 0.03653979 0.028524345
0.06683004 -0.09809697 0.09371377 0.059310276 0.040761705 -0.1159651 -0.05395966 -0.038344115
-0.08029866 0.09516404 -0.118115164 -0.046254035 0.09491941 -0.024676928 -0.01217371 -0.0890165
-0.05597773 0.035794552 -0.027938373 0.0676896 0.011372184 0.0071854163 -0.056267425 0.1151157
0.04772226 -0.11709772 0.12421861 0.11014389 0.055804726 -0.03148262 0.025307639 -0.117325105
-0.11685269 0.100200154 -0.07685537 -0.08048004 0.12560919 -0.070979595 -0.044825554 0.10525424
0.010377508 0.114535436 0.041366097 -0.035686005 0.035045028 -0.009980215 0.0026156665 0.042788833
-0.046158977 0.06964918 -0.09402066 -0.088085674 -0.07721577 -0.09478006 -0.10329294 -0.042530805
0.0881607 0.07820199 -0.0949525 0.08963228 0.11877428 -0.08401655 -0.11089154 0.12567492
-0.02086186 -0.044075247 -0.08595847 0.042238656 -0.109730475 0.12661833 0.049566284 -0.04591726
0.037995256 -0.048115537 0.031897686 0.06447793 0.07970119 -0.05102289 0.0055987355 0.063624695
0.03803732 0.09560602 -0.0876995 0.01593965 -0.0077100345 0.091671504 -0.030762339 -0.107323885
-0.10198493 0.12087249 0.09880341 -0.09728974 -0.11865608 0.062167246 0.0030250428 0.07128768
0.081664816 -0.106492564 0.06339325 -0.04892413 0.004359193 -0.026686167 -0.12511556 -0.09705341
0.065230265 -0.11161155 -0.1185807 0.029392734 -0.042431656 -0.0052381223 0.013323668 -0.019084426
0.07041052 0.05766129 -0.032344807 0.00263842 -0.0164725 -0.10193565 -0.0115328925 0.087782994
0.022705976 0.008871266 0.019792486 -0.004188726 0.06427819 -0.046240844 0.03868905 -0.10009906
-0.118365176 0.11479759 0.046596915 0.027205147 0.12427317 0.06984578 0.12586021 0.0062782797
0.011085199 -0.031169854 -0.051736433 -0.10184044 -0.06400788 -0.056089018 0.078671694 -0.0770393
-0.12099019 -0.04946225 -0.012442829 0.04631228 0.12120466 0.07881259 -0.110805206 0.026111538
00000000: 3a59 d53d 2de1 bc3d 45a4 283d 1190 dcbd
00000010: 9626 113c 6e4d de3c 7d78 92bd 490f 183d
00000020: 5fc3 62bc 9ffa de3d 9f30 6c3c 1b3a d0bd
00000030: d431 81bd 688b b5bd a558 29bd ff8d f2bd
00000040: af0b 05be cb36 3abd 399e 4b3d 84c6 e5bc
00000050: b2b8 93bc d141 b03d ae1d 893c 91d6 a5bd
00000060: a7db 27bd 2578 7fbd 8612 cc3b 6163 cb3d
00000070: 0657 c13d 2a77 f93d d83b b9bd 8115 093c
00000080: 18b5 6d3d 9e0f 883d 4c89 493d 6c27 1e3d
00000090: e717 213c 3b84 eebc b87d 84bd 1113 94bc
000000a0: 713b 91bc 9657 f1bd 095d 99bd 660b c03d
000000b0: b916 05bd e15f 913d 7452 c0bd 1c2f e5bb
000000c0: 749a b43c 874b 5d3d dc9e a6bd 0d6b ba3d
000000d0: bb59 6dbd 3340 fbbd b580 c4bd 4212 54bc
000000e0: 92a6 d73d ea11 8b3d 9a9d d83d 90fc bfbd
000000f0: eb71 59bc dd54 9d3d 10a3 ae3b b2ea 93bd
00000100: 2598 d93d 6064 52bd b9b0 2bbd afe9 a3bd
00000110: dea4 0cbd 2a4e 72bd 0667 a9bd 135a 983d
00000120: 8eb9 753d 74b0 b9bd 4015 5fbd c814 b9bd
00000130: 010b 0fbd 5db8 64bd 5c5b f23c 6c46 dc3d
00000140: 5213 d63c 3687 37bd a989 0bbd 8ab5 85bd
00000150: 533b 10ba 6348 debb e207 e1bd a183 e4bd
00000160: 8de9 9dbc b169 95bd d552 043c de2c 50bc
00000170: 7cff f4bd 4bf9 97bd 8a70 ccbd 4898 8abd
00000180: 6a0a 93bd 7d88 a7bd 0ebf 2f3d fe77 c33d
00000190: 1239 d5ba f4f8 953d bfaa 153d e3ab e93c
000001a0: 30de 883d 10e7 c8bd 01ed bf3d 55ef 723d
000001b0: bff5 263d 1c7f edbd ce04 5dbd b80e 1dbd
000001c0: a073 a4bd 5de5 c23d 5de6 f1bd df74 3dbd
000001d0: 1c65 c23d 4527 cabc 3e74 47bc 484e b6bd
000001e0: e748 65bd 4f9d 123d 04df e4bc d8a0 8a3d
000001f0: 6652 3a3c a473 eb3b ac78 66bd c8c1 eb3d
00000200: 6b78 433d eed0 efbd 5466 fe3d 1f93 e13d
00000210: 7f93 643d ebf3 00bd f751 cf3c 2548 f0bd
00000220: 7750 efbd bd35 cd3d 5966 9dbd b8d2 a4bd
00000230: b29f 003e c05d 91bd 009b 37bd 898f d73d
00000240: 6c06 2a3c 8e91 ea3d 7f6f 293d 7d2b 12bd
00000250: 608b 0f3d 0e84 23bc 9a6b 2b3b 5843 2f3d
00000260: 3211 3dbd 3ba4 8e3d e78d c0bd 4366 b4bd
00000270: 4d23 9ebd 0c1c c2bd 408b d3bd c834 2ebd
00000280: 998d b43d 5d28 a03d 7576 c2bd 2191 b73d
00000290: ee3f f33d de10 acbd 1b1b e3bd edb0 003e
000002a0: 7ee6 aabc 3f88 34bd ff0a b0bd 7102 2d3d
000002b0: 5fba e0bd 3ca8 013e 0406 4b3d bd13 3cbd
000002c0: eaa0 1b3d cc14 45bd 26a7 023d 010d 843d
000002d0: 613a a33d 61fd 50bd 9975 b73b aa4d 823d
000002e0: 05cd 1b3d 17cd c33d cc9b b3bd de93 823c
000002f0: 75a4 fcbb 45be bb3d 4d01 fcbc a0cc dbbd
00000300: 7add d0bd ff8b f73d 7159 ca3d d83f c7bd
00000310: f501 f3bd 15a3 7e3d cc3f 463b 46ff 913d
00000320: e23f a73d c618 dabd 52d4 813d ab64 48bd
00000330: 90d7 8e3b f39c dabc 4b1e 00be f0c3 c6bd
00000340: 7297 853d 9994 e4bd 70da f2bd 08c9 f03c
00000350: d1cc 2dbd 8ea4 abbb 844b 5a3c f156 9cbc
00000360: 6433 903d 3f2e 6c3d fd7b 04bd 58e9 2c3b
00000370: 56f1 86bc a3c3 d0bd 75f4 3cbc 92c7 b33d
00000380: e201 ba3c c958 113c da23 a23c 9541 89bb
00000390: 49a4 833d 0a67 3dbd 6978 1e3d bc00 cdbd
000003a0: 7169 f2bd 001b eb3d 68dc 3e3d 54dd de3c
000003b0: ef82 fe3d 4e0b 8f3d 80e1 003e 07ba cd3b
000003c0: b29e 353c ec57 ffbc 95e9 53bd b891 d0bd
000003d0: 9016 83bd 99bd 65bd a01e a13d c8c6 9dbd
000003e0: b4c9 f7bd ee98 4abd 02dd 4bbc f2b1 3d3d
000003f0: 263a f83d 7f68 a13d d7ed e2bd dde7 d53c

lstm.bias_ih_l0 f4 [256]
-0.1280279 0.080520116 0.05343667 -0.011907911 -0.06319956 0.045755148 -0.042666472 0.09266057
0.089111954 -0.029235441 0.088934 -0.044230334 0.022296749 0.0013228861 0.06628255 0.049212646
0.025331654 -0.106364466 -0.017982742 0.10205794 0.106194474 0.10197856 0.028650124 0.055457894
-0.05653636 0.057208635 0.0012390681 0.0719697 -0.010620093 -0.032121263 0.04128776 -0.11126451
0.096888475 -0.0391085 -0.07531935 0.06468227 -0.07730308 -0.043593407 0.091268495 0.022215227
0.10341343 0.03349923 -0.09621455 -0.014523923 -0.11347356 0.084385395 0.049032018 -0.021858303
0.035205666 -0.025060276 -0.0829614 0.07826713 0.074567914 0.102258295 0.0628925 -0.08503458
-0.046697695 -0.057787977 -0.0849586 0.056395065 -0.023421166 0.091845945 0.11910222 0.053403467
-0.116051875 -0.11266796 -0.09960546 -0.00082255347 0.02700173 0.09283368 0.103356026 -0.03727366
0.10164582 0.09816389 -0.064005665 0.00019380613 0.10216694 0.055285268 0.013311303 -0.114425905
0.08509861 -0.041018125 0.1145376 -0.11170535 0.110062584 0.0107734855 -0.10888644 0.020473856
0.05729466 -0.014164004 -0.11050617 -0.03654159 -0.086210616 -0.042193945 -0.12288502 0.03130765
-0.09653883 0.010781995 0.031222686 0.10970215 0.056559507 0.030045407 -0.04091366 0.086753935
-0.027213236 -0.025285574 -0.063394316 -0.0024479246 -0.08870399 -0.09334219 -0.045779392 0.0006856387
-0.058844846 0.10666129 -0.10870508 -0.007287662 -0.105229564 -0.07099697 -0.09216929 0.021806484
-0.051948212 -0.039987795 0.041575324 -0.016317131 -0.11447194 0.007327322 0.046110615 -0.020535298
0.060177416 -0.012882831 -0.03119133 0.09371594 0.08827458 0.08358444 0.09783367 6.503127e-05
0.005493777 -0.08274654 -0.0039053995 -0.04098502 -0.020071508 -0.046732984 0.020762902 0.08996748
-0.0456395 -0.11653709 -0.09430656 0.008246365 0.113032185 -0.11568499 -0.12257803 -0.027275804
0.118466586 0.090180956 0.038728166 0.07927582 0.10193656 0.0560149 -0.043249015 0.03208123
0.01609528 -0.089074954 -0.062760554 0.06444614 -0.08260588 -0.0069622453 -0.09486236 0.038749833
0.059291907 0.02670058 0.024682755 0.08768121 0.09181993 -0.11710943 -0.038527764 -0.0051681283
0.062768236 0.09567503 -0.099063136 -0.0699056 -0.092979416 0.058737624 0.028811904 0.039328713
0.0060302187 0.028001675 0.10590258 -0.10026828 0.1117799 -0.05494582 0.065381445 -0.08760632
0.11073862 -0.120847076 -0.12945594 -0.081678025 -0.10654028 -0.110996746 -0.022706691 0.016153697
0.11558148 0.08499901 0.11968774 -0.08410754 0.09331837 0.109931044 0.003401937 -0.082983576
0.078990094 -0.03962279 -0.11198447 0.045572363 0.04660504 0.08782372 0.061423548 -0.097645774
-0.04976553 0.101110294 -0.10805723 0.037253935 -0.11003839 -0.10849405 -0.030566387 -0.009160855
-0.047017675 -0.03484529 -0.096091546 -0.052069247 -0.10498316 -0.02905469 -0.09937327 0.047160722
-0.048692193 -0.046324812 -0.04822451 0.023280157 0.10455042 0.0575981 -0.108739324 0.09669867
0.055714216 0.03768637 -0.031358723 -0.005781617 0.08003124 -0.1186541 -0.04543306 0.0050803106
0.10789447 -0.083896466 0.048391744 -0.044723205 -0.084094875 0.05079135 -0.01276494 -0.043338135
00000000: bf19 03be bbe7 a43d 69e0 5a3d 6619 43bc
00000010: c56e 81bd c069 3b3d 0ac3 2ebd d3c4 bd3d
00000020: 5480 b63d 2a7f efbc 0723 b63d de2a 35bd
00000030: aca7 b63c b164 ad3a 25bf 873d 3393 493d
00000040: 5484 cf3c 9dd5 d9bd 8b50 93bc c103 d13d
00000050: 7d7c d93d 23da d03d aab3 ea3c d127 633d
00000060: ac92 67bd 9a53 6a3d 3a68 a23a da64 933d
00000070: e6ff 2dbc 9691 03bd 5b1d 293d a6de e3bd
00000080: 776d c63d 3c30 20bd 0841 9abd 2378 843d
00000090: 1451 9ebd 008f 32bd faea ba3d b5fc b53c
000000a0: 6cca d33d 7d36 093d 220c c5bd c0f5 6dbc
000000b0: d364 e8bd 40d2 ac3d ccd5 483d 2f10 b3bc
000000c0: d133 103d 354b cdbc abe7 a9bd 844a a03d
000000d0: 10b7 983d cc6c d13d c8cd 803d 9c26 aebd
000000e0: 1546 3fbd 16b3 6cbd c6fe adbd 83fe 663d
000000f0: bfdd bfbc ba19 bc3d ddeb f33d 98bd 5a3d
00000100: 9bac edbd 76be e6bd f3fd cbbd a1a0 57ba
00000110: bb32 dd3c 961f be3d 53ac d33d 44ac 18bd
00000120: af2b d03d 260a c93d 6715 83bd 7038 4b39
00000130: e73c d13d ce72 623d a717 5a3c 2158 eabd
00000140: 2e48 ae3d 9f02 28bd b092 ea3d c6c5 e4bd
00000150: 7e68 e13d 4683 303c dbff debd cab8 a73c
00000160: cead 6a3d 2310 68bc 0f51 e2bd a2ac 15bd
00000170: 318f b0bd 8fd3 2cbd 24ab fbbd 733c 003d
00000180: 26b6 c5bd f7a6 303c b8c6 ff3c 85ab e03d
00000190: f1aa 673d c921 f63c 1595 27bd 0cac b13d
000001a0: 4bee debc b123 cfbc e1d4 81bd 5c6d 20bb
000001b0: 70aa b5bd 312a bfbd 2c83 3bbd 6fbc 333a
000001c0: 4b07 71bd 3c71 da3d c5a0 debd 57cd eebb
000001d0: 9982 d7bd dc66 91bd 41c3 bcbd 83a3 b23c
000001e0: a6c7 54bd 3eca 23bd e34a 2a3d 81ab 85bc
000001f0: 4470 eabd 081a f03b 7cde 3c3d a439 a8bc
00000200: 987c 763d 8212 53bc f684 ffbc 25ee bf3d
00000210: 4ec9 b43d 522e ab3d 055d c83d 6661 8838
00000220: 2405 b43b 0577 a9bd bbf1 7fbb e9df 27bd
00000230: 016d a4bc 166b 3fbd f616 aa3c df40 b83d
00000240: 7cf0 3abd ffaa eebd cc23 c1bd c31b 073c
00000250: 6b7d e73d 41ec ecbd 310a fbbd 8271 dfbc
00000260: 9c9e f23d cbb0 b83d 6da1 1e3d 5c5b a23d
00000270: 1dc4 d03d e16f 653d e125 31bd 9c67 033d
00000280: 40da 833c ee6c b6bd 9b88 80bd 56fc 833d
00000290: 462d a9bd 8c23 e4bb 3247 c2bd 25b8 1e3d
000002a0: 12dc 723d 2dbb da3c 7d33 ca3c 3592 b33d
000002b0: 160c bc3d 12d7 efbd 4acf 1dbd 6759 a9bb
000002c0: a28c 803d 45f1 c33d 9de1 cabd ab2a 8fbd
000002d0: fe6b bebd dd96 703d f106 ec3c 2517 213d
000002e0: 2499 c53b c563 e53c 74e3 d83d 7559 cdbd
000002f0: dcec e43d de0e 61bd b5e6 853d f16a b3bd
00000300: eeca e23d ac7e f7bd 1990 04be cf46 a7bd
00000310: ca31 dabd 4352 e3bd 6203 babc c254 843c
00000320: fcb5 ec3d f613 ae3d d91e f53d 9340 acbd
00000330: b41d bf3d 8723 e13d 08f3 5e3b 4bf3 a9bd
00000340: 8fc5 a13d 824b 22bd 1d58 e5bd 16aa 3a3d
00000350: ede4 3e3d ecdc b33d 4297 7b3d 82fa c7bd
00000360: f1d6 4bbd ea12 cf3d 1c4d ddbd 9597 183d
00000370: cf5b e1bd 2132 debd 5c66 fabc 6917 16bc
00000380: 9b95 40bd efb9 0ebd a5cb c4bd 9046 55bd
00000390: 6901 d7bd 1a04 eebc 3784 cbbd 9a2b 413d
000003a0: 7771 47bd 16bf 3dbd 1087 45bd 07b6 be3c
000003b0: 881e d63d fceb 6b3d b9b2 debd f409 c63d
000003c0: 9734 643d 065d 1a3d 0172 00bd b873 bdbb
000003d0: 6be7 a33d ec00 f3bd 0418 3abd bc78 a63b
000003e0: c7f7 dc3d e9d1 abbd 6c36 463d ae2f 37bd
000003f0: ef39 acbd 970a 503d 0a24 51bc 5483 31bd

lstm.bias_hh_l0 f4 [256]
0.027639208 0.007943499 -0.11626869 0.048571065 0.02049317 -0.11113406 0.119163044 -0.102019645
-0.087388545 -0.026405428 0.054301202 -0.019202884 0.0555137 -0.108350925 0.0224513 0.09741234
-0.042967226 0.06817395 -0.1050244 -0.016732186 0.06760142 0.02347843 -0.037476763 -0.12183251
0.034223408 0.07180302 -0.06344907 0.022659224 -0.023908751 0.09868587 -0.033421677 -0.07929039
-0.04139349 0.0657365 -0.07170409 0.015702125 -0.086445585 -0.09918779 -0.052979097 -0.015748251
0.058494255 0.08938518 0.007163831 -0.0379409 -0.04349137 -0.045856167 0.08618786 0.084390655
-0.00026180412 0.04877411 0.11487139 0.038456853 0.11544867 0.023750413 -0.02488651 -0.0796919
0.11870034 0.027853375 -0.04807998 0.014926956 -0.091022395 -0.058805104 0.09986297 -0.0103060175
-0.1158787 0.067964405 0.07724259 -0.11210358 -0.0057545505 0.06607534 0.078088574 0.04977843
-0.003726228 -0.04163495 0.06486147 -0.0012888737 0.10736451 -0.11916122 -0.047985498 -0.046069603
0.04730178 0.11138992 -0.025460156 0.048295785 -0.03841788 -0.08138372 -0.025941942 0.017480064
-0.100169316 0.079239815 0.011570265 0.101398885 0.07439176 -0.06255144 -0.115890354 -0.006265557
-0.017468296 0.093502246 -0.1056871 -0.12732582 0.10472463 -0.024104092 0.03711344 0.096548334
-0.06995813 -0.03302838 0.084574014 0.024041433 0.057503946 -0.11603131 -0.03516598 -0.023411354
-0.028956011 0.112961054 0.044023998 -0.07407764 0.019524215 -0.0043949243 0.0977624 0.043832846
-0.083533645 0.022870833 0.045410227 -0.048214052 0.06946364 0.008786175 0.032028545 0.106169775
0.10921963 0.10446468 0.05376133 0.056706775 0.0448715 0.030094462 0.062210675 -0.085483775
0.08655802 0.032540966 0.054817203 0.019190757 0.04503692 0.07338569 0.08873412 0.0501275
0.08024347 -0.070088856 -0.06947315 0.0013036309 0.09125342 0.1047202 0.09812527 -0.022074852
0.064918146 0.04497582 0.08485862 0.063711 -0.0026169939 -0.08091401 -0.065602005 -0.044429533
0.07267048 0.067117795 -0.04739022 0.06005435 0.07443938 0.093782015 0.043460827 -0.066668056
-0.025840936 0.043647133 -0.03330851 -0.0057214634 0.06356126 0.027087167 0.07425389 -0.027970389
-0.035910137 -0.02183352 -0.043578923 0.08071924 0.026274763 0.116291955 0.09065549 -0.072682686
0.07298875 -0.04494618 -0.004129503 0.056542832 -0.014121694 -0.031086955 0.011798978 -0.032858476
0.0687156 0.04960771 -0.08716382 0.047567558 0.103268415 0.033823173 0.0808318 0.06816491
0.05109301 0.06848143 0.052520826 -0.0076084817 -0.078872144 -0.07607076 0.017116178 0.12225571
-0.12393414 0.04823228 -0.083038755 0.047761418 -0.06795293 -0.020172438 -0.12888595 -0.11618732
-0.085835114 0.122234054 0.011065382 0.07787072 0.10624585 -0.047002017 0.094534844 0.037991606
-0.118992835 0.07980431 0.102474816 0.006065107 0.041456796 -0.0012001658 -0.12249445 0.10497264
-0.021143604 0.010713873 -0.10646477 -0.1047172 0.046392187 -0.07771768 -0.04303791 0.0052345702
0.05034181 -0.06360527 0.044990867 0.09674101 -0.028042596 -0.0077924537 0.06901228 -0.016913837
0.0029227242 -0.13424112 -0.070551045 0.018219331 -0.091044016 0.027063178 0.022719668 -0.09763118
00000000: 9f6b e23c 7325 023c 471e eebd 74f2 463d
00000010: 4be1 a73c 419a e3bd c10b f43d adef d0bd
00000020: c4f8 b2bd 3250 d8bc f06a 5e3d 5e4f 9dbc
00000030: 5562 633d 17e7 ddbd caeb b73c 1f80 c73d
00000040: 67fe 2fbd c99e 8b3d 0817 d7bd f011 89bc
00000050: 9d72 8a3d d655 c03c 3c81 19bd 5383 f9bd
00000060: d82d 0c3d 760d 933d 96f1 81bd d69f b93c
00000070: 49dc c3bc d11b ca3d 2be5 08bd 0063 a2bd
00000080: 388c 29bd dca0 863d 98d9 92bd bea1 803c
00000090: 620a b1bd f822 cbbd 9c00 59bd 7a02 81bc
000000a0: ac97 6f3d 940f b73d 92be ea3b eb67 1bbd
000000b0: 0224 32bd add3 3bbd 4383 b03d 02d5 ac3d
000000c0: c142 89b9 5cc7 473d b141 eb3d ef84 1d3d
000000d0: 5a70 ec3d 3a90 c23c cbde cbbc 8235 a3bd
000000e0: 2a19 f33d c32c e43c 83ef 44bd 3190 743c
000000f0: f369 babd 9fdd 70bd f584 cc3d 92da 28bc
00000100: d051 edbd ec30 8b3d 5d31 9e3d 9096 e5bd
00000110: ab90 bcbb 8252 873d e7ec 9f3d 78e4 4b3d
00000120: bb33 74bb 6989 2abd 17d6 843d 6def a8ba
00000130: ede1 db3d cc0a f4bd 718c 44bd 7bb3 3cbd
00000140: 83bf 413d 6620 e43d d191 d0bc cdd1 453d
00000150: 115c 1dbd 82ac a6bd 3284 d4bc 5a32 8f3c
00000160: 9225 cdbd 7c48 a23d 3591 3d3c 38aa cf3d
00000170: b55a 983d f81a 80bd ec57 edbd 4d4f cdbb
00000180: ac19 8fbc 1b7e bf3d 7a72 d8bd b361 02be
00000190: de79 d63d f275 c5bc 4304 183d 22bb c53d
000001a0: 3546 8fbd c448 07bd 2435 ad3d 8af2 c43c
000001b0: 4289 6b3d d3a1 edbd 340a 10bd 2bc9 bfbc
000001c0: 2835 edbc 2058 e73d 8252 343d 05b6 97bd
000001d0: 3ff1 9f3c 4c03 90bb a737 c83d 128a 333d
000001e0: b013 abbd 9d5b bb3c 1300 3a3d 197c 45bd
000001f0: f442 8e3d e4f3 0f3c 5d30 033d 8a6f d93d
00000200: 8bae df3d 94f1 d53d d734 5c3d 5d45 683d
00000210: 2ecb 373d a988 f63c 9fd0 7e3d 1e12 afbd
00000220: 5545 b13d ad49 053d 0188 603d ef35 9d3c
00000230: a278 383d 3d4b 963d 3cba b53d 7e52 4d3d
00000240: b056 a43d bf8a 8fbd f047 8ebd 98de aa3a
00000250: 13e3 ba3d 8b77 d63d e7f5 c83d 52d6 b4bc
00000260: cef3 843d 9138 383d 5bca ad3d ea7a 823d
00000270: df81 2bbb 3fb6 a5bd 585a 86bd befb 35bd
00000280: 43d4 943d 0e75 893d 3f1c 42bd 8dfb 753d
00000290: ac73 983d c910 c03d fb03 323d 4389 88bd
000002a0: 5fb0 d3bc 56c7 323d 816e 08bd 1d7b bbbb
000002b0: 682c 823d e8e5 dd3c 6c12 983d 2822 e5bc
000002c0: 8216 13bd 36dc b2bc d07f 32bd 2150 a53d
000002d0: 2c3e d73c 7a2a ee3d 96a9 b93d a9da 94bd
000002e0: 207b 953d 7c19 38bd c850 87bb 7599 673d
000002f0: ad5e 67bc 12aa febc 8050 413c 9c96 06bd
00000300: c4ba 8c3d 7431 4b3d f282 b2bd 33d6 423d
00000310: 647e d33d 2b8a 0a3d 258b a53d 0b9a 8b3d
00000320: e746 513d fe3f 8c3d 1420 573d 9250 f9bb
00000330: b887 a1bd fdca 9bbd 3a37 8c3c 3461 fa3d
00000340: 2fd1 fdbd 368f 453d 3910 aabd 7aa1 433d
00000350: e82a 8bbd ab40 a5bc aefa 03be 9ef3 edbd
00000360: 52ca afbd d955 fa3d 934b 353c af7a 9f3d
00000370: 6d97 d93d 3085 40bd 7c9b c13d 169d 1b3d
00000380: 84b2 f3bd 7170 a33d 51de d13d cebd c63b
00000390: 9ace 293d e24e 9dba 5fde fabd e5fb d63d
000003a0: 5a35 adbc 3e89 2f3c 340a dabd f975 d6bd
000003b0: bc05 3e3d 722a 9fbd 8548 30bd c286 ab3b
000003c0: 3733 4e3d 7b43 82bd 5848 383d 2720 c63d
000003d0: 96b9 e5bc d757 ffbb 4f56 8d3d e38e 8abc
000003e0: 2d8b 3f3b 8176 09be 117d 90bd b540 953c
000003f0: 4975 babd 99b3 dd3c 991e ba3c dbf2 c7bd

lstm.weight_ih_l1 f4 [256, 64]
-0.021010136 0.08547448 -0.020133125 -0.11780713 0.016545225 0.08331171 -0.049044438 -0.0009633297
-0.1280529 -0.06919565 0.10291627 0.1170591 0.06690939 0.075801015 -0.021208458 0.028916484
-0.00036119678 -0.06187104 0.017262323 -0.092727326 0.055980485 0.08927752 -0.017963598 0.0644056
0.06979182 0.023092166 0.029236507 0.103604555 -0.06750307 0.011841844 -0.11899226 0.011442283
0.042023554 -0.01163989 -0.026623081 0.09089289 0.070669875 -0.015027125 -0.04153099 0.006365272
0.07140348 0.024076719 0.06677738 0.120203756 0.044495363 -0.062929645 -0.01986641 0.053551026
-0.06481382 0.10651464 -0.12111424 -0.101594135 0.03550635 -0.0868471 0.11265645 -0.07289159
-0.11134102 -0.02011124 -0.0128687 0.12763435 0.08568441 0.084352896 -0.039677262 -0.029861571
-0.064160086 0.04143368 0.090531506 0.05413258 0.053870868 0.10945482 -0.014567758 0.06105497
-0.11443425 -0.06425234 -0.114741005 0.044423196 -0.05560489 0.05099584 0.06744551 0.07839371
0.10705895 0.09488863 0.05208705 -0.07003828 -0.111561395 0.038189963 0.12329688 0.025506206
0.093664855 0.032604005 -0.11933595 0.117658205 0.096796334 0.05470694 0.106091134 0.1174561
0.009655167 -0.09215341 0.011920992 -0.06679626 0.060491487 0.098085105 0.11441958 0.048965756
0.09634595 -0.071145035 -0.0066788252 0.008159961 0.09561711 -0.03838925 -0.057842858 0.12075583
-0.045552455 0.08907747 0.100198135 0.10951775 0.025773097 0.04145546 -0.058861915 0.113945864
0.0488063 0.09123178 0.056018375 0.10209383 -0.10037375 -0.02434636 -0.019065678 -0.07544489
0.05286818 0.08343893 0.06860649 -0.008092763 0.107317284 0.028549816 0.061068427 0.10907757
0.05577602 0.12646706 -0.03745836 -0.0045326054 -0.07288549 -0.038391463 0.08435875 0.06996864
-0.050885513 0.02490633 0.09440622 -0.066712484 0.04105561 0.06395855 -0.062139235 0.013582407
-0.06974013 0.025790598 0.056127466 0.03920208 -0.13173291 0.087287545 0.12545381 -0.005358041
0.05106642 -0.06561917 -0.0933045 -0.02824372 0.017328067 0.051882394 0.062150735 0.0055831466
-0.035954352 0.112694606 0.115817755 -0.072701894 0.048625384 0.11574589 -0.08142431 0.10214525
0.05591888 -0.12678015 -0.022520801 0.03408875 -0.052195095 -0.026714636 -0.021809157 0.035459
-0.091421306 -0.03352378 0.097894825 0.06595633 -0.007005208 0.046744883 0.03127118 0.1098085
0.117287494 0.09692548 -0.116354614 -0.07747019 0.040870808 -0.015764698 -0.029977193 -0.107887745
-0.03393561 0.06278039 0.056901548 -0.026062515 -0.03671306 0.09564274 -0.029103449 0.039396286
-0.105132066 0.05521735 0.11050385 0.09557766 -0.0028371182 0.10922689 0.018444547 -0.09879111
-0.08513641 -0.06748731 0.041600857 -0.0012607333 -0.08584252 0.013084156 -0.040683866 -0.03397213
0.028225621 0.07669908 0.08946372 0.02306977 0.043209575 -0.052359708 0.09372357 0.12455954
-0.01082566 -0.07705862 0.032347623 0.01307235 -0.037651855 0.07643428 -0.1218701 -0.12144314
-0.024172405 -0.030940441 0.10006599 0.103794426 0.09992128 -0.06595753 0.09198704 0.09377214
0.005080127 0.110170476 -0.121701665 0.108361654 0.013682636 0.074805975 -0.005298126 -0.05194177
00000000: 731d acbc 3f0d af3d 39ee a4bc dd44 f1bd
00000010: da89 873c 549f aa3d d2e2 48bd f687 7cba
00000020: 4d20 03be 73b6 8dbd c4c5 d23d aebc ef3d
00000030: ca07 893d 903d 9b3d 5cbd adbc 43e2 ec3c
00000040: 035f bdb9 7d6c 7dbd b769 8d3c d3e7 bdbd
00000050: cb4b 653d 22d7 b63d 6528 93bc 15e7 833d
00000060: 04ef 8e3d c82b bd3c 6681 ef3c a02e d43d
00000070: 0d3f 8abd 4b04 423c 37b2 f3bd 6a78 3b3c
00000080: e420 2c3d 3db5 3ebc a618 dabc 0d26 ba3d
00000090: 5ebb 903d 5534 76bc 661c 2abd c693 d03b
000000a0: fd3b 923d 8a3c c53c 94c2 883d 632d f63d
000000b0: c540 363d 42e1 80bd e2be a2bc 5258 5b3d
000000c0: 1cbd 84bd 5924 da3d be0a f8bd 9610 d0bd
000000d0: 1b6f 113d e4dc b1bd 6db8 e63d 3048 95bd
000000e0: c306 e4bd 54c0 a4bc 3dd7 52bc 94b2 023e
000000f0: 4f7b af3d 36c1 ac3d a084 22bd 41a0 f4bc
00000100: 5d66 83bd 5db6 293d 9568 b93d 20ba 5d3d
00000110: b3a7 5c3d d929 e03d 9bad 6ebc c714 7a3d
00000120: 815c eabd bb96 83bd 55fd eabd 19f5 353d
00000130: f4c1 63bd 04e1 503d df20 8a3d e28c a03d
00000140: b941 db3d f854 c23d 3b59 553d 3b70 8fbd
00000150: 4d7a e4bd 146d 1c3d 1383 fc3d 64f2 d03c
00000160: 5cd3 bf3d c78b 053d 6866 f4bd c9f6 f03d
00000170: 283d c63d 6214 603d 4f46 d93d d38c f03d
00000180: b530 1e3c edba bcbd 4450 433c 7acc 88bd
00000190: ecc5 773d d8e0 c83d d054 ea3d 5190 483d
000001a0: 0751 c53d 7db4 91bd 0cda dabb 5bb1 053c
000001b0: e7d2 c33d 0c3e 1dbd a2ec 6cbd d54e f73d
000001c0: 3695 3abd 406e b63d ae34 cd3d d84a e03d
000001d0: 1a22 d33c 33cd 293d 3119 71bd 735c e93d
000001e0: 1de9 473d bad7 ba3d 8673 653d 9216 d13d
000001f0: c190 cdbd 0472 c7bc a02f 9cbc da82 9abd
00000200: 4e8c 583d 08e2 aa3d 8f81 8c3d 8297 04bc
00000210: 2ac9 db3d 4ee1 e93c e322 7a3d 1064 df3d
00000220: 6575 643d 9580 013e f06d 19bd 4086 94bb
00000230: fd44 95bd 5e40 1dbd 48c4 ac3d b84b 8f3d
00000240: 546d 50bd 5c08 cc3c 0c58 c13d 8ea0 88bd
00000250: ed29 283d b3fc 823d b685 7ebd be88 5e3c
00000260: ead3 8ebd ce46 d33c eae5 653d 5c92 203d
00000270: fee4 06be d0c3 b23d f776 003e 8192 afbb
00000280: 062b 513d 5863 86bd 6e16 bfbd 605f e7bc
00000290: 97f3 8d3c a282 543d c591 7e3d d4f2 b63b
000002a0: df44 13bd 6ecc e63d dc31 ed3d bbe4 94bd
000002b0: 692b 473d 2e0c ed3d cac1 a6bd 8731 d13d
000002c0: 320b 653d a8d2 01be 8b7d b8bc a5a0 0b3d
000002d0: 86ca 55bd a7d8 dabc 1ea9 b2bc 753d 113d
000002e0: 183b bbbd 3b50 09bd 157d c83d 1d14 873d
000002f0: f28b e5bb 9077 3f3d 3516 003d 47e3 e03d
00000300: 6d34 f03d de80 c63d 544b eebd b1a8 9ebd
00000310: 2668 273d f824 81bc bb92 f5bc 40f4 dcbd
00000320: 1100 0bbd 0193 803d 9911 693d 0e81 d5bc
00000330: 6f60 16bd 57e0 c33d 5b6a eebc 005e 213d
00000340: 7b4f d7bd 972b 623d d84f e23d 38be c33d
00000350: f2ee 39bb 59b2 df3d 0519 973c fe52 cabd
00000360: 005c aebd c936 8abd a965 2a3d 313f a5ba
00000370: 34ce afbd ee5e 563c 20a4 26bd 5c26 0bbd
00000380: 6b39 e73c 6814 9d3d c138 b73d d0fc bc3c
00000390: 86fc 303d 2277 56bd 25f2 bf3d 1219 ff3d
000003a0: 1c5e 31bc e9d0 9dbd f17e 043d 692d 563c
000003b0: d538 1abd 9389 9c3d 0897 f9bd 2eb7 f8bd
000003c0: 3505 c6bc cf76 fdbc 66ef cc3d 2c92 d43d
000003d0: 87a3 cc3d be14 87bd b463 bc3d 9c0b c03d
000003e0: 3277 a63b 0fa1 e13d b93e f9bd b7ec dd3d
000003f0: 232d 603c e033 993d e79b adbb e5c0 54bd

lstm.weight_hh_l1 f4 [256, 64]
0.07240466 0.069294386 0.10912493 0.07792383 0.058756392 0.030316293 -0.02781624 0.07894235
0.047610395 -0.09524848 0.049631212 -0.11532704 0.11337337 0.067391366 -0.019999817 0.028037325
-0.0182905 -0.041165266 0.021308381 -0.052381743 -0.10313336 0.012478797 0.055997424 0.056477133
0.017594932 -0.12336471 -0.025253331 -0.050389946 -0.027855352 0.08295145 0.022171134 -0.12267126
0.11465616 0.10927517 -0.08922935 -0.0023409242 -0.026546542 0.07574297 -0.061878752 0.026391739
0.010733978 0.06409941 -0.08825873 0.06428671 -0.017271033 -0.034021977 -0.003101313 0.052372076
-0.03363662 -0.022977624 -0.09293238 -0.03778245 -0.06231591 0.07542482 0.09241089 0.043499615
0.047850937 0.09879411 -0.033086695 -0.0075182337 0.08762609 -0.09741181 -0.042380236 0.103537194
0.086837076 0.08216068 0.10664319 -0.0743974 -0.04972539 -0.05052513 -0.067175955 0.10011087
-0.04095116 -0.048056297 -0.12022616 -0.0032326211 -0.051399708 0.047365427 0.0074132057 0.12760662
-0.1036803 -0.061325137 0.003137511 -0.080526546 0.10263633 0.052637834 0.027468013 -0.06729607
-0.03791092 -0.10084598 0.09609619 -0.007989365 0.012407228 -0.051127035 0.11386388 0.023537738
-0.11567825 -0.018545825 0.033465296 0.0895697 -0.019833157 -0.036342207 0.1251384 -0.111215435
-0.053036425 -0.11165022 -0.050017048 0.109168425 0.046004016 -0.057645418 0.12000976 -0.06517568
0.096922 0.0647418 -0.012976658 0.06943697 0.047848836 0.009376126 0.082379006 0.11219893
0.08575477 -0.022102563 0.03987294 0.026829587 -0.057336956 -0.113319434 0.12870021 -0.1176578
-0.09227187 -0.0007665006 0.114805244 0.04922349 0.126279 -0.099572636 0.10189271 0.04281581
0.116939165 0.026128987 -0.053567614 0.12533137 0.08812827 0.13119768 0.026407147 0.103457764
0.05962503 0.0132445665 0.06082678 -0.001739766 0.08541895 -0.06849984 0.07298428 -0.013494793
0.10098864 -0.0008608694 -0.120301515 0.104404576 0.13091041 -0.014219235 -0.062116757 0.110886514
-0.007507172 0.0036473535 -0.013390337 0.052553486 0.014528397 -0.00050690636 0.042965632 -0.05428628
0.029108806 0.05286057 -0.12360012 -0.08667842 -0.062547565 -0.0014818308 0.03462279 -0.05077036
-0.06004978 0.09985889 -0.009672349 0.010779821 -0.078884795 -0.109952636 -0.12296205 0.006073539
-0.05457235 0.062525384 -0.09289416 -0.025832104 0.078066684 -0.05463136 0.061796155 0.06373117
-0.11028198 0.10587536 0.013992283 -0.07943729 0.11428838 0.016172962 0.023283182 0.052886795
0.0074493056 -0.076140836 -0.12096702 -0.07633968 0.0635187 0.09244125 0.057480086 0.015092525
0.028250886 0.08115459 -0.124157324 -0.08952018 -0.13879432 -0.03863525 0.07418838 -0.09060074
0.077904165 0.1138928 -0.036348727 0.09907957 0.096928045 0.047106575 -0.015146745 -0.03439953
0.047936086 -0.09938882 0.10025707 0.06417995 0.018747464 -0.07172344 -0.04121786 -0.086123765
-0.057419118 0.09722485 0.0069794557 -0.09953855 -0.027993139 0.016801557 -0.0693902 0.09097809
-0.030064855 -0.02025849 -0.04461111 0.044241004 0.07213021 0.023907816 -0.047634993 0.07073039
0.033744838 0.06623188 -0.11199495 -0.016515277 0.003841349 -0.00781307 -0.03283013 0.020618321
00000000: e548 943d 37ea 8d3d e47c df3d 8796 9f3d
00000010: 8baa 703d e059 f83c e2de e3bc 87ac a13d
00000020: 1e03 433d a311 c3bd 194a 4b3d 9530 ecbd
00000030: 4c30 e83d 7c04 8a3d a8d6 a3bc 88ae e53c
00000040: f5d5 95bc e99c 28bd ea8e ae3c 3d8e 56bd
00000050: 9537 d3bd de73 4c3c 8e5d 653d 9154 673d
00000060: 3f23 903c a3a6 fcbd 13e0 cebc b065 4ebd
00000070: e830 e4bc 73e2 a93d 3da0 b53c 123b fbbd
00000080: d9d0 ea3d a9cb df3d e1bd b6bd 316a 19bb
00000090: 2278 d9bc 211f 9b3d 9374 7dbd 7d33 d83c
000000a0: 91dd 2f3c 8d46 833d fec0 b4bd c0a8 833d
000000b0: fb7b 8dbc a15a 0bbd 663f 4bbb 1a84 563d
000000c0: 8dc6 09bd 923b bcbc 5553 bebd c5c1 1abd
000000d0: f83e 7fbd 5478 9a3d ec41 bd3d a72c 323d
000000e0: 58ff 433d 9154 ca3d ea85 07bd 845b f6bb
000000f0: 4f75 b33d d87f c7bd e696 2dbd 4f0b d43d
00000100: a3d7 b13d dc43 a83d bf67 da3d aa5d 98bd
00000110: daac 4bbd 70f3 4ebd 8c93 89bd ee06 cd3d
00000120: 67bc 27bd aed6 44bd 2239 f6bd 62da 53bb
00000130: 8088 52bd 4002 423d 7aea f23b 4fab 023e
00000140: 5656 d4bd 1130 7bbd b39e 4d3b 1aeb a4bd
00000150: ff32 d23d c59a 573d 9904 e13c 86d2 89bd
00000160: 7b48 1bbd 5688 cebd 14ce c43d d3e5 02bc
00000170: b047 4b3c 956a 51bd 7731 e93d 37d2 c03c
00000180: b8e8 ecbd 6aed 97bc e812 093d 5270 b73d
00000190: 2579 a2bc 91db 14bd 4824 003e ebc4 e3bd
000001a0: b93c 59bd dfa8 e4bd adde 4cbd b293 df3d
000001b0: b56e 3c3d 9a1d 6cbd adc7 f53d d47a 85bd
000001c0: 0b7f c63d 5997 843d 0c9c 54bc f834 8e3d
000001d0: 24fd 433d 539e 193c 53b6 a83d 8dc8 e53d
000001e0: 32a0 af3d 6f10 b5bc cf51 233d b9c9 db3c
000001f0: 28da 6abd 0514 e8bd fdc9 033e 93f6 f0bd
00000200: 09f9 bcbd fcee 48ba 031f eb3d 929e 493d
00000210: 484f 013e bdec cbbd 20ad d03d a15f 2f3d
00000220: cd7d ef3d 750c d63c b769 5bbd de56 003e
00000230: 987c b43d af58 063e cd53 d83c aae1 d33d
00000240: 6039 743d bdff 583c 8025 793d dc08 e4ba
00000250: 21f0 ae3d a549 8cbd c878 953d 4419 5dbc
00000260: 22d3 ce3d f8ab 61ba a460 f6bd 11d2 d53d
00000270: 610d 063e cbf7 68bc 246e 7ebd 7818 e33d
00000280: b9fe f5bb 7008 6f3b 2563 5bbc 5342 573d
00000290: 8308 6e3c e9e1 04ba bbfc 2f3d 4a5b 5ebd
000002a0: 9775 ee3c 5384 583d 0f22 fdbd 7584 b1bd
000002b0: f018 80bd fe39 c2ba a0d0 0d3d 95f4 4fbd
000002c0: c2f6 75bd d182 cc3d c678 1ebc d99d 303c
000002d0: 5a8e a1bd d92e e1bd 87d3 fbbd 8a04 c73b
000002e0: 4287 5fbd 4f0d 803d 4b3f bebd d99d d3bc
000002f0: 6de1 9f3d 22c5 5fbd f71d 7d3d 7d85 823d
00000300: 85db e1bd 2ed5 d83d e33f 653c 05b0 a2bd
00000310: 0710 ea3d 297d 843c 5fbc be3c d39f 583d
00000320: 4e19 f43b baef 9bbd 8fbd f7bd fa57 9cbd
00000330: 1816 823d d751 bd3d 3d70 6b3d a346 773c
00000340: 676e e73c 6134 a63d 3246 febd 5b56 b7bd
00000350: 1920 0ebe ff3f 1ebd 14f0 973d e18c b9bd
00000360: 388c 9f3d a140 e93d 67e2 14bd 3bea ca3d
00000370: 3682 c63d d3f2 403d 0e2a 78bc 86e6 0cbd
00000380: a158 443d 5e8c cbbd 9453 cd3d c770 833d
00000390: 4894 993c bde3 92bd 0fd4 28bd a861 b0bd
000003a0: 4f30 6bbd d21d c73d ebb3 e43b deda cbbd
000003b0: de51 e5bc 6ba3 893c 731c 8ebd b952 ba3d
000003c0: 924a f6bc 22f5 a5bc 24ba 36bd 0e36 353d
000003d0: 01b9 933d 53da c33c e91c 43bd 18db 903d
000003e0: 0738 0a3d 94a4 873d 9c5d e5bd 0c4b 87bc
000003f0: 24bf 7b3b 6402 00bc e378 06bd c1e7 a83c

lstm.bias_ih_l1 f4 [256]
0.094091885 -0.044379633 0.0050870823 0.123858236 -0.039381485 -0.025402376 0.01472756 -0.013204662
0.07616442 -0.022489136 0.07055013 -0.034403455 -0.014827731 0.0019037185 -0.11763265 -0.054081704
-0.104057334 0.11056565 -0.11625478 -0.08350832 -0.07513451 -0.112982795 -0.050566275 0.105338246
0.10563759 -0.02890255 0.015601283 -0.03528868 0.09971367 -0.12603052 0.031366825 0.1191849
0.09842394 0.045469083 0.052782953 -0.0009852564 0.065046005 -0.04666765 -0.1156702 -0.12789498
0.0054454417 0.06622018 -0.10909406 0.048296474 -0.008724258 0.11734282 -0.049950257 0.00010519316
-0.008305442 0.012616323 -0.049133856 -0.08885805 -0.048958078 0.075964 -0.02295947 -0.049015336
-0.07625544 -0.014149321 -0.120186485 -0.11221575 -0.004227067 0.04970576 -0.07897632 0.0286165
0.0403047 0.09797649 -0.04529562 0.018184897 -0.08907972 0.04615187 0.11275735 -0.12080116
-0.08015915 -0.11672296 -0.04235762 -0.12714495 -0.009995334 0.04915007 -0.02952875 0.1106354
-0.10300708 -0.116295226 0.10114294 -0.10651246 0.03222476 0.08313349 -0.08155621 -0.03599554
0.01529517 -0.07318411 0.05028786 0.076258175 0.06710514 -0.06607425 -0.05885333 -0.027335135
0.05375529 0.08717555 0.08127763 0.08646507 0.07544145 0.06843364 -0.07148546 -0.09936807
0.025068866 -0.12249931 -0.06501994 0.026397873 0.041057486 -0.044915058 -0.06117936 0.028695326
0.08595317 0.044389628 -0.049445994 0.053511787 0.018013444 -0.09777558 0.0851 -0.03554936
0.022918982 0.08397496 0.08334313 -0.08993007 0.06685111 -0.08768984 0.017672133 0.03372523
-0.11418962 -0.030320778 -0.009885752 0.09620964 -0.023263358 -0.01698818 -0.052892372 -0.0240521
-0.12558173 0.007625775 0.08061669 -0.029553676 0.10362847 -0.08090587 0.0019609754 -0.11797729
-0.06586304 -0.11396232 -0.0706842 0.02280541 -0.046285238 -0.10479439 -0.036650565 0.0867367
0.07065009 -0.048471153 0.03370672 -0.102295004 -0.06630225 0.017236434 0.025235202 0.10121148
0.020831468 0.07248413 -0.08915931 0.04363765 -0.028646534 0.08929922 -0.10970279 -0.10817713
-0.07083339 0.11043666 -0.07227391 0.0674423 -0.016532587 0.089915186 0.07614517 0.00079697
-0.12461658 -0.03736621 0.08407794 -0.025866933 -0.11963947 0.0038774447 -0.051795002 -0.0037446492
-0.07061017 -0.105702154 -0.052433804 0.060752418 0.014986692 0.07346451 -0.12486561 -0.0007259674
-0.008460703 -0.10184564 -0.05597324 -0.016399546 -0.061616663 0.0133535545 0.0900784 -0.06641525
-0.062351726 -0.024730764 0.08595775 -0.04784123 -0.103738666 0.104655944 0.064664036 0.012065098
-0.07067478 -0.11870468 -0.003899737 -0.055766374 0.058706548 0.08378914 -0.03127789 -0.13268487
-0.0024552937 -0.042976335 0.10389896 -0.042307544 -0.057829417 -0.074672304 -0.11813286 -0.12199918
-0.019882398 0.07525502 0.012248902 0.030985171 -0.03422403 -0.025388747 -0.0996248 0.009623458
0.015239608 0.024169458 0.02661303 0.050228182 0.054823663 -0.042026278 0.009954539 0.10572472
-0.0013630522 0.042371716 -0.04002833 -0.05019991 -0.07186257 -0.036621768 0.116968356 -0.028654976
0.030114371 -0.09848631 -0.11048848 -0.075460225 0.0636262 0.07901248 0.048948586 0.10732521
00000000: 3fb3 c03d 6bc7 35bd 8ab1 a63b 63a9 fd3d
00000010: 7b4e 21bd a518 d0bc dd4b 713c 5e58 58bc
00000020: 17fc 9b3d 233b b8bc 967c 903d a3ea 0cbd
00000030: 03f0 72bc 3186 f93a 63e9 f0bd c784 5dbd
00000040: 031c d5bd 3e70 e23d fc16 eebd 6906 abbd
00000050: 1fe0 99bd 8663 e7bd 951e 4fbd 94bb d73d
00000060: 8558 d83d 0ac5 ecbc 869c 7f3c dd8a 10bd
00000070: ae36 cc3d 250e 01be 807a 003d 3617 f43d
00000080: 7e92 c93d ca3d 3a3d f032 583d b823 81ba
00000090: d736 853d 9426 3fbd 7fe4 ecbd e7f6 02be
000000a0: ad6f b23b 729e 873d b56c dfbd 86d2 453d
000000b0: 31f0 0ebc 6f51 f03d a498 4cbd 269b dc38
000000c0: 8c13 08bc b2b4 4e3c 9540 49bd 36fb b5bd
000000d0: 4488 48bd 0393 9b3d 8015 bcbc 4ec4 48bd
000000e0: d02b 9cbd 8ed2 67bc 5524 f6bd 5fd1 e5bd
000000f0: 3583 8abb 4498 4b3d 56be a1bd 266d ea3c
00000100: 8b16 253d e6a7 c83d e687 39bd 7ef8 943c
00000110: 6e6f b6bd be09 3d3d 53ed e63d 9966 f7bd
00000120: 7b2a a4bd 720c efbd 2f7f 2dbd 4932 02be
00000130: 78c3 23bc 9551 493d 47e6 f1bc d094 e23d
00000140: 60f5 d2bd 312c eebd 0824 cf3d 3423 dabd
00000150: 1cfe 033d e441 aa3d f106 a7bd 0f70 13bd
00000160: 9898 7a3c 8de1 95bd a5fa 4d3d 3f2d 9c3d
00000170: 6b6e 893d f051 87bd 3010 71bd efed dfbc
00000180: 822e 5c3d 1889 b23d e374 a63d 9914 b13d
00000190: 0c81 9a3d f026 8c3d f866 92bd 7d81 cbbd
000001a0: 395d cd3c ebe0 fabd 2d29 85bd 5a40 d83c
000001b0: e52b 283d daf8 37bd 3597 7abd 7612 eb3c
000001c0: 3708 b03d e6d1 353d e287 4abd 2d2f 5b3d
000001d0: ee90 933c 903e c8bd e948 ae3d 359c 11bd
000001e0: 97c0 bb3c 10fb ab3d ceaf aa3d 422d b8bd
000001f0: 3ce9 883d bb96 b3bd 26c5 903c 7723 0a3d
00000200: 3fdc e9bd 4863 f8bc d9f7 21bc 8f09 c53d
00000210: cc92 bebc cc2a 8bbc aca5 58bd e908 c5bc
00000220: 7f98 00be a3e1 f93b 5d1a a53d 8d1a f2bc
00000230: 2a3b d43d fab1 a5bd b583 003b 149e f1bd
00000240: 34e3 86bd 1465 e9bd e1c2 90bd 69d2 ba3c
00000250: 9795 3dbd 719e d6bd e71e 16bd 03a3 b13d
00000260: ffb0 903d b089 46bd 0f10 0a3d 0b80 d1bd
00000270: 79c9 87bd 6c33 8d3c 0eba ce3c f747 cf3d
00000280: c1a6 aa3c 8f72 943d 2899 b6bd 64bd 323d
00000290: 23ac eabc 82e2 b63d dbab e0bd f98b ddbd
000002a0: 1911 91bd 9e2c e23d 5804 94bd 301f 8a3d
000002b0: 596f 87bc 7425 b83d 00f2 9b3d c0eb 503a
000002c0: fa36 ffbd 500d 19bd 0e31 ac3d e4e6 d3bc
000002d0: 8a05 f5bd ba1c 7e3b ff26 54bd ca68 75bb
000002e0: 119c 90bd 5f7a d8bd d4c4 56bd 87d7 783d
000002f0: be8a 753c 9074 963d 8ab9 ffbd d94e 3eba
00000300: c39e 0abc 7294 d0bd 3244 65bd 5758 86bc
00000310: c161 7cbd dec8 5a3c 067b b83d b804 88bd
00000320: 8664 7fbd 2c98 cabc 9e0a b03d 2af5 43bd
00000330: f074 d4bd db55 d63d 946e 843d b0ac 453c
00000340: f0bd 90bd 701b f3bd bb92 7fbb 486b 64bd
00000350: 4776 703d a499 ab3d 3f1d 00bd 8bde 07be
00000360: fee8 20bb f407 30bd fac8 d43d ad4a 2dbd
00000370: 8ade 6cbd cbed 98bd a4ef f1bd b5da f9bd
00000380: 69e0 a2bc 4e1f 9a3d 9eaf 483c 9dd4 fd3c
00000390: 7f2e 0cbd 10fc cfbc 1608 ccbd b5ab 1d3c
000003a0: 8caf 793c 07ff c53c 9203 da3c 11bc 4d3d
000003b0: c78e 603d bf23 2cbd 5d18 233c 3486 d83d
000003c0: 71a8 b2ba f78d 2d3d bff4 23bd 6c9e 4dbd
000003d0: af2c 93bd b500 16bd 1b8d ef3d d7bd eabc
000003e0: 6ab2 f63c 31b3 c9bd c947 e2bd e48a 9abd
000003f0: 744e 823d 4cd1 a13d 507e 483d 52cd db3d
