reports/archive/test-1/lstm_best.pt (torch, 71917 bytes, 5 tensors)

lstm.weight_ih_l0 f4 [256, 1]
000000 66 dd b4 bd e0 d5 e5 bd 48 81 00 3d ae bb bc 3d
       -0.08831291 -0.11222434 0.031373292 0.092154846
000010 da e7 78 3b 73 bc 5e bd 2e 38 aa bd cb 33 d6 3d
       0.0037979991 -0.054378938 -0.08311497 0.104590975
000020 e8 87 6a 3c 6d 4d 19 bd 45 de 06 3d dc 25 b9 3d
       0.014314629 -0.037427355 0.032926816 0.09040424
000030 98 b0 10 3d 5e d7 8c 3c 96 40 ad bc bb 42 8e bd
       0.035324663 0.017192539 -0.021148961 -0.069463216
000040 51 e4 cb bc ff 30 11 3d 17 29 ba bd 60 87 8a 3d
       -0.024889143 0.035447117 -0.090898685 0.06764102
000050 b8 5b d0 bd 61 d5 f5 3d 42 73 92 3c 14 b8 09 bd
       -0.10173744 0.120035894 0.017877225 -0.033622816
000060 c7 78 2f bd 8f 93 30 bd ce 5b 20 3d c9 0c f3 bd
       -0.04283979 -0.043109473 0.03915005 -0.11867673
000070 b8 96 b0 3d e9 09 b0 3d 34 b7 15 3c d9 51 62 3d
       0.08622497 0.0859564 0.009137917 0.055253837
000080 24 28 90 bd 67 63 7c 3d f5 09 01 be cf 80 03 3c
       -0.07038906 0.061618235 -0.12601455 0.008026316
000090 3e dd 9f bd 8d 54 4c bc 02 66 3a bc 9a f3 8b bc
       -0.078058705 -0.01247133 -0.01137686 -0.017083932
0000a0 9b 62 ee bd 85 ed b7 bd 50 5e 72 3c 0c 6b bc 3d
       -0.11639901 -0.0898085 0.014792994 0.09200105
0000b0 a9 ef c2 bd 11 bf 25 3d 22 10 88 bd 64 4a a4 3d
       -0.09518368 0.04046542 -0.06643702 0.080220014
0000c0 1b c9 87 3d 68 cd 20 3d 47 26 ac bd ba 1b b6 3c
       0.06630155 0.03925839 -0.08405738 0.022230018
0000d0 95 59 a7 bd d3 7c 81 39 fd ab fb bd 77 43 82 3d
       -0.08171383 0.000246978 -0.122886635 0.06360524
0000e0 be 6f b0 bd 19 0b 91 3d cb bc 98 bd 47 e1 37 3d
       -0.08615063 0.07082195 -0.074578844 0.044892576
0000f0 84 d6 13 3d 4d 3d 6c bd 54 7c fc bd cb b9 e6 bd
       0.03609325 -0.05767565 -0.12328401 -0.11265906
000100 b7 34 60 bd fb f4 b3 bd 41 dd 27 3b cf 12 85 bc
       -0.054737773 -0.08786961 0.0025614055 -0.01624432
000110 b2 71 08 be 94 23 e6 3d 3d a9 8a 3d 8c 49 c5 3d
       -0.13324621 0.11237255 0.06770561 0.096331686
000120 a7 53 2d bc c6 c4 5e bd 37 33 dd 3d 36 51 b4 bd
       -0.010579026 -0.054386877 0.10800784 -0.08804552
000130 96 59 c1 bd 58 98 e9 3d eb 58 ab 3d c0 bc e5 3d
       -0.09440915 0.114060104 0.08366569 0.11217642
000140 e6 9b 19 bd 24 d8 34 bc 81 07 97 bd f4 39 87 bd
       -0.037502192 -0.01103786 -0.07374478 -0.066028506
000150 c2 c7 8f 3d 20 9f 98 bc d9 91 2b bd fd 3a d9 bd
       0.07020523 -0.018630564 -0.041887138 -0.10606954
000160 2f 69 86 3d 39 0f b0 3d ac 95 8a bd 20 b8 ed bd
       0.06563031 0.085966535 -0.06766829 -0.11607385
000170 1a 9a 0a 3d ec 63 ea 3d 0b 9d 7b 3d e3 d8 c1 3d
       0.03383837 0.1144484 0.061429065 0.09465196
000180 53 50 0e 3d c7 d0 50 bd 19 6c a9 bc a7 06 37 bd
       0.034744572 -0.050980356 -0.020681428 -0.04468408
000190 4f fc 9a bc 04 76 16 3d 63 61 82 3d 24 5e f1 3d
       -0.018919138 0.036733642 0.06366231 0.11785534
0001a0 d8 46 a4 3d da 28 f0 3c f7 a7 84 3d d0 4d 97 3d
       0.08021325 0.029316355 0.06477349 0.073878884
0001b0 cd 43 8d bd 9c 33 ac bd 03 6e 80 3d 53 a8 e4 3d
       -0.068976976 -0.08408281 0.06270983 0.11164918
0001c0 a9 28 e0 bd 81 94 03 3e 45 5e 49 3b ea 82 94 3a
       -0.10945255 0.12849618 0.0030726355 0.0011330519
0001d0 f2 5e 98 bd c4 31 4b ba 18 65 5b 3d 51 fb 6c bd
       -0.074399844 -0.0007751251 0.053563207 -0.05785686
0001e0 89 0b 18 bd 01 d2 19 bd 73 54 d0 bd 5b ad 8b 3c
       -0.037120376 -0.03755379 -0.101723574 0.017050436
0001f0 25 bf d0 3d 3b 01 92 bd ca 22 26 3d ae 6b df bd
       0.10192708 -0.07129141 0.04056052 -0.1090921
000200 e2 c3 51 3d ec 07 aa bd 22 de 85 bc 3f 2a c4 3d
       0.0512122 -0.08302292 -0.016341273 0.0957837
000210 5e 8d b1 3c 80 cd ab bb 98 cb e8 3d 5c e5 a0 bd
       0.021673854 -0.0052430034 0.113669574 -0.07856247
000220 03 07 5b 3d 3a 0d f4 3d 63 28 8d bc b6 9b 6a bd
       0.053473484 0.11916585 -0.017231172 -0.057277404
000230 3c c0 e1 3d 8c f5 55 bc 94 77 4d bd 25 b6 11 bd
       0.11022994 -0.013059031 -0.050162867 -0.035574097
000240 bf ee f8 bd 55 a9 e3 3c 33 98 0d bd 73 43 d4 3d
       -0.12154912 0.027790705 -0.034568977 0.103644274
000250 9c 8a 15 bd 97 90 af 3d e7 00 99 bd 36 cb 91 3d
       -0.03650914 0.085725 -0.07470875 0.071188375
000260 1f a7 82 3d 88 5f 9d 3d 21 7f b8 bc 92 ba b8 3c
       0.06379532 0.07684237 -0.022521557 0.022549901
000270 41 a7 bf 3c b7 db f7 bd bb 3a 6c bd 51 59 a5 3d
       0.023395183 -0.12102454 -0.057673197 0.080736764
000280 17 b0 19 3d cc 6a a9 3d cb 36 ce bd b0 6c ff 3d
       0.037521448 0.08272323 -0.10069045 0.12471902
000290 9f 41 7c 3d a8 e0 7b bd b3 0f 89 3c d0 bf d7 3d
       0.06158602 -0.061493546 0.016731119 0.10534632
0002a0 b8 bc b3 bd e4 37 32 bd e6 7d ae 3d 86 bd ae 3d
       -0.087762296 -0.043510333 0.08520107 0.085322425
0002b0 0c 7d 57 3b 96 23 05 3e a0 78 3d 3d 1e f3 96 bd
       0.003288093 0.13001856 0.046257615 -0.0737059
0002c0 39 9a 4e 3d 57 a2 bb 3d 6b f6 bb 3d 46 88 9e bd
       0.050440047 0.09161823 0.0917786 -0.07740836
0002d0 cb 67 b4 bd 94 87 a3 3d ee d2 cd bd ca ba d5 bd
       -0.088088594 0.07984844 -0.10049997 -0.10436018
0002e0 56 13 db bd 69 5c ae 3d 84 91 a1 3d c9 1f b0 bd
       -0.106970474 0.085137196 0.07889083 -0.085998125
0002f0 c9 87 c0 bd 54 e1 34 bd b3 72 68 3b 3a 97 33 3d
       -0.09400899 -0.044160202 0.0035468757 0.043845393
000300 e0 aa 7d bc e4 83 20 bd 97 10 ed 3d bf 21 94 b9
       -0.015482634 -0.03918828 0.1157543 -0.00028253903
000310 77 53 2d 3d 8c 30 96 ba 7d a0 59 bd 78 bb 29 3d
       0.042315926 -0.001145856 -0.05313157 0.04143855
000320 d8 ca a5 bd 2e 9d 25 3c 11 8d 6a 3d 0d b4 02 3d
       -0.0809533 0.010108275 0.057263438 0.03190999
000330 1a 9a 98 bd 0c 38 e1 bd 58 af b4 3d 3f 5b 87 3d
       -0.074512675 -0.10997018 0.08822507 0.06609201
000340 36 c3 59 3d 0e e0 1e bd 31 43 09 3e 6d 55 d4 3d
       0.053164683 -0.038787894 0.13404538 0.10367856
000350 f2 dd b1 bd 62 91 b8 3b af 2d 8d bd 36 5d f0 bd
       -0.08684911 0.0056325654 -0.06893479 -0.117365286
000360 30 61 bd bd fa 48 2b 3c 8f d6 04 3e 20 a4 cf bd
       -0.09247053 0.010454411 0.12972473 -0.10138726
000370 96 73 ff bc f9 44 90 3c cd 16 ce 3d cf 9a 34 3c
       -0.031183045 0.017611014 0.10062943 0.011023237
000380 17 5d aa 3d cd 8a e7 bd cb 7b e2 3c 3f db e2 3d
       0.08318537 -0.11305771 0.02764692 0.11076974
000390 7c 4c d3 3d 3d 1a 2e bd 5e 5d ae 3d f0 ff 9b 3c
       0.103173226 -0.04250549 0.08513902 0.019042939
0003a0 c5 12 d6 bd 27 64 07 3d 9b 2f e1 bd 0d 5b f3 bd
       -0.10452799 0.033054497 -0.10995408 -0.11882601
0003b0 ec 47 2d ba 1c 10 9e bd e8 7c a3 3d b6 dd d7 3d
       -0.00066101435 -0.07717916 0.07982808 0.10540335
0003c0 a0 1b 56 bd 98 d3 ca 3d 14 ce 0b 3d da ac 1b 3d
       -0.05227244 0.099036396 0.03413208 0.03800664
0003d0 e2 b5 62 3d 60 d1 c4 bd 06 d0 18 bd 6e 11 16 bd
       0.05534924 -0.096102476 -0.03730776 -0.036637716
0003e0 28 92 82 3d e9 6e c3 3c be 9f a7 bc 10 fd 8b 3d
       0.06375533 0.023856597 -0.020461913 0.06835377
0003f0 51 8e e3 3d 01 66 90 3c 9a 1e b0 3d fd 74 1c bd
       0.11111129 0.017626764 0.08599587 -0.038197506

lstm.weight_hh_l0 f4 [256, 64]
000000 6c a9 cb bd 62 d9 46 3d 9a 34 5c 3d 8e 51 85 3d
       -0.09944424 0.048547156 0.053761102 0.06509696
000010 1c 59 a6 bd 7f 0c e9 3d 98 a0 58 bd 53 c5 31 bd
       -0.08122465 0.113793366 -0.05288753 -0.043401074
000020 fe 3f 02 3e 3d e2 e4 bd 74 76 9a 3d d6 83 bf 3d
       0.12719724 -0.11175964 0.075421244 0.093513176
000030 4d 8e 19 3d df 18 b9 3b 33 df 7f bd e9 53 dd 3d
       0.037489224 0.005648717 -0.06246872 0.1080702
000040 f2 74 a0 ba c1 33 92 bd 0f 9e 92 bc 75 e1 18 bd
       -0.0012241884 -0.071387775 -0.017897634 -0.037324388
000050 2d d8 e0 bd 65 bd d8 3d f7 61 c6 bb 4d 02 32 bc
       -0.10978732 0.10582999 -0.006054159 -0.010864806
000060 cd 10 fe ba 9c 74 ed bc dd 52 b0 3c 90 75 e6 3c
       -0.0019383669 -0.028986268 0.021523887 0.02813223
000070 7a ef 73 3d d7 d9 a6 bd 6f 59 7a 3d 59 c2 b8 3b
       0.059554555 -0.081470184 0.061120447 0.0056384024
000080 dd 8a ae 3d 92 ae 5a 3d d8 e6 b0 bd 5c 73 8d 3d
       0.0852258 0.05338914 -0.0863778 0.06906769
000090 e0 2b 34 bd 14 7d 52 bd 8a a5 99 bc f7 f8 45 3d
       -0.043987155 -0.051388815 -0.018755693 0.048333135
0000a0 5d dd 80 bd 62 13 cc 3d 2b 91 44 bd 51 ac fd 3d
       -0.06292222 0.099646345 -0.047990005 0.12386382
0000b0 cf be c6 3d de 0a f5 bd 79 c5 06 3e 1e 46 c9 3d
       0.097043626 -0.119649634 0.13161267 0.09827827
0000c0 b9 3c d6 bd 4b f6 3a 3d 9f 4c 74 3b 59 d7 ad 3d
       -0.10460801 0.04564504 0.0037277115 0.0848834
0000d0 be be f4 3d 86 cd bc bd 08 e9 cb 3a 1b 2a 04 3e
       0.11950444 -0.09218888 0.001555712 0.12906687
0000e0 a1 42 0a 3d 6f f1 1a bd 71 d5 5a bd 4b 95 7d bc
       0.03375495 -0.037827905 -0.05342621 -0.015477489
0000f0 1c ff eb bc c5 54 a7 bd fd b9 f3 bd eb 51 b4 3d
       -0.028808169 -0.081704654 -0.11900709 0.08804687
000100 16 73 52 bd c8 56 ac bd f0 9a e5 3d d4 6d 79 3c
       -0.051379286 -0.0841499 0.112111926 0.015223939
000110 f4 a8 84 3c 74 c7 17 3d e1 bd b8 bd a7 41 45 3c
       0.016193844 0.037055448 -0.090205915 0.0120395785
000120 06 43 1e 3b ea b8 b0 3d b0 20 0b 3b ee d4 e4 3c
       0.0024148836 0.086290196 0.00212292 0.027933564
000130 57 31 cf bd 3d fc df 3d 3e 74 62 bd d0 c8 1c bd
       -0.10116833 0.109367825 -0.05528664 -0.038277447
000140 68 26 84 bd 45 df 1e bd 9a 17 fb bc d0 bf a6 bd
       -0.06452638 -0.038787145 -0.030650903 -0.08142054
000150 af ec 92 3d 7f f8 bb 3d 1d 98 0b bd bb 70 52 3d
       0.0717405 0.09178256 -0.034080613 0.05137704
000160 41 f9 0f bd 81 59 ea bd a8 38 56 bd fa dc 03 3d
       -0.035149816 -0.11442853 -0.052300125 0.03219316
000170 3b 2e a8 3d cb 67 44 3d db 35 23 bc 83 0b c8 bd
       0.08211943 0.047950547 -0.009961571 -0.09767821
000180 c0 1a 37 bd 2e d7 84 3d ad 11 f9 bd 6f db d6 bc
       -0.044703245 0.06486355 -0.121615745 -0.026227681
000190 25 fd c8 3b 80 e7 dc 3d b6 4f 79 bd 75 7e 9e 3d
       0.006133693 0.107863426 -0.060867034 0.077389635
0001a0 52 f0 96 bb 93 8b 99 bd 4c 26 93 3d 1d fd ec 3d
       -0.004606285 -0.07497325 0.07185039 0.11571715
0001b0 82 40 b4 bb a5 7d bd 3c b2 82 96 bd 94 e1 cc bd
       -0.005500854 0.023131201 -0.07349147 -0.10003963
0001c0 01 e4 00 3e 9d 64 8f bd b5 c4 23 3d a8 c1 42 bd
       0.12586977 -0.07001612 0.039982516 -0.047547966
0001d0 4d e9 f6 3d ff 68 14 bd c1 84 bf bc 72 f8 6b 3d
       0.12056217 -0.036232945 -0.023378732 0.057609983
0001e0 dd 51 c3 bd 54 b5 04 3d 9c f7 15 bc ce 97 e6 3d
       -0.095370986 0.03239949 -0.009153273 0.11259423
0001f0 ac 65 ec bd 90 3c 11 bd ea 81 e8 bc 40 dd ae bd
       -0.1154283 -0.035458148 -0.02838226 -0.08538294
000200 0e 6c 47 3c 56 a1 9d 3d 20 87 cf 3c f9 6a 89 bd
       0.012171758 0.07696788 0.025332987 -0.067098565
000210 bc 78 d7 3d a5 f5 74 bd c4 b0 c5 bd 90 b4 95 3c
       0.10521075 -0.059804577 -0.09652856 0.018274575
000220 62 5f ae bd 81 67 ae bd 78 cf d7 bd 64 6b f2 3d
       -0.085142866 -0.085158356 -0.105376184 0.118368894
000230 fa a2 85 bd 1c cb 85 3d 24 b9 c1 3c 05 dc 0e 3d
       -0.06525226 0.06532881 0.023647852 0.034877796
000240 58 60 b7 3b 8d 0f c4 bd c1 87 9e 3d 93 98 66 ba
       0.005596202 -0.095732786 0.07740737 -0.0008796539
000250 7d e1 88 bc 98 ef 58 bd 3d 77 9e bd 66 18 6c bd
       -0.016709084 -0.05296287 -0.07737587 -0.057640456
000260 9c ad bb 3d 5f 1c ce 3d 5b e2 0b 3d c1 06 c1 3d
       0.09163973 0.10064005 0.034151416 0.09425116
000270 a8 f4 c1 3c a6 f5 d4 3d 85 54 62 bd 0b 69 d6 bd
       0.023676232 0.10398416 -0.055256385 -0.10469254
000280 2d b4 89 bd 77 0c a9 3c f5 c9 6f bd 3f 52 46 3d
       -0.06723819 0.020635827 -0.05854221 0.04841828
000290 9f 22 9e bd d5 53 24 3d df ff a0 3c b0 27 bb bd
       -0.07721447 0.04011901 0.019653259 -0.09138429
0002a0 b5 78 07 3c d0 4d 3a b8 c6 80 80 3d 96 e7 a6 bc
       0.008268525 -4.4418324e-05 0.062745616 -0.0203741
0002b0 4a d1 9c bd 94 c0 f0 bd 66 bb 3c 3d 62 9e f1 3c
       -0.07657106 -0.11755481 0.046077155 0.029494468
0002c0 d8 45 06 3e 5d 99 d9 bb d3 a1 c6 3d c5 c6 6f bc
       0.13112581 -0.006640597 0.09698834 -0.014634793
0002d0 1b a6 05 3e 7b 56 f0 bd be 69 bd 3d 97 1d e7 bd
       0.13051645 -0.11735245 0.09248684 -0.11284941
0002e0 03 f5 d5 bd 49 d4 b8 3c bf 10 06 bd c1 2e 9c bd
       -0.10447123 0.022562163 -0.032730814 -0.07626105
0002f0 ad 4a f9 3d 28 69 4e 3d a3 3e bb bd e5 ef a2 3c
       0.121724464 0.050393254 -0.091428064 0.019889781
000300 84 af 9b bd c8 78 31 3c 21 95 bf bd d8 83 44 3c
       -0.07601836 0.010832019 -0.09354616 0.011994325
000310 c1 f7 a0 3c 41 03 c2 bd 52 9e ed 3c ea a7 8c 3b
       0.019649388 -0.09473277 0.029006157 0.004292478
000320 0c 1a be bb f7 2f da bd b0 5e f3 3c 3f 4d ae bd
       -0.005801445 -0.1065368 0.029708236 -0.08510827
000330 fa 17 86 bc 92 d6 ae bc 99 7e d8 3d 01 5d de bd
       -0.016368855 -0.02134255 0.105710216 -0.10857583
000340 76 b0 dd bd 62 38 4a 3c b3 50 0d bd 64 fb ae bd
       -0.10824673 0.012342544 -0.03450079 -0.08544043
000350 96 ea 43 bd 7e 49 a9 3d f1 4d 86 3c 85 d8 c4 3d
       -0.04783114 0.08265971 0.016394587 0.0961161
000360 d8 33 e8 3c 71 ed a4 bd 01 5d ea 3d 21 fc 11 bc
       0.028345034 -0.08053101 0.1144352 -0.00891021
000370 10 2a f6 bd 72 c0 d4 3d cf 5f 08 3d 5f 1a 65 bd
       -0.120197415 0.103882685 0.033294495 -0.055933353
000380 dd 05 a7 bd ff 0b 12 3d f4 d9 c2 bd 64 2e 85 bd
       -0.08155415 0.03565597 -0.095142275 -0.06502989
000390 4c bf bb 3c 4e 5c 61 3d 66 63 eb 3c 15 6d dc bb
       0.022918366 0.05501967 0.02873392 -0.006726871
0003a0 42 1c 1c 3d 68 cd 1e bc 92 3b 00 3c 7e 1b 55 bd
       0.038112886 -0.009692527 0.007826703 -0.05202817
0003b0 af 0d 02 3e 0b 86 9e bc 01 8e 0c bd cc a5 f1 bd
       0.12700532 -0.019351026 -0.034315113 -0.11799201
0003c0 6f c3 ef 3d da 5d be bd f2 18 38 bd 6d bb cf bd
       0.11707198 -0.092952445 -0.044945665 -0.101431705
0003d0 5e 16 55 3d 12 4b 39 bd 38 7b ac bd b7 c2 86 3d
       0.052023284 -0.04523761 -0.084219396 0.06580108
0003e0 0e 49 8e bc 8f 69 f4 bd 84 5b a2 bd 2d 82 c9 3c
       -0.01736882 -0.11934196 -0.079276115 0.024598205
0003f0 e8 18 8e 3d 1f 6e 0f bd bb c5 b3 bd ed 41 b6 bd
       0.06938344 -0.03501713 -0.087779485 -0.08899293

lstm.bias_ih_l0 f4 [256]
000000 9d 21 a9 3d e4 ab ae bd 92 85 5d 3d a0 70 bd bd
       0.08258364 -0.08528879 0.05408246 -0.09249997
000010 10 25 ba bd 3b dd 10 3d 6d 03 21 bd a3 ee 20 bd
       -0.090891 0.03536723 -0.039309908 -0.03929008
000020 9b c3 bf bd 0e 40 73 bd 83 5f e6 3d c4 18 c4 bd
       -0.09363481 -0.05938726 0.11248686 -0.09575036
000030 ce 94 27 3d c9 a3 99 bd ba 06 b8 bb 9e 5e 07 3d
       0.040913396 -0.07501943 -0.0056160362 0.03304922
000040 6e f4 2d 3d bd 05 e6 bd 56 f0 c0 3d 4f 60 29 bd
       0.042469434 -0.11231563 0.094208404 -0.041351613
000050 79 df 76 3d bc b7 9b bd 72 27 d8 bd b2 8a a0 3c
       0.060271714 -0.07603404 -0.105543986 0.019597385
000060 ce 54 b6 bd 8b 6a 8a 3c 5f c1 1f bc 6e 24 59 bd
       -0.08902894 0.016896507 -0.009750693 -0.053013258
000070 53 35 ba bd c3 d0 d9 3d ab 3f 0e bd f7 46 ca bd
       -0.09092202 0.10635521 -0.034728687 -0.09876817
000080 90 04 c1 bd ba 60 f8 3c d7 f9 c9 bd 4b 80 d6 bd
       -0.09424698 0.03031956 -0.09862106 -0.10473689
000090 18 38 6d 3c 29 03 fb 3d bc 4a 77 bd f4 28 75 bd
       0.014478706 0.12256462 -0.060374007 -0.05985351
0000a0 78 63 2f bd ef e1 fd bb 76 48 e1 3d 40 0b 9c bd
       -0.04281947 -0.0077478806 0.11000149 -0.07619333
0000b0 89 c9 d4 bd 2d f6 f5 3c 27 5c 93 bd 85 2b 49 bd
       -0.10390002 0.030024612 -0.07195311 -0.04911377
0000c0 a4 2f 48 bd 9e 30 1b bd 36 fd 75 3d df 96 c5 3d
       -0.04887356 -0.03788816 0.060055934 0.09647917
0000d0 f6 6e ea bd a9 53 f8 bd 50 c0 ab bd 67 90 a8 bc
       -0.11446945 -0.12125332 -0.0838629 -0.020576669
0000e0 11 30 6d bd c6 1b 03 bc 55 c1 c7 bd 65 42 2b 3d
       -0.057907168 -0.008002227 -0.09753672 0.041811366
0000f0 81 9a e5 bc c6 15 d6 3a 5d 13 d7 bd 0d af ef 3d
       -0.028027775 0.0016333393 -0.1050174 0.1170331
000100 5b 9d b3 bc 7b 23 f0 bd da 74 33 bd a1 f0 e3 bd
       -0.021925619 -0.11725517 -0.04381261 -0.11129881
000110 d9 73 f3 bd 85 40 e3 3d f0 82 8a bd 3b 74 24 bc
       -0.118873306 0.110962905 -0.067632556 -0.010037477
000120 37 85 94 bd 28 05 fd bd 7d d6 63 bd 79 83 09 bd
       -0.07251971 -0.12354499 -0.055624474 -0.033572648
000130 5a 10 f0 bd 3b f4 ba 3d 81 01 f3 bd d3 95 82 bd
       -0.11721869 0.091286145 -0.11865521 -0.06376233
000140 3a 30 0a 3d dd 48 bb bd a0 55 3d 3d 51 95 84 3d
       0.0337374 -0.09144757 0.046224236 0.06473792
000150 1a 5c 3c 3d 26 05 87 bc 4d 17 a3 bd d4 57 6d bc
       0.045986272 -0.016481947 -0.07963429 -0.014486272
000160 7a 74 9f 3d 4c 22 bb 3d ad 81 12 bb 36 d0 82 3d
       0.07785888 0.09137401 -0.0022355125 0.06387369
000170 f9 2a 8c bd 50 37 5c 3d 80 d8 86 bd 53 c3 84 bc
       -0.06844134 0.053763688 -0.06584263 -0.01620642
000180 18 27 72 3d d6 2a ef 3d 6b d6 b9 bd 11 e6 b8 3d
       0.059119314 0.11678092 -0.090741 0.09028257
000190 ee 91 9d bd d3 d4 fd 3d 41 66 05 be 3c 70 af bd
       -0.076938495 0.123941086 -0.13027288 -0.08566329
0001a0 32 c8 e4 3d f7 8f f1 bd c4 74 8b bd bd 6c f3 bd
       0.11170997 -0.11795037 -0.06809381 -0.118859746
0001b0 70 9d f0 bd 60 c0 40 bd 8b 9a 9a 3c 5c b4 38 bd
       -0.11748779 -0.047058463 0.01887252 -0.04509388
0001c0 a8 95 b3 3d 0a 35 a2 3d 49 d2 f7 bd 47 9c 78 bd
       0.08768779 0.07920273 -0.121006556 -0.060695913
0001d0 49 e8 58 bd c3 ef e9 3d 20 c6 87 3d 05 7e 6d 3d
       -0.0529559 0.11422684 0.06629586 0.05798151
0001e0 c3 60 69 3d f6 ed f3 3d dc 71 eb 3d f1 cf c4 bc
       0.056977045 0.11910622 0.11496326 -0.024024935
0001f0 9e fc 84 bd b0 c1 ab bd 10 32 41 bd 77 f1 67 3a
       -0.064934954 -0.08386552 -0.047166884 0.0008847932
000200 a4 04 eb 3d dd 46 3c bc 22 fe ec bd ee b3 e5 3d
       0.114754945 -0.0114915045 -0.115719095 0.112159595
000210 5d fe 86 bd 1d 81 87 bd f4 9f 3e bd 0e ac b2 bd
       -0.06591485 -0.06616423 -0.046539262 -0.08724223
000220 bd 1f 9a bc 13 d3 59 bd 59 4a fc 3c cc 45 a7 bd
       -0.018813962 -0.05317981 0.03079717 -0.081676096
000230 43 b2 68 3d 30 3f a6 3d d6 fa 1e bd 9b 08 de 3c
       0.05681063 0.08117521 -0.038813435 0.027103713
000240 b4 1a 93 3d 02 61 6b 3d 5e 9c 3e 3c 65 ac 85 3d
       0.071828276 0.05746556 0.0116339605 0.06527022
000250 aa 3d bc bd fc d4 21 bd 91 5d 2a 3d 22 c7 bd bd
       -0.09191449 -0.03950976 0.041593138 -0.09266497
000260 4e 36 e5 3d f0 68 ca 3a 4c 12 7a 3b e0 c2 ba bb
       0.111919984 0.0015442651 0.0038157878 -0.0056995004
000270 29 bf 78 3d d7 19 9c bd 7a dd 17 3d d4 36 1a bd
       0.06072918 -0.07622116 0.03707645 -0.037649944
000280 15 f0 84 3d 3a 10 d2 3d 04 68 b2 3d 92 4b f2 bd
       0.064911045 0.10257001 0.08711246 -0.1183082
000290 b7 65 60 3d 32 4d f2 3d c5 c5 9e 3c 37 37 3a bd
       0.054784503 0.1183113 0.019381413 -0.045462813
0002a0 25 81 1a bd 4b a7 b9 bd 95 14 a1 3d 82 8e 72 bd
       -0.037720818 -0.09065112 0.07865254 -0.059217937
0002b0 40 57 b4 bd 75 4c f8 bc b6 9e d5 bd 56 7d f8 bd
       -0.08805704 -0.030309895 -0.10430662 -0.12133281
0002c0 72 35 dd bd 82 86 b4 bd ac 78 44 bd 49 1c 46 3d
       -0.108012095 -0.08814718 -0.047966644 0.04836682
0002d0 df e5 2d bd 48 1b 24 bd ba 23 4b bc 45 ef 51 bd
       -0.04245555 -0.04006508 -0.012398655 -0.051253576
0002e0 4d e2 66 3d 7b 5b cd bb ba 2a 81 3d 8b 1e a5 3d
       0.05636816 -0.006267009 0.063069776 0.08062466
0002f0 66 91 5e bd 1b 8d c0 bd 0d e9 85 3c 5c cf 82 bc
       -0.05433788 -0.09401914 0.016346479 -0.015968017
000300 12 48 47 bc fb ab f8 bd c1 4d e9 bc 4d cc 87 3d
       -0.012163179 -0.12142178 -0.028479459 0.06630764
000310 fb 67 f5 bd 61 b8 fe bc da 12 15 bd 76 df f7 3d
       -0.11982723 -0.031093778 -0.03639493 0.12103169
000320 c1 32 f6 bc 33 44 01 bc 0f 2b ae bd cc e2 82 3d
       -0.030053498 -0.007889795 -0.085043065 0.06390914
000330 d3 42 cd 3b 0a 56 fd 3c 43 af 22 3c e4 c5 c8 bc
       0.0062640696 0.030924816 0.009929481 -0.024508424
000340 20 cf f4 3d d1 ce e1 3d b0 fc b4 3c 8b ea f1 bd
       0.119535685 0.11025775 0.022093147 -0.11812314
000350 87 ca d0 bd c4 89 1a bd 64 80 d3 3d 4f 82 20 bc
       -0.10194879 -0.03772904 0.10327223 -0.009796693
000360 d3 ee 88 bd ac 26 c7 bd 07 02 a1 3c 13 e3 a9 bd
       -0.06686177 -0.09724173 0.019654287 -0.08295264
000370 94 09 c8 3d 46 3f fb bd be 48 8c 3d 98 64 db 3d
       0.09767452 -0.12267928 0.06849812 0.10712546
000380 0e 34 90 3d f2 21 32 bd 0c 91 7f bc a2 33 01 bd
       0.07041179 -0.043489404 -0.015598547 -0.03154338
000390 6f 96 94 3d d8 60 02 3d 4d 48 31 bd 79 16 a6 bd
       0.072552554 0.03183064 -0.043281842 -0.08109755
0003a0 8f a3 7f 3d d7 11 93 3c 1d b2 a7 bd 30 02 95 3c
       0.06241184 0.017952843 -0.08188269 0.01818952
0003b0 a0 a4 1f bc 9e a2 8f 3d 01 3a 4d bd 9f a1 46 bd
       -0.0097438395 0.07013439 -0.050104145 -0.048493978
0003c0 91 02 96 bd d2 57 11 3d e6 76 e1 bd 63 5c c3 bd
       -0.07324708 0.035484143 -0.11009006 -0.09539106
0003d0 01 86 54 3d 44 e8 94 bc 4e bd 83 bd 4f cc 4a bc
       0.05188561 -0.01817716 -0.064325914 -0.0123778125
0003e0 2f b2 cd 3d 68 0f bf bd c4 73 e5 bd 39 9a 45 bd
       0.100437514 -0.093291104 -0.11203721 -0.04824278
0003f0 6f b2 ab bd 43 b2 9e bd be ba 05 bd 67 8b 31 bd
       -0.08383643 -0.077488445 -0.032648794 -0.043345835

lstm.bias_hh_l0 f4 [256]
000000 29 fa c7 bd 09 0b 68 bc 52 47 42 3d 95 80 11 bd
       -0.09764511 -0.014162787 0.047431298 -0.035523016
000010 1c ad c1 3d 7e 4d 0d 3c ad c7 fd bd e4 35 a5 3d
       0.09456846 0.008624433 -0.12391601 0.080669194
000020 2e 08 a7 3c b1 44 a7 3d f7 70 c3 bd e6 ee b2 3d
       0.020389643 0.08167399 -0.09543031 0.087369725
000030 35 a8 8d 3c 7e 85 f8 bd 41 53 cf 3c 3c dc c7 bc
       0.017292121 -0.121348366 0.025308253 -0.024397008
000040 15 39 d2 3d f4 70 3f bc ff 36 64 3d 4f 91 cf 3d
       0.10264794 -0.011684645 0.05571651 0.10135137
000050 9f 8a c7 bd 11 de 02 be 64 1e ab bd 90 e7 05 bd
       -0.09743237 -0.12780024 -0.08355406 -0.03269154
000060 2c 30 a4 bd 64 48 58 bd 13 28 c8 3d 0a f8 19 3d
       -0.080170006 -0.052803412 0.097732686 0.037590064
000070 b8 95 0a 3d 49 ea aa bd 12 b0 54 bd 1b d9 64 3d
       0.03383419 -0.083454676 -0.051925726 0.05587111
000080 db 22 6e bd 9c d4 af 3d 79 4b cb bd de f1 99 3c
       -0.05813871 0.08585474 -0.09926505 0.01879209
000090 24 58 13 bc b7 bd df 3d b8 16 52 3d 82 ab ae bd
       -0.008993182 0.10924857 0.051291198 -0.08528806
0000a0 28 f9 49 bc 70 a6 c6 bb ee 07 cb 3c cb e7 55 bd
       -0.01232747 -0.0060623214 0.024784055 -0.052223008
0000b0 b5 fb 2b 3c 9c 77 9c 3c 45 00 ac 3d c4 22 bc bb
       0.010497023 0.019100003 0.08398489 -0.005741449
0000c0 35 c0 f1 bd d1 84 00 be 48 02 35 3d fa ec 4b bc
       -0.11804239 -0.12550665 0.04419163 -0.012446636
0000d0 42 df c4 3d 22 4a 06 bc cc 9f cc bd 1c 33 4b 3d
       0.096128955 -0.008196386 -0.09991416 0.04960929
0000e0 ac 1d 0c bd 71 41 e5 bd ed 6e ae 3d e2 69 5c 3c
       -0.034207985 -0.111941226 0.08517251 0.013452979
0000f0 5a 3b f9 3c e9 c6 32 3d ae 2f 5e bd ec 4d a6 bc
       0.030423809 0.043646727 -0.05424469 -0.020300828
000100 c5 4b 24 3d 2e c1 45 3d ea 63 00 3d 2d e4 af 3d
       0.040111322 0.048279934 0.031345285 0.08588443
000110 a3 d7 a6 bd 0b 99 ac bc e6 af 04 be bb 32 f4 bd
       -0.08146598 -0.02106907 -0.12957725 -0.119237386
000120 c3 50 7a bc 5e 1c 60 3d 2f bd 9b 3c 31 94 be bd
       -0.015278044 0.054714553 0.019011108 -0.09305609
000130 d6 22 63 bd fd a2 4a 3d 45 07 75 bd 15 7d ea 3d
       -0.055453144 0.049471844 -0.059821386 0.11449639
000140 84 54 cb bc 7d 30 e8 3d ae 50 d7 3d 0d 0f b3 3d
       -0.024820574 0.113373734 0.10513435 0.08743105
000150 ff 6c 18 bd 32 b2 ef bd da 68 1a bc cc 7a 18 3d
       -0.03721332 -0.1170391 -0.009424413 0.037226483
000160 8b d4 3c bd 7c d0 96 bd f9 03 fd bd 4a 10 c7 bd
       -0.046101134 -0.07363984 -0.12354273 -0.09719904
000170 d4 a7 db 3d 61 c5 33 3d e2 5c cf 3d a1 d3 14 ba
       0.1072537 0.043889407 0.10125138 -0.0005677287
000180 1e ef ce 3d b4 67 83 bd b0 67 35 3d 90 a1 5f bd
       0.10104202 -0.06416264 0.044288337 -0.054597437
000190 da d3 41 bc e3 89 30 3d b4 43 8a 3c 96 3d e9 3d
       -0.0118302945 0.04310025 0.016877986 0.113887
0001a0 0a bd a2 3d 19 ea 04 3c 92 09 b1 3d f5 0c f0 bd
       0.079462126 0.008112454 0.086444035 -0.11721221
0001b0 d1 3f 73 3d 6b 2f c8 bd 4a c1 66 bc ab e0 07 bc
       0.059387032 -0.09774669 -0.01408417 -0.008293311
0001c0 e6 6f ab 3d 25 c2 12 bd 2d 78 83 3d ab c1 f8 bc
       0.08370952 -0.035829682 0.06419406 -0.030365786
0001d0 4d ce 11 bd ae 8f 0f 3c d9 d5 90 3c 3b 03 c5 bd
       -0.035597134 0.008762283 0.017680096 -0.09619757
0001e0 df 6b cd 3d 95 d7 c8 bc 15 59 99 bc 5c a3 1f 3c
       0.100303404 -0.02451686 -0.018719235 0.009743538
0001f0 5e 64 b5 bd b9 3f 4b 3d 2a 60 84 3b ad 0c e6 bd
       -0.08857034 0.049621318 0.004039784 -0.112328865
000200 ab 28 e6 3a 9f 59 bd 3d be 74 50 3d 6f 0e 3a bc
       0.0017559727 0.092456095 0.050892584 -0.01135598
000210 c1 af bb 3d 43 fd df 3d 60 64 e7 39 c0 51 b7 3d
       0.09164382 0.10936978 0.0004413454 0.089511395
000220 f5 b4 c7 bd 92 15 cc bd ec fa 9c bd 97 9c 27 3c
       -0.09751312 -0.09965052 -0.07665047 0.010230205
000230 e3 07 f1 3c cd 20 8b bd ca b4 23 3c 18 c6 da bd
       0.029422706 -0.06793366 0.009991834 -0.10682315
000240 1b 25 17 3c 26 06 16 bd fd 33 90 3d 95 68 f9 bd
       0.009225155 -0.036626957 0.07041166 -0.121781506
000250 3d 9b 41 bd 1e ab a6 3b 2a 72 cc 3d c0 15 c2 3d
       -0.047267187 0.0050863167 0.099827126 0.09476805
000260 20 18 1f 3c 04 46 d0 bb 8b 2a 04 3d 6f 43 96 3c
       0.009710342 -0.0063560028 0.032267135 0.018342702
000270 24 be c4 3d e7 44 9d bd e1 fe f1 bd 56 45 a2 bc
       0.09606579 -0.07679158 -0.118161924 -0.019808453
000280 bc f6 36 bd 2a 85 3b 3c d6 28 a0 bd a9 0e 74 bd
       -0.044668898 0.011445323 -0.07820289 -0.059584294
000290 2b d5 12 3d 96 08 56 3b c3 b9 0e 3d 2c d8 9e bc
       0.035847824 0.0032658926 0.034845125 -0.019390188
0002a0 a3 a9 ba bb 5b f4 d3 3d 67 f3 03 be 05 7f 33 bd
       -0.005696492 0.103493415 -0.1288582 -0.043822307
0002b0 20 36 56 bd c9 26 86 3d f7 6d 0e 3c 67 c3 32 bd
       -0.05229771 0.065503664 0.00869321 -0.04364338
0002c0 b8 1f ea 39 96 58 8d 3c 5e 02 b3 bd a6 7e e9 3b
       0.0004465559 0.017254155 -0.08740686 0.0071256934
0002d0 6f 5c 47 bd c3 42 dc 3d 61 94 ca bc 7c ac 9d 3c
       -0.048672136 0.10754921 -0.024728956 0.019247286
0002e0 9d 8a 9e bd 66 2f b4 bd 6c 98 ac 3d 81 98 b6 3d
       -0.07741282 -0.08798103 0.0842751 0.089158066
0002f0 7a b7 f6 bc e3 77 6b 3d 8b fd 87 bd db e2 ec bd
       -0.030116785 0.05748738 -0.06640156 -0.11566707
000300 3c 48 af bd a9 26 de bd 4f a4 7e 3d ff c3 a4 3d
       -0.085586995 -0.108472176 0.062168416 0.08045196
000310 4f 7b d6 3d b6 95 e6 3c 11 2a 64 bd 71 76 d6 bd
       0.10472738 0.02814756 -0.05570418 -0.1047181
000320 e0 1e 78 3d 13 b2 02 be 1d ab a7 bd 44 7b c8 bd
       0.06057632 -0.12763242 -0.08186934 -0.09789136
000330 b4 96 d6 3d 32 30 78 3c 61 bb 4e bd 18 0e a6 bd
       0.10477963 0.015148209 -0.050471667 -0.08108157
000340 28 bf c2 3d c9 d0 e7 3d 90 8c d6 3c f2 c4 9e 3c
       0.095091164 0.113191195 0.026190072 0.01938102
000350 a1 c8 94 3d 70 3f f0 3c 42 68 c1 bd 13 97 62 3d
       0.072648294 0.029327124 -0.09443714 0.055319857
000360 af 12 ad bd 11 18 73 bd ff 0a 92 3c 30 65 39 bd
       -0.08450829 -0.059349123 0.017827509 -0.045262516
000370 eb 04 39 3c 75 74 70 3d 95 aa 47 3d d0 a4 ab 3d
       0.011292676 0.058704812 0.048746664 0.08381045
000380 95 a4 06 be 5b aa ba 3d 87 6f 20 bd 63 d5 5c bd
       -0.1314872 0.09114524 -0.03916886 -0.05391444
000390 25 1c a1 bd 0d c4 be 3c 84 cf 9a bd 1e 6a 91 bd
       -0.07866696 0.023286844 -0.07559112 -0.07100318
0003a0 44 36 46 3d c4 f4 a5 bd 34 fb 60 3d bd e8 10 bd
       0.048391595 -0.08103326 0.054927066 -0.035378207
0003b0 c8 74 8d bd 13 73 1a 3d ed 1e 50 3c ee cd a9 bd
       -0.0690704 0.0377074 0.012702686 -0.08291231
0003c0 3f bd fb bd 7e 53 8e 3d a6 35 0e bd 62 ec 97 bd
       -0.12291955 0.069495186 -0.034719132 -0.07418133
0003d0 5a e3 ea 3d ca 67 7b 3d 9d aa b3 3d 59 ab 1a bd
       0.11469145 0.061378278 0.08772776 -0.037761066
0003e0 73 46 cd bd c3 d1 05 bd 4e 66 de bd 5b ee 81 bd
       -0.10023203 -0.032670747 -0.10859357 -0.06344291
0003f0 29 b5 cf 3d d1 ae c6 3d af 21 50 3c bf 1f 82 bc
       0.101419754 0.09701312 0.012703343 -0.015884278

fc.weight f4 [1, 64]
000000 1f 8b c1 bd ad 55 b6 bd 8d 88 a9 3d 5c 8b 63 bd
       -0.09450363 -0.0890306 0.08277998 -0.055552825
000010 92 42 5f 3d 72 56 e7 3d 75 3b 97 3d 26 de 65 3d
       0.054506846 0.11295785 0.073843874 0.05612006
000020 83 dc a0 3d f2 2c cd bb d5 bf f6 bd fa 90 c5 bd
       0.07854559 -0.0062614614 -0.12048308 -0.09646793
000030 9d 9b b3 ba f5 d4 c3 bd 4f 24 a6 3d 41 86 5f bb
       -0.0013702993 -0.09562103 0.08112394 -0.0034107121
000040 6e 16 ee 3d ef 1c 40 3d 7b 8a 31 bd 5d 0b 76 bd
       0.11625372 0.046902593 -0.043344956 -0.06006943
000050 45 9f e1 3d 8e bc e7 3d 53 9c f8 3d 7c dc c9 bd
       0.110167064 0.11315261 0.121391915 -0.09856507
000060 4e 1d e6 bd 34 59 8a 3d f1 2a 85 bd 6a 13 8a bd
       -0.11236058 0.067552954 -0.06502331 -0.06741984
000070 fb 9f 99 bd bf 6e 4c 3d 7a 44 bd bd 15 f8 b2 3d
       -0.07501217 0.049910303 -0.092415765 0.08738724
000080 4c b6 f0 bc 6c cd fb 3d 97 03 52 3d fa 2a 01 bd
       -0.0293838 0.122950405 0.051272955 -0.031535126
000090 4d 06 e4 bd 84 7d c1 3d 9a 5d 18 bd c1 c2 ef 3c
       -0.11134014 0.09447768 -0.03719864 0.02926767
0000a0 cb 12 de 3d e5 dc 6d 3c 9f b6 70 3c 62 b5 36 3b
       0.10843428 0.014517997 0.014691978 0.0027879109
0000b0 34 d2 8c bd 6e 96 c1 bc c8 dc 9a 3d c6 4a b8 3c
       -0.068760306 -0.0236313 0.07561642 0.022496592
0000c0 ad c3 76 3d f2 be 01 3d 24 67 41 3d f7 04 de bd
       0.060245205 0.03167624 0.047217503 -0.10840791
0000d0 b5 e2 d4 bc c6 3a e1 3d 9e 6c 32 3d 02 95 db bd
       -0.025987009 0.10997538 0.043560617 -0.1072178
0000e0 52 80 b4 bd 29 3e a5 bd 2f 7f bc 3d 1a 08 03 3e
       -0.08813538 -0.08068497 0.09203946 0.12796059
0000f0 fd 04 87 bc be 71 e2 bd bf 59 fc bd c9 a5 69 bd
       -0.01648187 -0.11056851 -0.12321805 -0.05704287
